program(1.0)
[buildInfo = dict<tensor<string, []>, tensor<string, []>>({{"coremlc-component-MIL", "3500.14.1"}, {"coremlc-version", "3500.32.1"}, {"coremltools-component-torch", "2.8.0"}, {"coremltools-source-dialect", "TorchScript"}, {"coremltools-version", "8.3.0"}})]
{
    func main<ios15>(tensor<fp32, [1, 3, 224, 224]> image) {
            tensor<fp32, []> image__scaled___y_0 = const()[name = tensor<string, []>("image__scaled___y_0"), val = tensor<fp32, []>(0x1.010102p-8)];
            tensor<fp32, [1, 3, 224, 224]> image__scaled__ = mul(x = image, y = image__scaled___y_0)[name = tensor<string, []>("image__scaled__")];
            tensor<int32, []> var_15 = const()[name = tensor<string, []>("op_15"), val = tensor<int32, []>(1)];
            tensor<string, []> patch_embeds_1_pad_type_0 = const()[name = tensor<string, []>("patch_embeds_1_pad_type_0"), val = tensor<string, []>("valid")];
            tensor<int32, [2]> patch_embeds_1_strides_0 = const()[name = tensor<string, []>("patch_embeds_1_strides_0"), val = tensor<int32, [2]>([16, 16])];
            tensor<int32, [4]> patch_embeds_1_pad_0 = const()[name = tensor<string, []>("patch_embeds_1_pad_0"), val = tensor<int32, [4]>([0, 0, 0, 0])];
            tensor<int32, [2]> patch_embeds_1_dilations_0 = const()[name = tensor<string, []>("patch_embeds_1_dilations_0"), val = tensor<int32, [2]>([1, 1])];
            tensor<int32, []> patch_embeds_1_groups_0 = const()[name = tensor<string, []>("patch_embeds_1_groups_0"), val = tensor<int32, []>(1)];
            tensor<string, []> image_to_fp16_dtype_0 = const()[name = tensor<string, []>("image_to_fp16_dtype_0"), val = tensor<string, []>("fp16")];
            tensor<fp16, [256, 3, 16, 16]> vision_model_embeddings_patch_embedding_weight_to_fp16 = const()[name = tensor<string, []>("vision_model_embeddings_patch_embedding_weight_to_fp16"), val = tensor<fp16, [256, 3, 16, 16]>(BLOBFILE(path = tensor<string, []>("@model_path/weights/weight.bin"), offset = tensor<uint64, []>(64)))];
            tensor<fp16, [1, 3, 224, 224]> image_to_fp16 = cast(dtype = image_to_fp16_dtype_0, x = image__scaled__)[name = tensor<string, []>("cast_46")];
            tensor<fp16, [1, 256, 14, 14]> patch_embeds_1_cast_fp16 = conv(dilations = patch_embeds_1_dilations_0, groups = patch_embeds_1_groups_0, pad = patch_embeds_1_pad_0, pad_type = patch_embeds_1_pad_type_0, strides = patch_embeds_1_strides_0, weight = vision_model_embeddings_patch_embedding_weight_to_fp16, x = image_to_fp16)[name = tensor<string, []>("patch_embeds_1_cast_fp16")];
            tensor<int32, [3]> concat_0 = const()[name = tensor<string, []>("concat_0"), val = tensor<int32, [3]>([1, 256, 196])];
            tensor<fp16, [1, 256, 196]> var_35_cast_fp16 = reshape(shape = concat_0, x = patch_embeds_1_cast_fp16)[name = tensor<string, []>("op_35_cast_fp16")];
            tensor<int32, [3]> patch_embeds_perm_0 = const()[name = tensor<string, []>("patch_embeds_perm_0"), val = tensor<int32, [3]>([0, 2, 1])];
            tensor<bool, []> embeddings_1_interleave_0 = const()[name = tensor<string, []>("embeddings_1_interleave_0"), val = tensor<bool, []>(false)];
            tensor<fp16, [1, 1, 256]> expand_dims_0_to_fp16 = const()[name = tensor<string, []>("expand_dims_0_to_fp16"), val = tensor<fp16, [1, 1, 256]>(BLOBFILE(path = tensor<string, []>("@model_path/weights/weight.bin"), offset = tensor<uint64, []>(393344)))];
            tensor<fp16, [1, 196, 256]> patch_embeds_cast_fp16 = transpose(perm = patch_embeds_perm_0, x = var_35_cast_fp16)[name = tensor<string, []>("transpose_100")];
            tensor<fp16, [1, 197, 256]> embeddings_1_cast_fp16 = concat(axis = var_15, interleave = embeddings_1_interleave_0, values = (expand_dims_0_to_fp16, patch_embeds_cast_fp16))[name = tensor<string, []>("embeddings_1_cast_fp16")];
            tensor<fp16, [1, 197, 256]> var_42_to_fp16 = const()[name = tensor<string, []>("op_42_to_fp16"), val = tensor<fp16, [1, 197, 256]>(BLOBFILE(path = tensor<string, []>("@model_path/weights/weight.bin"), offset = tensor<uint64, []>(393920)))];
            tensor<fp16, [1, 197, 256]> input_5_cast_fp16 = add(x = embeddings_1_cast_fp16, y = var_42_to_fp16)[name = tensor<string, []>("input_5_cast_fp16")];
            tensor<int32, [1]> input_7_axes_0 = const()[name = tensor<string, []>("input_7_axes_0"), val = tensor<int32, [1]>([-1])];
            tensor<fp16, [256]> vision_model_pre_layrnorm_weight_to_fp16 = const()[name = tensor<string, []>("vision_model_pre_layrnorm_weight_to_fp16"), val = tensor<fp16, [256]>(BLOBFILE(path = tensor<string, []>("@model_path/weights/weight.bin"), offset = tensor<uint64, []>(494848)))];
            tensor<fp16, [256]> vision_model_pre_layrnorm_bias_to_fp16 = const()[name = tensor<string, []>("vision_model_pre_layrnorm_bias_to_fp16"), val = tensor<fp16, [256]>(BLOBFILE(path = tensor<string, []>("@model_path/weights/weight.bin"), offset = tensor<uint64, []>(495424)))];
            tensor<fp16, []> var_9_to_fp16 = const()[name = tensor<string, []>("op_9_to_fp16"), val = tensor<fp16, []>(0x1.5p-17)];
            tensor<fp16, [1, 197, 256]> input_7_cast_fp16 = layer_norm(axes = input_7_axes_0, beta = vision_model_pre_layrnorm_bias_to_fp16, epsilon = var_9_to_fp16, gamma = vision_model_pre_layrnorm_weight_to_fp16, x = input_5_cast_fp16)[name = tensor<string, []>("input_7_cast_fp16")];
            tensor<int32, [1]> hidden_states_1_axes_0 = const()[name = tensor<string, []>("hidden_states_1_axes_0"), val = tensor<int32, [1]>([-1])];
            tensor<fp16, [256]> vision_model_encoder_layers_0_layer_norm1_weight_to_fp16 = const()[name = tensor<string, []>("vision_model_encoder_layers_0_layer_norm1_weight_to_fp16"), val = tensor<fp16, [256]>(BLOBFILE(path = tensor<string, []>("@model_path/weights/weight.bin"), offset = tensor<uint64, []>(496000)))];
            tensor<fp16, [256]> vision_model_encoder_layers_0_layer_norm1_bias_to_fp16 = const()[name = tensor<string, []>("vision_model_encoder_layers_0_layer_norm1_bias_to_fp16"), val = tensor<fp16, [256]>(BLOBFILE(path = tensor<string, []>("@model_path/weights/weight.bin"), offset = tensor<uint64, []>(496576)))];
            tensor<fp16, [1, 197, 256]> hidden_states_1_cast_fp16 = layer_norm(axes = hidden_states_1_axes_0, beta = vision_model_encoder_layers_0_layer_norm1_bias_to_fp16, epsilon = var_9_to_fp16, gamma = vision_model_encoder_layers_0_layer_norm1_weight_to_fp16, x = input_7_cast_fp16)[name = tensor<string, []>("hidden_states_1_cast_fp16")];
            tensor<fp16, [256, 256]> vision_model_encoder_layers_0_self_attn_q_proj_weight_to_fp16 = const()[name = tensor<string, []>("vision_model_encoder_layers_0_self_attn_q_proj_weight_to_fp16"), val = tensor<fp16, [256, 256]>(BLOBFILE(path = tensor<string, []>("@model_path/weights/weight.bin"), offset = tensor<uint64, []>(497152)))];
            tensor<fp16, [256]> vision_model_encoder_layers_0_self_attn_q_proj_bias_to_fp16 = const()[name = tensor<string, []>("vision_model_encoder_layers_0_self_attn_q_proj_bias_to_fp16"), val = tensor<fp16, [256]>(BLOBFILE(path = tensor<string, []>("@model_path/weights/weight.bin"), offset = tensor<uint64, []>(628288)))];
            tensor<fp16, [1, 197, 256]> linear_0_cast_fp16 = linear(bias = vision_model_encoder_layers_0_self_attn_q_proj_bias_to_fp16, weight = vision_model_encoder_layers_0_self_attn_q_proj_weight_to_fp16, x = hidden_states_1_cast_fp16)[name = tensor<string, []>("linear_0_cast_fp16")];
            tensor<fp16, [256, 256]> vision_model_encoder_layers_0_self_attn_k_proj_weight_to_fp16 = const()[name = tensor<string, []>("vision_model_encoder_layers_0_self_attn_k_proj_weight_to_fp16"), val = tensor<fp16, [256, 256]>(BLOBFILE(path = tensor<string, []>("@model_path/weights/weight.bin"), offset = tensor<uint64, []>(628864)))];
            tensor<fp16, [256]> vision_model_encoder_layers_0_self_attn_k_proj_bias_to_fp16 = const()[name = tensor<string, []>("vision_model_encoder_layers_0_self_attn_k_proj_bias_to_fp16"), val = tensor<fp16, [256]>(BLOBFILE(path = tensor<string, []>("@model_path/weights/weight.bin"), offset = tensor<uint64, []>(760000)))];
            tensor<fp16, [1, 197, 256]> linear_1_cast_fp16 = linear(bias = vision_model_encoder_layers_0_self_attn_k_proj_bias_to_fp16, weight = vision_model_encoder_layers_0_self_attn_k_proj_weight_to_fp16, x = hidden_states_1_cast_fp16)[name = tensor<string, []>("linear_1_cast_fp16")];
            tensor<fp16, [256, 256]> vision_model_encoder_layers_0_self_attn_v_proj_weight_to_fp16 = const()[name = tensor<string, []>("vision_model_encoder_layers_0_self_attn_v_proj_weight_to_fp16"), val = tensor<fp16, [256, 256]>(BLOBFILE(path = tensor<string, []>("@model_path/weights/weight.bin"), offset = tensor<uint64, []>(760576)))];
            tensor<fp16, [256]> vision_model_encoder_layers_0_self_attn_v_proj_bias_to_fp16 = const()[name = tensor<string, []>("vision_model_encoder_layers_0_self_attn_v_proj_bias_to_fp16"), val = tensor<fp16, [256]>(BLOBFILE(path = tensor<string, []>("@model_path/weights/weight.bin"), offset = tensor<uint64, []>(891712)))];
            tensor<fp16, [1, 197, 256]> linear_2_cast_fp16 = linear(bias = vision_model_encoder_layers_0_self_attn_v_proj_bias_to_fp16, weight = vision_model_encoder_layers_0_self_attn_v_proj_weight_to_fp16, x = hidden_states_1_cast_fp16)[name = tensor<string, []>("linear_2_cast_fp16")];
            tensor<int32, [4]> var_92 = const()[name = tensor<string, []>("op_92"), val = tensor<int32, [4]>([1, 197, -1, 64])];
            tensor<fp16, [1, 197, 4, 64]> var_93_cast_fp16 = reshape(shape = var_92, x = linear_0_cast_fp16)[name = tensor<string, []>("op_93_cast_fp16")];
            tensor<int32, [4]> var_95 = const()[name = tensor<string, []>("op_95"), val = tensor<int32, [4]>([1, 197, -1, 64])];
            tensor<fp16, [1, 197, 4, 64]> var_96_cast_fp16 = reshape(shape = var_95, x = linear_1_cast_fp16)[name = tensor<string, []>("op_96_cast_fp16")];
            tensor<int32, [4]> var_98 = const()[name = tensor<string, []>("op_98"), val = tensor<int32, [4]>([1, 197, -1, 64])];
            tensor<fp16, [1, 197, 4, 64]> var_99_cast_fp16 = reshape(shape = var_98, x = linear_2_cast_fp16)[name = tensor<string, []>("op_99_cast_fp16")];
            tensor<int32, [4]> value_1_perm_0 = const()[name = tensor<string, []>("value_1_perm_0"), val = tensor<int32, [4]>([0, 2, 1, 3])];
            tensor<fp16, []> var_7_to_fp16 = const()[name = tensor<string, []>("op_7_to_fp16"), val = tensor<fp16, []>(0x1p-3)];
            tensor<fp16, [1, 197, 4, 64]> mul_0_cast_fp16 = mul(x = var_93_cast_fp16, y = var_7_to_fp16)[name = tensor<string, []>("mul_0_cast_fp16")];
            tensor<bool, []> matmul_0_transpose_y_0 = const()[name = tensor<string, []>("matmul_0_transpose_y_0"), val = tensor<bool, []>(true)];
            tensor<bool, []> matmul_0_transpose_x_0 = const()[name = tensor<string, []>("matmul_0_transpose_x_0"), val = tensor<bool, []>(false)];
            tensor<int32, [4]> transpose_40_perm_0 = const()[name = tensor<string, []>("transpose_40_perm_0"), val = tensor<int32, [4]>([0, 2, -3, -1])];
            tensor<int32, [4]> transpose_41_perm_0 = const()[name = tensor<string, []>("transpose_41_perm_0"), val = tensor<int32, [4]>([0, 2, -3, -1])];
            tensor<fp16, [1, 4, 197, 64]> transpose_41 = transpose(perm = transpose_41_perm_0, x = var_96_cast_fp16)[name = tensor<string, []>("transpose_97")];
            tensor<fp16, [1, 4, 197, 64]> transpose_40 = transpose(perm = transpose_40_perm_0, x = mul_0_cast_fp16)[name = tensor<string, []>("transpose_98")];
            tensor<fp16, [1, 4, 197, 197]> matmul_0_cast_fp16 = matmul(transpose_x = matmul_0_transpose_x_0, transpose_y = matmul_0_transpose_y_0, x = transpose_40, y = transpose_41)[name = tensor<string, []>("matmul_0_cast_fp16")];
            tensor<int32, []> softmax_0_axis_0 = const()[name = tensor<string, []>("softmax_0_axis_0"), val = tensor<int32, []>(-1)];
            tensor<fp16, [1, 4, 197, 197]> softmax_0_cast_fp16 = softmax(axis = softmax_0_axis_0, x = matmul_0_cast_fp16)[name = tensor<string, []>("softmax_0_cast_fp16")];
            tensor<bool, []> attn_output_1_transpose_x_0 = const()[name = tensor<string, []>("attn_output_1_transpose_x_0"), val = tensor<bool, []>(false)];
            tensor<bool, []> attn_output_1_transpose_y_0 = const()[name = tensor<string, []>("attn_output_1_transpose_y_0"), val = tensor<bool, []>(false)];
            tensor<fp16, [1, 4, 197, 64]> value_1_cast_fp16 = transpose(perm = value_1_perm_0, x = var_99_cast_fp16)[name = tensor<string, []>("transpose_99")];
            tensor<fp16, [1, 4, 197, 64]> attn_output_1_cast_fp16 = matmul(transpose_x = attn_output_1_transpose_x_0, transpose_y = attn_output_1_transpose_y_0, x = softmax_0_cast_fp16, y = value_1_cast_fp16)[name = tensor<string, []>("attn_output_1_cast_fp16")];
            tensor<int32, [4]> var_102_perm_0 = const()[name = tensor<string, []>("op_102_perm_0"), val = tensor<int32, [4]>([0, 2, 1, 3])];
            tensor<int32, [3]> var_104 = const()[name = tensor<string, []>("op_104"), val = tensor<int32, [3]>([1, 197, 256])];
            tensor<fp16, [1, 197, 4, 64]> var_102_cast_fp16 = transpose(perm = var_102_perm_0, x = attn_output_1_cast_fp16)[name = tensor<string, []>("transpose_96")];
            tensor<fp16, [1, 197, 256]> var_105_cast_fp16 = reshape(shape = var_104, x = var_102_cast_fp16)[name = tensor<string, []>("op_105_cast_fp16")];
            tensor<fp16, [256, 256]> vision_model_encoder_layers_0_self_attn_out_proj_weight_to_fp16 = const()[name = tensor<string, []>("vision_model_encoder_layers_0_self_attn_out_proj_weight_to_fp16"), val = tensor<fp16, [256, 256]>(BLOBFILE(path = tensor<string, []>("@model_path/weights/weight.bin"), offset = tensor<uint64, []>(892288)))];
            tensor<fp16, [256]> vision_model_encoder_layers_0_self_attn_out_proj_bias_to_fp16 = const()[name = tensor<string, []>("vision_model_encoder_layers_0_self_attn_out_proj_bias_to_fp16"), val = tensor<fp16, [256]>(BLOBFILE(path = tensor<string, []>("@model_path/weights/weight.bin"), offset = tensor<uint64, []>(1023424)))];
            tensor<fp16, [1, 197, 256]> linear_3_cast_fp16 = linear(bias = vision_model_encoder_layers_0_self_attn_out_proj_bias_to_fp16, weight = vision_model_encoder_layers_0_self_attn_out_proj_weight_to_fp16, x = var_105_cast_fp16)[name = tensor<string, []>("linear_3_cast_fp16")];
            tensor<fp16, [1, 197, 256]> input_11_cast_fp16 = add(x = input_7_cast_fp16, y = linear_3_cast_fp16)[name = tensor<string, []>("input_11_cast_fp16")];
            tensor<int32, [1]> input_13_axes_0 = const()[name = tensor<string, []>("input_13_axes_0"), val = tensor<int32, [1]>([-1])];
            tensor<fp16, [256]> vision_model_encoder_layers_0_layer_norm2_weight_to_fp16 = const()[name = tensor<string, []>("vision_model_encoder_layers_0_layer_norm2_weight_to_fp16"), val = tensor<fp16, [256]>(BLOBFILE(path = tensor<string, []>("@model_path/weights/weight.bin"), offset = tensor<uint64, []>(1024000)))];
            tensor<fp16, [256]> vision_model_encoder_layers_0_layer_norm2_bias_to_fp16 = const()[name = tensor<string, []>("vision_model_encoder_layers_0_layer_norm2_bias_to_fp16"), val = tensor<fp16, [256]>(BLOBFILE(path = tensor<string, []>("@model_path/weights/weight.bin"), offset = tensor<uint64, []>(1024576)))];
            tensor<fp16, [1, 197, 256]> input_13_cast_fp16 = layer_norm(axes = input_13_axes_0, beta = vision_model_encoder_layers_0_layer_norm2_bias_to_fp16, epsilon = var_9_to_fp16, gamma = vision_model_encoder_layers_0_layer_norm2_weight_to_fp16, x = input_11_cast_fp16)[name = tensor<string, []>("input_13_cast_fp16")];
            tensor<fp16, [1024, 256]> vision_model_encoder_layers_0_mlp_fc1_weight_to_fp16 = const()[name = tensor<string, []>("vision_model_encoder_layers_0_mlp_fc1_weight_to_fp16"), val = tensor<fp16, [1024, 256]>(BLOBFILE(path = tensor<string, []>("@model_path/weights/weight.bin"), offset = tensor<uint64, []>(1025152)))];
            tensor<fp16, [1024]> vision_model_encoder_layers_0_mlp_fc1_bias_to_fp16 = const()[name = tensor<string, []>("vision_model_encoder_layers_0_mlp_fc1_bias_to_fp16"), val = tensor<fp16, [1024]>(BLOBFILE(path = tensor<string, []>("@model_path/weights/weight.bin"), offset = tensor<uint64, []>(1549504)))];
            tensor<fp16, [1, 197, 1024]> linear_4_cast_fp16 = linear(bias = vision_model_encoder_layers_0_mlp_fc1_bias_to_fp16, weight = vision_model_encoder_layers_0_mlp_fc1_weight_to_fp16, x = input_13_cast_fp16)[name = tensor<string, []>("linear_4_cast_fp16")];
            tensor<string, []> input_17_mode_0 = const()[name = tensor<string, []>("input_17_mode_0"), val = tensor<string, []>("EXACT")];
            tensor<fp16, [1, 197, 1024]> input_17_cast_fp16 = gelu(mode = input_17_mode_0, x = linear_4_cast_fp16)[name = tensor<string, []>("input_17_cast_fp16")];
            tensor<fp16, [256, 1024]> vision_model_encoder_layers_0_mlp_fc2_weight_to_fp16 = const()[name = tensor<string, []>("vision_model_encoder_layers_0_mlp_fc2_weight_to_fp16"), val = tensor<fp16, [256, 1024]>(BLOBFILE(path = tensor<string, []>("@model_path/weights/weight.bin"), offset = tensor<uint64, []>(1551616)))];
            tensor<fp16, [256]> vision_model_encoder_layers_0_mlp_fc2_bias_to_fp16 = const()[name = tensor<string, []>("vision_model_encoder_layers_0_mlp_fc2_bias_to_fp16"), val = tensor<fp16, [256]>(BLOBFILE(path = tensor<string, []>("@model_path/weights/weight.bin"), offset = tensor<uint64, []>(2075968)))];
            tensor<fp16, [1, 197, 256]> linear_5_cast_fp16 = linear(bias = vision_model_encoder_layers_0_mlp_fc2_bias_to_fp16, weight = vision_model_encoder_layers_0_mlp_fc2_weight_to_fp16, x = input_17_cast_fp16)[name = tensor<string, []>("linear_5_cast_fp16")];
            tensor<fp16, [1, 197, 256]> input_19_cast_fp16 = add(x = input_11_cast_fp16, y = linear_5_cast_fp16)[name = tensor<string, []>("input_19_cast_fp16")];
            tensor<int32, [1]> hidden_states_7_axes_0 = const()[name = tensor<string, []>("hidden_states_7_axes_0"), val = tensor<int32, [1]>([-1])];
            tensor<fp16, [256]> vision_model_encoder_layers_1_layer_norm1_weight_to_fp16 = const()[name = tensor<string, []>("vision_model_encoder_layers_1_layer_norm1_weight_to_fp16"), val = tensor<fp16, [256]>(BLOBFILE(path = tensor<string, []>("@model_path/weights/weight.bin"), offset = tensor<uint64, []>(2076544)))];
            tensor<fp16, [256]> vision_model_encoder_layers_1_layer_norm1_bias_to_fp16 = const()[name = tensor<string, []>("vision_model_encoder_layers_1_layer_norm1_bias_to_fp16"), val = tensor<fp16, [256]>(BLOBFILE(path = tensor<string, []>("@model_path/weights/weight.bin"), offset = tensor<uint64, []>(2077120)))];
            tensor<fp16, [1, 197, 256]> hidden_states_7_cast_fp16 = layer_norm(axes = hidden_states_7_axes_0, beta = vision_model_encoder_layers_1_layer_norm1_bias_to_fp16, epsilon = var_9_to_fp16, gamma = vision_model_encoder_layers_1_layer_norm1_weight_to_fp16, x = input_19_cast_fp16)[name = tensor<string, []>("hidden_states_7_cast_fp16")];
            tensor<fp16, [256, 256]> vision_model_encoder_layers_1_self_attn_q_proj_weight_to_fp16 = const()[name = tensor<string, []>("vision_model_encoder_layers_1_self_attn_q_proj_weight_to_fp16"), val = tensor<fp16, [256, 256]>(BLOBFILE(path = tensor<string, []>("@model_path/weights/weight.bin"), offset = tensor<uint64, []>(2077696)))];
            tensor<fp16, [256]> vision_model_encoder_layers_1_self_attn_q_proj_bias_to_fp16 = const()[name = tensor<string, []>("vision_model_encoder_layers_1_self_attn_q_proj_bias_to_fp16"), val = tensor<fp16, [256]>(BLOBFILE(path = tensor<string, []>("@model_path/weights/weight.bin"), offset = tensor<uint64, []>(2208832)))];
            tensor<fp16, [1, 197, 256]> linear_6_cast_fp16 = linear(bias = vision_model_encoder_layers_1_self_attn_q_proj_bias_to_fp16, weight = vision_model_encoder_layers_1_self_attn_q_proj_weight_to_fp16, x = hidden_states_7_cast_fp16)[name = tensor<string, []>("linear_6_cast_fp16")];
            tensor<fp16, [256, 256]> vision_model_encoder_layers_1_self_attn_k_proj_weight_to_fp16 = const()[name = tensor<string, []>("vision_model_encoder_layers_1_self_attn_k_proj_weight_to_fp16"), val = tensor<fp16, [256, 256]>(BLOBFILE(path = tensor<string, []>("@model_path/weights/weight.bin"), offset = tensor<uint64, []>(2209408)))];
            tensor<fp16, [256]> vision_model_encoder_layers_1_self_attn_k_proj_bias_to_fp16 = const()[name = tensor<string, []>("vision_model_encoder_layers_1_self_attn_k_proj_bias_to_fp16"), val = tensor<fp16, [256]>(BLOBFILE(path = tensor<string, []>("@model_path/weights/weight.bin"), offset = tensor<uint64, []>(2340544)))];
            tensor<fp16, [1, 197, 256]> linear_7_cast_fp16 = linear(bias = vision_model_encoder_layers_1_self_attn_k_proj_bias_to_fp16, weight = vision_model_encoder_layers_1_self_attn_k_proj_weight_to_fp16, x = hidden_states_7_cast_fp16)[name = tensor<string, []>("linear_7_cast_fp16")];
            tensor<fp16, [256, 256]> vision_model_encoder_layers_1_self_attn_v_proj_weight_to_fp16 = const()[name = tensor<string, []>("vision_model_encoder_layers_1_self_attn_v_proj_weight_to_fp16"), val = tensor<fp16, [256, 256]>(BLOBFILE(path = tensor<string, []>("@model_path/weights/weight.bin"), offset = tensor<uint64, []>(2341120)))];
            tensor<fp16, [256]> vision_model_encoder_layers_1_self_attn_v_proj_bias_to_fp16 = const()[name = tensor<string, []>("vision_model_encoder_layers_1_self_attn_v_proj_bias_to_fp16"), val = tensor<fp16, [256]>(BLOBFILE(path = tensor<string, []>("@model_path/weights/weight.bin"), offset = tensor<uint64, []>(2472256)))];
            tensor<fp16, [1, 197, 256]> linear_8_cast_fp16 = linear(bias = vision_model_encoder_layers_1_self_attn_v_proj_bias_to_fp16, weight = vision_model_encoder_layers_1_self_attn_v_proj_weight_to_fp16, x = hidden_states_7_cast_fp16)[name = tensor<string, []>("linear_8_cast_fp16")];
            tensor<int32, [4]> var_149 = const()[name = tensor<string, []>("op_149"), val = tensor<int32, [4]>([1, 197, -1, 64])];
            tensor<fp16, [1, 197, 4, 64]> var_150_cast_fp16 = reshape(shape = var_149, x = linear_6_cast_fp16)[name = tensor<string, []>("op_150_cast_fp16")];
            tensor<int32, [4]> var_152 = const()[name = tensor<string, []>("op_152"), val = tensor<int32, [4]>([1, 197, -1, 64])];
            tensor<fp16, [1, 197, 4, 64]> var_153_cast_fp16 = reshape(shape = var_152, x = linear_7_cast_fp16)[name = tensor<string, []>("op_153_cast_fp16")];
            tensor<int32, [4]> var_155 = const()[name = tensor<string, []>("op_155"), val = tensor<int32, [4]>([1, 197, -1, 64])];
            tensor<fp16, [1, 197, 4, 64]> var_156_cast_fp16 = reshape(shape = var_155, x = linear_8_cast_fp16)[name = tensor<string, []>("op_156_cast_fp16")];
            tensor<int32, [4]> value_3_perm_0 = const()[name = tensor<string, []>("value_3_perm_0"), val = tensor<int32, [4]>([0, 2, 1, 3])];
            tensor<fp16, [1, 197, 4, 64]> mul_1_cast_fp16 = mul(x = var_150_cast_fp16, y = var_7_to_fp16)[name = tensor<string, []>("mul_1_cast_fp16")];
            tensor<bool, []> matmul_1_transpose_y_0 = const()[name = tensor<string, []>("matmul_1_transpose_y_0"), val = tensor<bool, []>(true)];
            tensor<bool, []> matmul_1_transpose_x_0 = const()[name = tensor<string, []>("matmul_1_transpose_x_0"), val = tensor<bool, []>(false)];
            tensor<int32, [4]> transpose_42_perm_0 = const()[name = tensor<string, []>("transpose_42_perm_0"), val = tensor<int32, [4]>([0, 2, -3, -1])];
            tensor<int32, [4]> transpose_43_perm_0 = const()[name = tensor<string, []>("transpose_43_perm_0"), val = tensor<int32, [4]>([0, 2, -3, -1])];
            tensor<fp16, [1, 4, 197, 64]> transpose_43 = transpose(perm = transpose_43_perm_0, x = var_153_cast_fp16)[name = tensor<string, []>("transpose_93")];
            tensor<fp16, [1, 4, 197, 64]> transpose_42 = transpose(perm = transpose_42_perm_0, x = mul_1_cast_fp16)[name = tensor<string, []>("transpose_94")];
            tensor<fp16, [1, 4, 197, 197]> matmul_1_cast_fp16 = matmul(transpose_x = matmul_1_transpose_x_0, transpose_y = matmul_1_transpose_y_0, x = transpose_42, y = transpose_43)[name = tensor<string, []>("matmul_1_cast_fp16")];
            tensor<int32, []> softmax_1_axis_0 = const()[name = tensor<string, []>("softmax_1_axis_0"), val = tensor<int32, []>(-1)];
            tensor<fp16, [1, 4, 197, 197]> softmax_1_cast_fp16 = softmax(axis = softmax_1_axis_0, x = matmul_1_cast_fp16)[name = tensor<string, []>("softmax_1_cast_fp16")];
            tensor<bool, []> attn_output_5_transpose_x_0 = const()[name = tensor<string, []>("attn_output_5_transpose_x_0"), val = tensor<bool, []>(false)];
            tensor<bool, []> attn_output_5_transpose_y_0 = const()[name = tensor<string, []>("attn_output_5_transpose_y_0"), val = tensor<bool, []>(false)];
            tensor<fp16, [1, 4, 197, 64]> value_3_cast_fp16 = transpose(perm = value_3_perm_0, x = var_156_cast_fp16)[name = tensor<string, []>("transpose_95")];
            tensor<fp16, [1, 4, 197, 64]> attn_output_5_cast_fp16 = matmul(transpose_x = attn_output_5_transpose_x_0, transpose_y = attn_output_5_transpose_y_0, x = softmax_1_cast_fp16, y = value_3_cast_fp16)[name = tensor<string, []>("attn_output_5_cast_fp16")];
            tensor<int32, [4]> var_159_perm_0 = const()[name = tensor<string, []>("op_159_perm_0"), val = tensor<int32, [4]>([0, 2, 1, 3])];
            tensor<int32, [3]> var_161 = const()[name = tensor<string, []>("op_161"), val = tensor<int32, [3]>([1, 197, 256])];
            tensor<fp16, [1, 197, 4, 64]> var_159_cast_fp16 = transpose(perm = var_159_perm_0, x = attn_output_5_cast_fp16)[name = tensor<string, []>("transpose_92")];
            tensor<fp16, [1, 197, 256]> var_162_cast_fp16 = reshape(shape = var_161, x = var_159_cast_fp16)[name = tensor<string, []>("op_162_cast_fp16")];
            tensor<fp16, [256, 256]> vision_model_encoder_layers_1_self_attn_out_proj_weight_to_fp16 = const()[name = tensor<string, []>("vision_model_encoder_layers_1_self_attn_out_proj_weight_to_fp16"), val = tensor<fp16, [256, 256]>(BLOBFILE(path = tensor<string, []>("@model_path/weights/weight.bin"), offset = tensor<uint64, []>(2472832)))];
            tensor<fp16, [256]> vision_model_encoder_layers_1_self_attn_out_proj_bias_to_fp16 = const()[name = tensor<string, []>("vision_model_encoder_layers_1_self_attn_out_proj_bias_to_fp16"), val = tensor<fp16, [256]>(BLOBFILE(path = tensor<string, []>("@model_path/weights/weight.bin"), offset = tensor<uint64, []>(2603968)))];
            tensor<fp16, [1, 197, 256]> linear_9_cast_fp16 = linear(bias = vision_model_encoder_layers_1_self_attn_out_proj_bias_to_fp16, weight = vision_model_encoder_layers_1_self_attn_out_proj_weight_to_fp16, x = var_162_cast_fp16)[name = tensor<string, []>("linear_9_cast_fp16")];
            tensor<fp16, [1, 197, 256]> input_23_cast_fp16 = add(x = input_19_cast_fp16, y = linear_9_cast_fp16)[name = tensor<string, []>("input_23_cast_fp16")];
            tensor<int32, [1]> input_25_axes_0 = const()[name = tensor<string, []>("input_25_axes_0"), val = tensor<int32, [1]>([-1])];
            tensor<fp16, [256]> vision_model_encoder_layers_1_layer_norm2_weight_to_fp16 = const()[name = tensor<string, []>("vision_model_encoder_layers_1_layer_norm2_weight_to_fp16"), val = tensor<fp16, [256]>(BLOBFILE(path = tensor<string, []>("@model_path/weights/weight.bin"), offset = tensor<uint64, []>(2604544)))];
            tensor<fp16, [256]> vision_model_encoder_layers_1_layer_norm2_bias_to_fp16 = const()[name = tensor<string, []>("vision_model_encoder_layers_1_layer_norm2_bias_to_fp16"), val = tensor<fp16, [256]>(BLOBFILE(path = tensor<string, []>("@model_path/weights/weight.bin"), offset = tensor<uint64, []>(2605120)))];
            tensor<fp16, [1, 197, 256]> input_25_cast_fp16 = layer_norm(axes = input_25_axes_0, beta = vision_model_encoder_layers_1_layer_norm2_bias_to_fp16, epsilon = var_9_to_fp16, gamma = vision_model_encoder_layers_1_layer_norm2_weight_to_fp16, x = input_23_cast_fp16)[name = tensor<string, []>("input_25_cast_fp16")];
            tensor<fp16, [1024, 256]> vision_model_encoder_layers_1_mlp_fc1_weight_to_fp16 = const()[name = tensor<string, []>("vision_model_encoder_layers_1_mlp_fc1_weight_to_fp16"), val = tensor<fp16, [1024, 256]>(BLOBFILE(path = tensor<string, []>("@model_path/weights/weight.bin"), offset = tensor<uint64, []>(2605696)))];
            tensor<fp16, [1024]> vision_model_encoder_layers_1_mlp_fc1_bias_to_fp16 = const()[name = tensor<string, []>("vision_model_encoder_layers_1_mlp_fc1_bias_to_fp16"), val = tensor<fp16, [1024]>(BLOBFILE(path = tensor<string, []>("@model_path/weights/weight.bin"), offset = tensor<uint64, []>(3130048)))];
            tensor<fp16, [1, 197, 1024]> linear_10_cast_fp16 = linear(bias = vision_model_encoder_layers_1_mlp_fc1_bias_to_fp16, weight = vision_model_encoder_layers_1_mlp_fc1_weight_to_fp16, x = input_25_cast_fp16)[name = tensor<string, []>("linear_10_cast_fp16")];
            tensor<string, []> input_29_mode_0 = const()[name = tensor<string, []>("input_29_mode_0"), val = tensor<string, []>("EXACT")];
            tensor<fp16, [1, 197, 1024]> input_29_cast_fp16 = gelu(mode = input_29_mode_0, x = linear_10_cast_fp16)[name = tensor<string, []>("input_29_cast_fp16")];
            tensor<fp16, [256, 1024]> vision_model_encoder_layers_1_mlp_fc2_weight_to_fp16 = const()[name = tensor<string, []>("vision_model_encoder_layers_1_mlp_fc2_weight_to_fp16"), val = tensor<fp16, [256, 1024]>(BLOBFILE(path = tensor<string, []>("@model_path/weights/weight.bin"), offset = tensor<uint64, []>(3132160)))];
            tensor<fp16, [256]> vision_model_encoder_layers_1_mlp_fc2_bias_to_fp16 = const()[name = tensor<string, []>("vision_model_encoder_layers_1_mlp_fc2_bias_to_fp16"), val = tensor<fp16, [256]>(BLOBFILE(path = tensor<string, []>("@model_path/weights/weight.bin"), offset = tensor<uint64, []>(3656512)))];
            tensor<fp16, [1, 197, 256]> linear_11_cast_fp16 = linear(bias = vision_model_encoder_layers_1_mlp_fc2_bias_to_fp16, weight = vision_model_encoder_layers_1_mlp_fc2_weight_to_fp16, x = input_29_cast_fp16)[name = tensor<string, []>("linear_11_cast_fp16")];
            tensor<fp16, [1, 197, 256]> input_31_cast_fp16 = add(x = input_23_cast_fp16, y = linear_11_cast_fp16)[name = tensor<string, []>("input_31_cast_fp16")];
            tensor<int32, [1]> hidden_states_13_axes_0 = const()[name = tensor<string, []>("hidden_states_13_axes_0"), val = tensor<int32, [1]>([-1])];
            tensor<fp16, [256]> vision_model_encoder_layers_2_layer_norm1_weight_to_fp16 = const()[name = tensor<string, []>("vision_model_encoder_layers_2_layer_norm1_weight_to_fp16"), val = tensor<fp16, [256]>(BLOBFILE(path = tensor<string, []>("@model_path/weights/weight.bin"), offset = tensor<uint64, []>(3657088)))];
            tensor<fp16, [256]> vision_model_encoder_layers_2_layer_norm1_bias_to_fp16 = const()[name = tensor<string, []>("vision_model_encoder_layers_2_layer_norm1_bias_to_fp16"), val = tensor<fp16, [256]>(BLOBFILE(path = tensor<string, []>("@model_path/weights/weight.bin"), offset = tensor<uint64, []>(3657664)))];
            tensor<fp16, [1, 197, 256]> hidden_states_13_cast_fp16 = layer_norm(axes = hidden_states_13_axes_0, beta = vision_model_encoder_layers_2_layer_norm1_bias_to_fp16, epsilon = var_9_to_fp16, gamma = vision_model_encoder_layers_2_layer_norm1_weight_to_fp16, x = input_31_cast_fp16)[name = tensor<string, []>("hidden_states_13_cast_fp16")];
            tensor<fp16, [256, 256]> vision_model_encoder_layers_2_self_attn_q_proj_weight_to_fp16 = const()[name = tensor<string, []>("vision_model_encoder_layers_2_self_attn_q_proj_weight_to_fp16"), val = tensor<fp16, [256, 256]>(BLOBFILE(path = tensor<string, []>("@model_path/weights/weight.bin"), offset = tensor<uint64, []>(3658240)))];
            tensor<fp16, [256]> vision_model_encoder_layers_2_self_attn_q_proj_bias_to_fp16 = const()[name = tensor<string, []>("vision_model_encoder_layers_2_self_attn_q_proj_bias_to_fp16"), val = tensor<fp16, [256]>(BLOBFILE(path = tensor<string, []>("@model_path/weights/weight.bin"), offset = tensor<uint64, []>(3789376)))];
            tensor<fp16, [1, 197, 256]> linear_12_cast_fp16 = linear(bias = vision_model_encoder_layers_2_self_attn_q_proj_bias_to_fp16, weight = vision_model_encoder_layers_2_self_attn_q_proj_weight_to_fp16, x = hidden_states_13_cast_fp16)[name = tensor<string, []>("linear_12_cast_fp16")];
            tensor<fp16, [256, 256]> vision_model_encoder_layers_2_self_attn_k_proj_weight_to_fp16 = const()[name = tensor<string, []>("vision_model_encoder_layers_2_self_attn_k_proj_weight_to_fp16"), val = tensor<fp16, [256, 256]>(BLOBFILE(path = tensor<string, []>("@model_path/weights/weight.bin"), offset = tensor<uint64, []>(3789952)))];
            tensor<fp16, [256]> vision_model_encoder_layers_2_self_attn_k_proj_bias_to_fp16 = const()[name = tensor<string, []>("vision_model_encoder_layers_2_self_attn_k_proj_bias_to_fp16"), val = tensor<fp16, [256]>(BLOBFILE(path = tensor<string, []>("@model_path/weights/weight.bin"), offset = tensor<uint64, []>(3921088)))];
            tensor<fp16, [1, 197, 256]> linear_13_cast_fp16 = linear(bias = vision_model_encoder_layers_2_self_attn_k_proj_bias_to_fp16, weight = vision_model_encoder_layers_2_self_attn_k_proj_weight_to_fp16, x = hidden_states_13_cast_fp16)[name = tensor<string, []>("linear_13_cast_fp16")];
            tensor<fp16, [256, 256]> vision_model_encoder_layers_2_self_attn_v_proj_weight_to_fp16 = const()[name = tensor<string, []>("vision_model_encoder_layers_2_self_attn_v_proj_weight_to_fp16"), val = tensor<fp16, [256, 256]>(BLOBFILE(path = tensor<string, []>("@model_path/weights/weight.bin"), offset = tensor<uint64, []>(3921664)))];
            tensor<fp16, [256]> vision_model_encoder_layers_2_self_attn_v_proj_bias_to_fp16 = const()[name = tensor<string, []>("vision_model_encoder_layers_2_self_attn_v_proj_bias_to_fp16"), val = tensor<fp16, [256]>(BLOBFILE(path = tensor<string, []>("@model_path/weights/weight.bin"), offset = tensor<uint64, []>(4052800)))];
            tensor<fp16, [1, 197, 256]> linear_14_cast_fp16 = linear(bias = vision_model_encoder_layers_2_self_attn_v_proj_bias_to_fp16, weight = vision_model_encoder_layers_2_self_attn_v_proj_weight_to_fp16, x = hidden_states_13_cast_fp16)[name = tensor<string, []>("linear_14_cast_fp16")];
            tensor<int32, [4]> var_206 = const()[name = tensor<string, []>("op_206"), val = tensor<int32, [4]>([1, 197, -1, 64])];
            tensor<fp16, [1, 197, 4, 64]> var_207_cast_fp16 = reshape(shape = var_206, x = linear_12_cast_fp16)[name = tensor<string, []>("op_207_cast_fp16")];
            tensor<int32, [4]> var_209 = const()[name = tensor<string, []>("op_209"), val = tensor<int32, [4]>([1, 197, -1, 64])];
            tensor<fp16, [1, 197, 4, 64]> var_210_cast_fp16 = reshape(shape = var_209, x = linear_13_cast_fp16)[name = tensor<string, []>("op_210_cast_fp16")];
            tensor<int32, [4]> var_212 = const()[name = tensor<string, []>("op_212"), val = tensor<int32, [4]>([1, 197, -1, 64])];
            tensor<fp16, [1, 197, 4, 64]> var_213_cast_fp16 = reshape(shape = var_212, x = linear_14_cast_fp16)[name = tensor<string, []>("op_213_cast_fp16")];
            tensor<int32, [4]> value_5_perm_0 = const()[name = tensor<string, []>("value_5_perm_0"), val = tensor<int32, [4]>([0, 2, 1, 3])];
            tensor<fp16, [1, 197, 4, 64]> mul_2_cast_fp16 = mul(x = var_207_cast_fp16, y = var_7_to_fp16)[name = tensor<string, []>("mul_2_cast_fp16")];
            tensor<bool, []> matmul_2_transpose_y_0 = const()[name = tensor<string, []>("matmul_2_transpose_y_0"), val = tensor<bool, []>(true)];
            tensor<bool, []> matmul_2_transpose_x_0 = const()[name = tensor<string, []>("matmul_2_transpose_x_0"), val = tensor<bool, []>(false)];
            tensor<int32, [4]> transpose_44_perm_0 = const()[name = tensor<string, []>("transpose_44_perm_0"), val = tensor<int32, [4]>([0, 2, -3, -1])];
            tensor<int32, [4]> transpose_45_perm_0 = const()[name = tensor<string, []>("transpose_45_perm_0"), val = tensor<int32, [4]>([0, 2, -3, -1])];
            tensor<fp16, [1, 4, 197, 64]> transpose_45 = transpose(perm = transpose_45_perm_0, x = var_210_cast_fp16)[name = tensor<string, []>("transpose_89")];
            tensor<fp16, [1, 4, 197, 64]> transpose_44 = transpose(perm = transpose_44_perm_0, x = mul_2_cast_fp16)[name = tensor<string, []>("transpose_90")];
            tensor<fp16, [1, 4, 197, 197]> matmul_2_cast_fp16 = matmul(transpose_x = matmul_2_transpose_x_0, transpose_y = matmul_2_transpose_y_0, x = transpose_44, y = transpose_45)[name = tensor<string, []>("matmul_2_cast_fp16")];
            tensor<int32, []> softmax_2_axis_0 = const()[name = tensor<string, []>("softmax_2_axis_0"), val = tensor<int32, []>(-1)];
            tensor<fp16, [1, 4, 197, 197]> softmax_2_cast_fp16 = softmax(axis = softmax_2_axis_0, x = matmul_2_cast_fp16)[name = tensor<string, []>("softmax_2_cast_fp16")];
            tensor<bool, []> attn_output_9_transpose_x_0 = const()[name = tensor<string, []>("attn_output_9_transpose_x_0"), val = tensor<bool, []>(false)];
            tensor<bool, []> attn_output_9_transpose_y_0 = const()[name = tensor<string, []>("attn_output_9_transpose_y_0"), val = tensor<bool, []>(false)];
            tensor<fp16, [1, 4, 197, 64]> value_5_cast_fp16 = transpose(perm = value_5_perm_0, x = var_213_cast_fp16)[name = tensor<string, []>("transpose_91")];
            tensor<fp16, [1, 4, 197, 64]> attn_output_9_cast_fp16 = matmul(transpose_x = attn_output_9_transpose_x_0, transpose_y = attn_output_9_transpose_y_0, x = softmax_2_cast_fp16, y = value_5_cast_fp16)[name = tensor<string, []>("attn_output_9_cast_fp16")];
            tensor<int32, [4]> var_216_perm_0 = const()[name = tensor<string, []>("op_216_perm_0"), val = tensor<int32, [4]>([0, 2, 1, 3])];
            tensor<int32, [3]> var_218 = const()[name = tensor<string, []>("op_218"), val = tensor<int32, [3]>([1, 197, 256])];
            tensor<fp16, [1, 197, 4, 64]> var_216_cast_fp16 = transpose(perm = var_216_perm_0, x = attn_output_9_cast_fp16)[name = tensor<string, []>("transpose_88")];
            tensor<fp16, [1, 197, 256]> var_219_cast_fp16 = reshape(shape = var_218, x = var_216_cast_fp16)[name = tensor<string, []>("op_219_cast_fp16")];
            tensor<fp16, [256, 256]> vision_model_encoder_layers_2_self_attn_out_proj_weight_to_fp16 = const()[name = tensor<string, []>("vision_model_encoder_layers_2_self_attn_out_proj_weight_to_fp16"), val = tensor<fp16, [256, 256]>(BLOBFILE(path = tensor<string, []>("@model_path/weights/weight.bin"), offset = tensor<uint64, []>(4053376)))];
            tensor<fp16, [256]> vision_model_encoder_layers_2_self_attn_out_proj_bias_to_fp16 = const()[name = tensor<string, []>("vision_model_encoder_layers_2_self_attn_out_proj_bias_to_fp16"), val = tensor<fp16, [256]>(BLOBFILE(path = tensor<string, []>("@model_path/weights/weight.bin"), offset = tensor<uint64, []>(4184512)))];
            tensor<fp16, [1, 197, 256]> linear_15_cast_fp16 = linear(bias = vision_model_encoder_layers_2_self_attn_out_proj_bias_to_fp16, weight = vision_model_encoder_layers_2_self_attn_out_proj_weight_to_fp16, x = var_219_cast_fp16)[name = tensor<string, []>("linear_15_cast_fp16")];
            tensor<fp16, [1, 197, 256]> input_35_cast_fp16 = add(x = input_31_cast_fp16, y = linear_15_cast_fp16)[name = tensor<string, []>("input_35_cast_fp16")];
            tensor<int32, [1]> input_37_axes_0 = const()[name = tensor<string, []>("input_37_axes_0"), val = tensor<int32, [1]>([-1])];
            tensor<fp16, [256]> vision_model_encoder_layers_2_layer_norm2_weight_to_fp16 = const()[name = tensor<string, []>("vision_model_encoder_layers_2_layer_norm2_weight_to_fp16"), val = tensor<fp16, [256]>(BLOBFILE(path = tensor<string, []>("@model_path/weights/weight.bin"), offset = tensor<uint64, []>(4185088)))];
            tensor<fp16, [256]> vision_model_encoder_layers_2_layer_norm2_bias_to_fp16 = const()[name = tensor<string, []>("vision_model_encoder_layers_2_layer_norm2_bias_to_fp16"), val = tensor<fp16, [256]>(BLOBFILE(path = tensor<string, []>("@model_path/weights/weight.bin"), offset = tensor<uint64, []>(4185664)))];
            tensor<fp16, [1, 197, 256]> input_37_cast_fp16 = layer_norm(axes = input_37_axes_0, beta = vision_model_encoder_layers_2_layer_norm2_bias_to_fp16, epsilon = var_9_to_fp16, gamma = vision_model_encoder_layers_2_layer_norm2_weight_to_fp16, x = input_35_cast_fp16)[name = tensor<string, []>("input_37_cast_fp16")];
            tensor<fp16, [1024, 256]> vision_model_encoder_layers_2_mlp_fc1_weight_to_fp16 = const()[name = tensor<string, []>("vision_model_encoder_layers_2_mlp_fc1_weight_to_fp16"), val = tensor<fp16, [1024, 256]>(BLOBFILE(path = tensor<string, []>("@model_path/weights/weight.bin"), offset = tensor<uint64, []>(4186240)))];
            tensor<fp16, [1024]> vision_model_encoder_layers_2_mlp_fc1_bias_to_fp16 = const()[name = tensor<string, []>("vision_model_encoder_layers_2_mlp_fc1_bias_to_fp16"), val = tensor<fp16, [1024]>(BLOBFILE(path = tensor<string, []>("@model_path/weights/weight.bin"), offset = tensor<uint64, []>(4710592)))];
            tensor<fp16, [1, 197, 1024]> linear_16_cast_fp16 = linear(bias = vision_model_encoder_layers_2_mlp_fc1_bias_to_fp16, weight = vision_model_encoder_layers_2_mlp_fc1_weight_to_fp16, x = input_37_cast_fp16)[name = tensor<string, []>("linear_16_cast_fp16")];
            tensor<string, []> input_41_mode_0 = const()[name = tensor<string, []>("input_41_mode_0"), val = tensor<string, []>("EXACT")];
            tensor<fp16, [1, 197, 1024]> input_41_cast_fp16 = gelu(mode = input_41_mode_0, x = linear_16_cast_fp16)[name = tensor<string, []>("input_41_cast_fp16")];
            tensor<fp16, [256, 1024]> vision_model_encoder_layers_2_mlp_fc2_weight_to_fp16 = const()[name = tensor<string, []>("vision_model_encoder_layers_2_mlp_fc2_weight_to_fp16"), val = tensor<fp16, [256, 1024]>(BLOBFILE(path = tensor<string, []>("@model_path/weights/weight.bin"), offset = tensor<uint64, []>(4712704)))];
            tensor<fp16, [256]> vision_model_encoder_layers_2_mlp_fc2_bias_to_fp16 = const()[name = tensor<string, []>("vision_model_encoder_layers_2_mlp_fc2_bias_to_fp16"), val = tensor<fp16, [256]>(BLOBFILE(path = tensor<string, []>("@model_path/weights/weight.bin"), offset = tensor<uint64, []>(5237056)))];
            tensor<fp16, [1, 197, 256]> linear_17_cast_fp16 = linear(bias = vision_model_encoder_layers_2_mlp_fc2_bias_to_fp16, weight = vision_model_encoder_layers_2_mlp_fc2_weight_to_fp16, x = input_41_cast_fp16)[name = tensor<string, []>("linear_17_cast_fp16")];
            tensor<fp16, [1, 197, 256]> input_43_cast_fp16 = add(x = input_35_cast_fp16, y = linear_17_cast_fp16)[name = tensor<string, []>("input_43_cast_fp16")];
            tensor<int32, [1]> hidden_states_19_axes_0 = const()[name = tensor<string, []>("hidden_states_19_axes_0"), val = tensor<int32, [1]>([-1])];
            tensor<fp16, [256]> vision_model_encoder_layers_3_layer_norm1_weight_to_fp16 = const()[name = tensor<string, []>("vision_model_encoder_layers_3_layer_norm1_weight_to_fp16"), val = tensor<fp16, [256]>(BLOBFILE(path = tensor<string, []>("@model_path/weights/weight.bin"), offset = tensor<uint64, []>(5237632)))];
            tensor<fp16, [256]> vision_model_encoder_layers_3_layer_norm1_bias_to_fp16 = const()[name = tensor<string, []>("vision_model_encoder_layers_3_layer_norm1_bias_to_fp16"), val = tensor<fp16, [256]>(BLOBFILE(path = tensor<string, []>("@model_path/weights/weight.bin"), offset = tensor<uint64, []>(5238208)))];
            tensor<fp16, [1, 197, 256]> hidden_states_19_cast_fp16 = layer_norm(axes = hidden_states_19_axes_0, beta = vision_model_encoder_layers_3_layer_norm1_bias_to_fp16, epsilon = var_9_to_fp16, gamma = vision_model_encoder_layers_3_layer_norm1_weight_to_fp16, x = input_43_cast_fp16)[name = tensor<string, []>("hidden_states_19_cast_fp16")];
            tensor<fp16, [256, 256]> vision_model_encoder_layers_3_self_attn_q_proj_weight_to_fp16 = const()[name = tensor<string, []>("vision_model_encoder_layers_3_self_attn_q_proj_weight_to_fp16"), val = tensor<fp16, [256, 256]>(BLOBFILE(path = tensor<string, []>("@model_path/weights/weight.bin"), offset = tensor<uint64, []>(5238784)))];
            tensor<fp16, [256]> vision_model_encoder_layers_3_self_attn_q_proj_bias_to_fp16 = const()[name = tensor<string, []>("vision_model_encoder_layers_3_self_attn_q_proj_bias_to_fp16"), val = tensor<fp16, [256]>(BLOBFILE(path = tensor<string, []>("@model_path/weights/weight.bin"), offset = tensor<uint64, []>(5369920)))];
            tensor<fp16, [1, 197, 256]> linear_18_cast_fp16 = linear(bias = vision_model_encoder_layers_3_self_attn_q_proj_bias_to_fp16, weight = vision_model_encoder_layers_3_self_attn_q_proj_weight_to_fp16, x = hidden_states_19_cast_fp16)[name = tensor<string, []>("linear_18_cast_fp16")];
            tensor<fp16, [256, 256]> vision_model_encoder_layers_3_self_attn_k_proj_weight_to_fp16 = const()[name = tensor<string, []>("vision_model_encoder_layers_3_self_attn_k_proj_weight_to_fp16"), val = tensor<fp16, [256, 256]>(BLOBFILE(path = tensor<string, []>("@model_path/weights/weight.bin"), offset = tensor<uint64, []>(5370496)))];
            tensor<fp16, [256]> vision_model_encoder_layers_3_self_attn_k_proj_bias_to_fp16 = const()[name = tensor<string, []>("vision_model_encoder_layers_3_self_attn_k_proj_bias_to_fp16"), val = tensor<fp16, [256]>(BLOBFILE(path = tensor<string, []>("@model_path/weights/weight.bin"), offset = tensor<uint64, []>(5501632)))];
            tensor<fp16, [1, 197, 256]> linear_19_cast_fp16 = linear(bias = vision_model_encoder_layers_3_self_attn_k_proj_bias_to_fp16, weight = vision_model_encoder_layers_3_self_attn_k_proj_weight_to_fp16, x = hidden_states_19_cast_fp16)[name = tensor<string, []>("linear_19_cast_fp16")];
            tensor<fp16, [256, 256]> vision_model_encoder_layers_3_self_attn_v_proj_weight_to_fp16 = const()[name = tensor<string, []>("vision_model_encoder_layers_3_self_attn_v_proj_weight_to_fp16"), val = tensor<fp16, [256, 256]>(BLOBFILE(path = tensor<string, []>("@model_path/weights/weight.bin"), offset = tensor<uint64, []>(5502208)))];
            tensor<fp16, [256]> vision_model_encoder_layers_3_self_attn_v_proj_bias_to_fp16 = const()[name = tensor<string, []>("vision_model_encoder_layers_3_self_attn_v_proj_bias_to_fp16"), val = tensor<fp16, [256]>(BLOBFILE(path = tensor<string, []>("@model_path/weights/weight.bin"), offset = tensor<uint64, []>(5633344)))];
            tensor<fp16, [1, 197, 256]> linear_20_cast_fp16 = linear(bias = vision_model_encoder_layers_3_self_attn_v_proj_bias_to_fp16, weight = vision_model_encoder_layers_3_self_attn_v_proj_weight_to_fp16, x = hidden_states_19_cast_fp16)[name = tensor<string, []>("linear_20_cast_fp16")];
            tensor<int32, [4]> var_263 = const()[name = tensor<string, []>("op_263"), val = tensor<int32, [4]>([1, 197, -1, 64])];
            tensor<fp16, [1, 197, 4, 64]> var_264_cast_fp16 = reshape(shape = var_263, x = linear_18_cast_fp16)[name = tensor<string, []>("op_264_cast_fp16")];
            tensor<int32, [4]> var_266 = const()[name = tensor<string, []>("op_266"), val = tensor<int32, [4]>([1, 197, -1, 64])];
            tensor<fp16, [1, 197, 4, 64]> var_267_cast_fp16 = reshape(shape = var_266, x = linear_19_cast_fp16)[name = tensor<string, []>("op_267_cast_fp16")];
            tensor<int32, [4]> var_269 = const()[name = tensor<string, []>("op_269"), val = tensor<int32, [4]>([1, 197, -1, 64])];
            tensor<fp16, [1, 197, 4, 64]> var_270_cast_fp16 = reshape(shape = var_269, x = linear_20_cast_fp16)[name = tensor<string, []>("op_270_cast_fp16")];
            tensor<int32, [4]> value_7_perm_0 = const()[name = tensor<string, []>("value_7_perm_0"), val = tensor<int32, [4]>([0, 2, 1, 3])];
            tensor<fp16, [1, 197, 4, 64]> mul_3_cast_fp16 = mul(x = var_264_cast_fp16, y = var_7_to_fp16)[name = tensor<string, []>("mul_3_cast_fp16")];
            tensor<bool, []> matmul_3_transpose_y_0 = const()[name = tensor<string, []>("matmul_3_transpose_y_0"), val = tensor<bool, []>(true)];
            tensor<bool, []> matmul_3_transpose_x_0 = const()[name = tensor<string, []>("matmul_3_transpose_x_0"), val = tensor<bool, []>(false)];
            tensor<int32, [4]> transpose_46_perm_0 = const()[name = tensor<string, []>("transpose_46_perm_0"), val = tensor<int32, [4]>([0, 2, -3, -1])];
            tensor<int32, [4]> transpose_47_perm_0 = const()[name = tensor<string, []>("transpose_47_perm_0"), val = tensor<int32, [4]>([0, 2, -3, -1])];
            tensor<fp16, [1, 4, 197, 64]> transpose_47 = transpose(perm = transpose_47_perm_0, x = var_267_cast_fp16)[name = tensor<string, []>("transpose_85")];
            tensor<fp16, [1, 4, 197, 64]> transpose_46 = transpose(perm = transpose_46_perm_0, x = mul_3_cast_fp16)[name = tensor<string, []>("transpose_86")];
            tensor<fp16, [1, 4, 197, 197]> matmul_3_cast_fp16 = matmul(transpose_x = matmul_3_transpose_x_0, transpose_y = matmul_3_transpose_y_0, x = transpose_46, y = transpose_47)[name = tensor<string, []>("matmul_3_cast_fp16")];
            tensor<int32, []> softmax_3_axis_0 = const()[name = tensor<string, []>("softmax_3_axis_0"), val = tensor<int32, []>(-1)];
            tensor<fp16, [1, 4, 197, 197]> softmax_3_cast_fp16 = softmax(axis = softmax_3_axis_0, x = matmul_3_cast_fp16)[name = tensor<string, []>("softmax_3_cast_fp16")];
            tensor<bool, []> attn_output_13_transpose_x_0 = const()[name = tensor<string, []>("attn_output_13_transpose_x_0"), val = tensor<bool, []>(false)];
            tensor<bool, []> attn_output_13_transpose_y_0 = const()[name = tensor<string, []>("attn_output_13_transpose_y_0"), val = tensor<bool, []>(false)];
            tensor<fp16, [1, 4, 197, 64]> value_7_cast_fp16 = transpose(perm = value_7_perm_0, x = var_270_cast_fp16)[name = tensor<string, []>("transpose_87")];
            tensor<fp16, [1, 4, 197, 64]> attn_output_13_cast_fp16 = matmul(transpose_x = attn_output_13_transpose_x_0, transpose_y = attn_output_13_transpose_y_0, x = softmax_3_cast_fp16, y = value_7_cast_fp16)[name = tensor<string, []>("attn_output_13_cast_fp16")];
            tensor<int32, [4]> var_273_perm_0 = const()[name = tensor<string, []>("op_273_perm_0"), val = tensor<int32, [4]>([0, 2, 1, 3])];
            tensor<int32, [3]> var_275 = const()[name = tensor<string, []>("op_275"), val = tensor<int32, [3]>([1, 197, 256])];
            tensor<fp16, [1, 197, 4, 64]> var_273_cast_fp16 = transpose(perm = var_273_perm_0, x = attn_output_13_cast_fp16)[name = tensor<string, []>("transpose_84")];
            tensor<fp16, [1, 197, 256]> var_276_cast_fp16 = reshape(shape = var_275, x = var_273_cast_fp16)[name = tensor<string, []>("op_276_cast_fp16")];
            tensor<fp16, [256, 256]> vision_model_encoder_layers_3_self_attn_out_proj_weight_to_fp16 = const()[name = tensor<string, []>("vision_model_encoder_layers_3_self_attn_out_proj_weight_to_fp16"), val = tensor<fp16, [256, 256]>(BLOBFILE(path = tensor<string, []>("@model_path/weights/weight.bin"), offset = tensor<uint64, []>(5633920)))];
            tensor<fp16, [256]> vision_model_encoder_layers_3_self_attn_out_proj_bias_to_fp16 = const()[name = tensor<string, []>("vision_model_encoder_layers_3_self_attn_out_proj_bias_to_fp16"), val = tensor<fp16, [256]>(BLOBFILE(path = tensor<string, []>("@model_path/weights/weight.bin"), offset = tensor<uint64, []>(5765056)))];
            tensor<fp16, [1, 197, 256]> linear_21_cast_fp16 = linear(bias = vision_model_encoder_layers_3_self_attn_out_proj_bias_to_fp16, weight = vision_model_encoder_layers_3_self_attn_out_proj_weight_to_fp16, x = var_276_cast_fp16)[name = tensor<string, []>("linear_21_cast_fp16")];
            tensor<fp16, [1, 197, 256]> input_47_cast_fp16 = add(x = input_43_cast_fp16, y = linear_21_cast_fp16)[name = tensor<string, []>("input_47_cast_fp16")];
            tensor<int32, [1]> input_49_axes_0 = const()[name = tensor<string, []>("input_49_axes_0"), val = tensor<int32, [1]>([-1])];
            tensor<fp16, [256]> vision_model_encoder_layers_3_layer_norm2_weight_to_fp16 = const()[name = tensor<string, []>("vision_model_encoder_layers_3_layer_norm2_weight_to_fp16"), val = tensor<fp16, [256]>(BLOBFILE(path = tensor<string, []>("@model_path/weights/weight.bin"), offset = tensor<uint64, []>(5765632)))];
            tensor<fp16, [256]> vision_model_encoder_layers_3_layer_norm2_bias_to_fp16 = const()[name = tensor<string, []>("vision_model_encoder_layers_3_layer_norm2_bias_to_fp16"), val = tensor<fp16, [256]>(BLOBFILE(path = tensor<string, []>("@model_path/weights/weight.bin"), offset = tensor<uint64, []>(5766208)))];
            tensor<fp16, [1, 197, 256]> input_49_cast_fp16 = layer_norm(axes = input_49_axes_0, beta = vision_model_encoder_layers_3_layer_norm2_bias_to_fp16, epsilon = var_9_to_fp16, gamma = vision_model_encoder_layers_3_layer_norm2_weight_to_fp16, x = input_47_cast_fp16)[name = tensor<string, []>("input_49_cast_fp16")];
            tensor<fp16, [1024, 256]> vision_model_encoder_layers_3_mlp_fc1_weight_to_fp16 = const()[name = tensor<string, []>("vision_model_encoder_layers_3_mlp_fc1_weight_to_fp16"), val = tensor<fp16, [1024, 256]>(BLOBFILE(path = tensor<string, []>("@model_path/weights/weight.bin"), offset = tensor<uint64, []>(5766784)))];
            tensor<fp16, [1024]> vision_model_encoder_layers_3_mlp_fc1_bias_to_fp16 = const()[name = tensor<string, []>("vision_model_encoder_layers_3_mlp_fc1_bias_to_fp16"), val = tensor<fp16, [1024]>(BLOBFILE(path = tensor<string, []>("@model_path/weights/weight.bin"), offset = tensor<uint64, []>(6291136)))];
            tensor<fp16, [1, 197, 1024]> linear_22_cast_fp16 = linear(bias = vision_model_encoder_layers_3_mlp_fc1_bias_to_fp16, weight = vision_model_encoder_layers_3_mlp_fc1_weight_to_fp16, x = input_49_cast_fp16)[name = tensor<string, []>("linear_22_cast_fp16")];
            tensor<string, []> input_53_mode_0 = const()[name = tensor<string, []>("input_53_mode_0"), val = tensor<string, []>("EXACT")];
            tensor<fp16, [1, 197, 1024]> input_53_cast_fp16 = gelu(mode = input_53_mode_0, x = linear_22_cast_fp16)[name = tensor<string, []>("input_53_cast_fp16")];
            tensor<fp16, [256, 1024]> vision_model_encoder_layers_3_mlp_fc2_weight_to_fp16 = const()[name = tensor<string, []>("vision_model_encoder_layers_3_mlp_fc2_weight_to_fp16"), val = tensor<fp16, [256, 1024]>(BLOBFILE(path = tensor<string, []>("@model_path/weights/weight.bin"), offset = tensor<uint64, []>(6293248)))];
            tensor<fp16, [256]> vision_model_encoder_layers_3_mlp_fc2_bias_to_fp16 = const()[name = tensor<string, []>("vision_model_encoder_layers_3_mlp_fc2_bias_to_fp16"), val = tensor<fp16, [256]>(BLOBFILE(path = tensor<string, []>("@model_path/weights/weight.bin"), offset = tensor<uint64, []>(6817600)))];
            tensor<fp16, [1, 197, 256]> linear_23_cast_fp16 = linear(bias = vision_model_encoder_layers_3_mlp_fc2_bias_to_fp16, weight = vision_model_encoder_layers_3_mlp_fc2_weight_to_fp16, x = input_53_cast_fp16)[name = tensor<string, []>("linear_23_cast_fp16")];
            tensor<fp16, [1, 197, 256]> input_55_cast_fp16 = add(x = input_47_cast_fp16, y = linear_23_cast_fp16)[name = tensor<string, []>("input_55_cast_fp16")];
            tensor<int32, [1]> hidden_states_25_axes_0 = const()[name = tensor<string, []>("hidden_states_25_axes_0"), val = tensor<int32, [1]>([-1])];
            tensor<fp16, [256]> vision_model_encoder_layers_4_layer_norm1_weight_to_fp16 = const()[name = tensor<string, []>("vision_model_encoder_layers_4_layer_norm1_weight_to_fp16"), val = tensor<fp16, [256]>(BLOBFILE(path = tensor<string, []>("@model_path/weights/weight.bin"), offset = tensor<uint64, []>(6818176)))];
            tensor<fp16, [256]> vision_model_encoder_layers_4_layer_norm1_bias_to_fp16 = const()[name = tensor<string, []>("vision_model_encoder_layers_4_layer_norm1_bias_to_fp16"), val = tensor<fp16, [256]>(BLOBFILE(path = tensor<string, []>("@model_path/weights/weight.bin"), offset = tensor<uint64, []>(6818752)))];
            tensor<fp16, [1, 197, 256]> hidden_states_25_cast_fp16 = layer_norm(axes = hidden_states_25_axes_0, beta = vision_model_encoder_layers_4_layer_norm1_bias_to_fp16, epsilon = var_9_to_fp16, gamma = vision_model_encoder_layers_4_layer_norm1_weight_to_fp16, x = input_55_cast_fp16)[name = tensor<string, []>("hidden_states_25_cast_fp16")];
            tensor<fp16, [256, 256]> vision_model_encoder_layers_4_self_attn_q_proj_weight_to_fp16 = const()[name = tensor<string, []>("vision_model_encoder_layers_4_self_attn_q_proj_weight_to_fp16"), val = tensor<fp16, [256, 256]>(BLOBFILE(path = tensor<string, []>("@model_path/weights/weight.bin"), offset = tensor<uint64, []>(6819328)))];
            tensor<fp16, [256]> vision_model_encoder_layers_4_self_attn_q_proj_bias_to_fp16 = const()[name = tensor<string, []>("vision_model_encoder_layers_4_self_attn_q_proj_bias_to_fp16"), val = tensor<fp16, [256]>(BLOBFILE(path = tensor<string, []>("@model_path/weights/weight.bin"), offset = tensor<uint64, []>(6950464)))];
            tensor<fp16, [1, 197, 256]> linear_24_cast_fp16 = linear(bias = vision_model_encoder_layers_4_self_attn_q_proj_bias_to_fp16, weight = vision_model_encoder_layers_4_self_attn_q_proj_weight_to_fp16, x = hidden_states_25_cast_fp16)[name = tensor<string, []>("linear_24_cast_fp16")];
            tensor<fp16, [256, 256]> vision_model_encoder_layers_4_self_attn_k_proj_weight_to_fp16 = const()[name = tensor<string, []>("vision_model_encoder_layers_4_self_attn_k_proj_weight_to_fp16"), val = tensor<fp16, [256, 256]>(BLOBFILE(path = tensor<string, []>("@model_path/weights/weight.bin"), offset = tensor<uint64, []>(6951040)))];
            tensor<fp16, [256]> vision_model_encoder_layers_4_self_attn_k_proj_bias_to_fp16 = const()[name = tensor<string, []>("vision_model_encoder_layers_4_self_attn_k_proj_bias_to_fp16"), val = tensor<fp16, [256]>(BLOBFILE(path = tensor<string, []>("@model_path/weights/weight.bin"), offset = tensor<uint64, []>(7082176)))];
            tensor<fp16, [1, 197, 256]> linear_25_cast_fp16 = linear(bias = vision_model_encoder_layers_4_self_attn_k_proj_bias_to_fp16, weight = vision_model_encoder_layers_4_self_attn_k_proj_weight_to_fp16, x = hidden_states_25_cast_fp16)[name = tensor<string, []>("linear_25_cast_fp16")];
            tensor<fp16, [256, 256]> vision_model_encoder_layers_4_self_attn_v_proj_weight_to_fp16 = const()[name = tensor<string, []>("vision_model_encoder_layers_4_self_attn_v_proj_weight_to_fp16"), val = tensor<fp16, [256, 256]>(BLOBFILE(path = tensor<string, []>("@model_path/weights/weight.bin"), offset = tensor<uint64, []>(7082752)))];
            tensor<fp16, [256]> vision_model_encoder_layers_4_self_attn_v_proj_bias_to_fp16 = const()[name = tensor<string, []>("vision_model_encoder_layers_4_self_attn_v_proj_bias_to_fp16"), val = tensor<fp16, [256]>(BLOBFILE(path = tensor<string, []>("@model_path/weights/weight.bin"), offset = tensor<uint64, []>(7213888)))];
            tensor<fp16, [1, 197, 256]> linear_26_cast_fp16 = linear(bias = vision_model_encoder_layers_4_self_attn_v_proj_bias_to_fp16, weight = vision_model_encoder_layers_4_self_attn_v_proj_weight_to_fp16, x = hidden_states_25_cast_fp16)[name = tensor<string, []>("linear_26_cast_fp16")];
            tensor<int32, [4]> var_320 = const()[name = tensor<string, []>("op_320"), val = tensor<int32, [4]>([1, 197, -1, 64])];
            tensor<fp16, [1, 197, 4, 64]> var_321_cast_fp16 = reshape(shape = var_320, x = linear_24_cast_fp16)[name = tensor<string, []>("op_321_cast_fp16")];
            tensor<int32, [4]> var_323 = const()[name = tensor<string, []>("op_323"), val = tensor<int32, [4]>([1, 197, -1, 64])];
            tensor<fp16, [1, 197, 4, 64]> var_324_cast_fp16 = reshape(shape = var_323, x = linear_25_cast_fp16)[name = tensor<string, []>("op_324_cast_fp16")];
            tensor<int32, [4]> var_326 = const()[name = tensor<string, []>("op_326"), val = tensor<int32, [4]>([1, 197, -1, 64])];
            tensor<fp16, [1, 197, 4, 64]> var_327_cast_fp16 = reshape(shape = var_326, x = linear_26_cast_fp16)[name = tensor<string, []>("op_327_cast_fp16")];
            tensor<int32, [4]> value_9_perm_0 = const()[name = tensor<string, []>("value_9_perm_0"), val = tensor<int32, [4]>([0, 2, 1, 3])];
            tensor<fp16, [1, 197, 4, 64]> mul_4_cast_fp16 = mul(x = var_321_cast_fp16, y = var_7_to_fp16)[name = tensor<string, []>("mul_4_cast_fp16")];
            tensor<bool, []> matmul_4_transpose_y_0 = const()[name = tensor<string, []>("matmul_4_transpose_y_0"), val = tensor<bool, []>(true)];
            tensor<bool, []> matmul_4_transpose_x_0 = const()[name = tensor<string, []>("matmul_4_transpose_x_0"), val = tensor<bool, []>(false)];
            tensor<int32, [4]> transpose_48_perm_0 = const()[name = tensor<string, []>("transpose_48_perm_0"), val = tensor<int32, [4]>([0, 2, -3, -1])];
            tensor<int32, [4]> transpose_49_perm_0 = const()[name = tensor<string, []>("transpose_49_perm_0"), val = tensor<int32, [4]>([0, 2, -3, -1])];
            tensor<fp16, [1, 4, 197, 64]> transpose_49 = transpose(perm = transpose_49_perm_0, x = var_324_cast_fp16)[name = tensor<string, []>("transpose_81")];
            tensor<fp16, [1, 4, 197, 64]> transpose_48 = transpose(perm = transpose_48_perm_0, x = mul_4_cast_fp16)[name = tensor<string, []>("transpose_82")];
            tensor<fp16, [1, 4, 197, 197]> matmul_4_cast_fp16 = matmul(transpose_x = matmul_4_transpose_x_0, transpose_y = matmul_4_transpose_y_0, x = transpose_48, y = transpose_49)[name = tensor<string, []>("matmul_4_cast_fp16")];
            tensor<int32, []> softmax_4_axis_0 = const()[name = tensor<string, []>("softmax_4_axis_0"), val = tensor<int32, []>(-1)];
            tensor<fp16, [1, 4, 197, 197]> softmax_4_cast_fp16 = softmax(axis = softmax_4_axis_0, x = matmul_4_cast_fp16)[name = tensor<string, []>("softmax_4_cast_fp16")];
            tensor<bool, []> attn_output_17_transpose_x_0 = const()[name = tensor<string, []>("attn_output_17_transpose_x_0"), val = tensor<bool, []>(false)];
            tensor<bool, []> attn_output_17_transpose_y_0 = const()[name = tensor<string, []>("attn_output_17_transpose_y_0"), val = tensor<bool, []>(false)];
            tensor<fp16, [1, 4, 197, 64]> value_9_cast_fp16 = transpose(perm = value_9_perm_0, x = var_327_cast_fp16)[name = tensor<string, []>("transpose_83")];
            tensor<fp16, [1, 4, 197, 64]> attn_output_17_cast_fp16 = matmul(transpose_x = attn_output_17_transpose_x_0, transpose_y = attn_output_17_transpose_y_0, x = softmax_4_cast_fp16, y = value_9_cast_fp16)[name = tensor<string, []>("attn_output_17_cast_fp16")];
            tensor<int32, [4]> var_330_perm_0 = const()[name = tensor<string, []>("op_330_perm_0"), val = tensor<int32, [4]>([0, 2, 1, 3])];
            tensor<int32, [3]> var_332 = const()[name = tensor<string, []>("op_332"), val = tensor<int32, [3]>([1, 197, 256])];
            tensor<fp16, [1, 197, 4, 64]> var_330_cast_fp16 = transpose(perm = var_330_perm_0, x = attn_output_17_cast_fp16)[name = tensor<string, []>("transpose_80")];
            tensor<fp16, [1, 197, 256]> var_333_cast_fp16 = reshape(shape = var_332, x = var_330_cast_fp16)[name = tensor<string, []>("op_333_cast_fp16")];
            tensor<fp16, [256, 256]> vision_model_encoder_layers_4_self_attn_out_proj_weight_to_fp16 = const()[name = tensor<string, []>("vision_model_encoder_layers_4_self_attn_out_proj_weight_to_fp16"), val = tensor<fp16, [256, 256]>(BLOBFILE(path = tensor<string, []>("@model_path/weights/weight.bin"), offset = tensor<uint64, []>(7214464)))];
            tensor<fp16, [256]> vision_model_encoder_layers_4_self_attn_out_proj_bias_to_fp16 = const()[name = tensor<string, []>("vision_model_encoder_layers_4_self_attn_out_proj_bias_to_fp16"), val = tensor<fp16, [256]>(BLOBFILE(path = tensor<string, []>("@model_path/weights/weight.bin"), offset = tensor<uint64, []>(7345600)))];
            tensor<fp16, [1, 197, 256]> linear_27_cast_fp16 = linear(bias = vision_model_encoder_layers_4_self_attn_out_proj_bias_to_fp16, weight = vision_model_encoder_layers_4_self_attn_out_proj_weight_to_fp16, x = var_333_cast_fp16)[name = tensor<string, []>("linear_27_cast_fp16")];
            tensor<fp16, [1, 197, 256]> input_59_cast_fp16 = add(x = input_55_cast_fp16, y = linear_27_cast_fp16)[name = tensor<string, []>("input_59_cast_fp16")];
            tensor<int32, [1]> input_61_axes_0 = const()[name = tensor<string, []>("input_61_axes_0"), val = tensor<int32, [1]>([-1])];
            tensor<fp16, [256]> vision_model_encoder_layers_4_layer_norm2_weight_to_fp16 = const()[name = tensor<string, []>("vision_model_encoder_layers_4_layer_norm2_weight_to_fp16"), val = tensor<fp16, [256]>(BLOBFILE(path = tensor<string, []>("@model_path/weights/weight.bin"), offset = tensor<uint64, []>(7346176)))];
            tensor<fp16, [256]> vision_model_encoder_layers_4_layer_norm2_bias_to_fp16 = const()[name = tensor<string, []>("vision_model_encoder_layers_4_layer_norm2_bias_to_fp16"), val = tensor<fp16, [256]>(BLOBFILE(path = tensor<string, []>("@model_path/weights/weight.bin"), offset = tensor<uint64, []>(7346752)))];
            tensor<fp16, [1, 197, 256]> input_61_cast_fp16 = layer_norm(axes = input_61_axes_0, beta = vision_model_encoder_layers_4_layer_norm2_bias_to_fp16, epsilon = var_9_to_fp16, gamma = vision_model_encoder_layers_4_layer_norm2_weight_to_fp16, x = input_59_cast_fp16)[name = tensor<string, []>("input_61_cast_fp16")];
            tensor<fp16, [1024, 256]> vision_model_encoder_layers_4_mlp_fc1_weight_to_fp16 = const()[name = tensor<string, []>("vision_model_encoder_layers_4_mlp_fc1_weight_to_fp16"), val = tensor<fp16, [1024, 256]>(BLOBFILE(path = tensor<string, []>("@model_path/weights/weight.bin"), offset = tensor<uint64, []>(7347328)))];
            tensor<fp16, [1024]> vision_model_encoder_layers_4_mlp_fc1_bias_to_fp16 = const()[name = tensor<string, []>("vision_model_encoder_layers_4_mlp_fc1_bias_to_fp16"), val = tensor<fp16, [1024]>(BLOBFILE(path = tensor<string, []>("@model_path/weights/weight.bin"), offset = tensor<uint64, []>(7871680)))];
            tensor<fp16, [1, 197, 1024]> linear_28_cast_fp16 = linear(bias = vision_model_encoder_layers_4_mlp_fc1_bias_to_fp16, weight = vision_model_encoder_layers_4_mlp_fc1_weight_to_fp16, x = input_61_cast_fp16)[name = tensor<string, []>("linear_28_cast_fp16")];
            tensor<string, []> input_65_mode_0 = const()[name = tensor<string, []>("input_65_mode_0"), val = tensor<string, []>("EXACT")];
            tensor<fp16, [1, 197, 1024]> input_65_cast_fp16 = gelu(mode = input_65_mode_0, x = linear_28_cast_fp16)[name = tensor<string, []>("input_65_cast_fp16")];
            tensor<fp16, [256, 1024]> vision_model_encoder_layers_4_mlp_fc2_weight_to_fp16 = const()[name = tensor<string, []>("vision_model_encoder_layers_4_mlp_fc2_weight_to_fp16"), val = tensor<fp16, [256, 1024]>(BLOBFILE(path = tensor<string, []>("@model_path/weights/weight.bin"), offset = tensor<uint64, []>(7873792)))];
            tensor<fp16, [256]> vision_model_encoder_layers_4_mlp_fc2_bias_to_fp16 = const()[name = tensor<string, []>("vision_model_encoder_layers_4_mlp_fc2_bias_to_fp16"), val = tensor<fp16, [256]>(BLOBFILE(path = tensor<string, []>("@model_path/weights/weight.bin"), offset = tensor<uint64, []>(8398144)))];
            tensor<fp16, [1, 197, 256]> linear_29_cast_fp16 = linear(bias = vision_model_encoder_layers_4_mlp_fc2_bias_to_fp16, weight = vision_model_encoder_layers_4_mlp_fc2_weight_to_fp16, x = input_65_cast_fp16)[name = tensor<string, []>("linear_29_cast_fp16")];
            tensor<fp16, [1, 197, 256]> input_67_cast_fp16 = add(x = input_59_cast_fp16, y = linear_29_cast_fp16)[name = tensor<string, []>("input_67_cast_fp16")];
            tensor<int32, [1]> hidden_states_31_axes_0 = const()[name = tensor<string, []>("hidden_states_31_axes_0"), val = tensor<int32, [1]>([-1])];
            tensor<fp16, [256]> vision_model_encoder_layers_5_layer_norm1_weight_to_fp16 = const()[name = tensor<string, []>("vision_model_encoder_layers_5_layer_norm1_weight_to_fp16"), val = tensor<fp16, [256]>(BLOBFILE(path = tensor<string, []>("@model_path/weights/weight.bin"), offset = tensor<uint64, []>(8398720)))];
            tensor<fp16, [256]> vision_model_encoder_layers_5_layer_norm1_bias_to_fp16 = const()[name = tensor<string, []>("vision_model_encoder_layers_5_layer_norm1_bias_to_fp16"), val = tensor<fp16, [256]>(BLOBFILE(path = tensor<string, []>("@model_path/weights/weight.bin"), offset = tensor<uint64, []>(8399296)))];
            tensor<fp16, [1, 197, 256]> hidden_states_31_cast_fp16 = layer_norm(axes = hidden_states_31_axes_0, beta = vision_model_encoder_layers_5_layer_norm1_bias_to_fp16, epsilon = var_9_to_fp16, gamma = vision_model_encoder_layers_5_layer_norm1_weight_to_fp16, x = input_67_cast_fp16)[name = tensor<string, []>("hidden_states_31_cast_fp16")];
            tensor<fp16, [256, 256]> vision_model_encoder_layers_5_self_attn_q_proj_weight_to_fp16 = const()[name = tensor<string, []>("vision_model_encoder_layers_5_self_attn_q_proj_weight_to_fp16"), val = tensor<fp16, [256, 256]>(BLOBFILE(path = tensor<string, []>("@model_path/weights/weight.bin"), offset = tensor<uint64, []>(8399872)))];
            tensor<fp16, [256]> vision_model_encoder_layers_5_self_attn_q_proj_bias_to_fp16 = const()[name = tensor<string, []>("vision_model_encoder_layers_5_self_attn_q_proj_bias_to_fp16"), val = tensor<fp16, [256]>(BLOBFILE(path = tensor<string, []>("@model_path/weights/weight.bin"), offset = tensor<uint64, []>(8531008)))];
            tensor<fp16, [1, 197, 256]> linear_30_cast_fp16 = linear(bias = vision_model_encoder_layers_5_self_attn_q_proj_bias_to_fp16, weight = vision_model_encoder_layers_5_self_attn_q_proj_weight_to_fp16, x = hidden_states_31_cast_fp16)[name = tensor<string, []>("linear_30_cast_fp16")];
            tensor<fp16, [256, 256]> vision_model_encoder_layers_5_self_attn_k_proj_weight_to_fp16 = const()[name = tensor<string, []>("vision_model_encoder_layers_5_self_attn_k_proj_weight_to_fp16"), val = tensor<fp16, [256, 256]>(BLOBFILE(path = tensor<string, []>("@model_path/weights/weight.bin"), offset = tensor<uint64, []>(8531584)))];
            tensor<fp16, [256]> vision_model_encoder_layers_5_self_attn_k_proj_bias_to_fp16 = const()[name = tensor<string, []>("vision_model_encoder_layers_5_self_attn_k_proj_bias_to_fp16"), val = tensor<fp16, [256]>(BLOBFILE(path = tensor<string, []>("@model_path/weights/weight.bin"), offset = tensor<uint64, []>(8662720)))];
            tensor<fp16, [1, 197, 256]> linear_31_cast_fp16 = linear(bias = vision_model_encoder_layers_5_self_attn_k_proj_bias_to_fp16, weight = vision_model_encoder_layers_5_self_attn_k_proj_weight_to_fp16, x = hidden_states_31_cast_fp16)[name = tensor<string, []>("linear_31_cast_fp16")];
            tensor<fp16, [256, 256]> vision_model_encoder_layers_5_self_attn_v_proj_weight_to_fp16 = const()[name = tensor<string, []>("vision_model_encoder_layers_5_self_attn_v_proj_weight_to_fp16"), val = tensor<fp16, [256, 256]>(BLOBFILE(path = tensor<string, []>("@model_path/weights/weight.bin"), offset = tensor<uint64, []>(8663296)))];
            tensor<fp16, [256]> vision_model_encoder_layers_5_self_attn_v_proj_bias_to_fp16 = const()[name = tensor<string, []>("vision_model_encoder_layers_5_self_attn_v_proj_bias_to_fp16"), val = tensor<fp16, [256]>(BLOBFILE(path = tensor<string, []>("@model_path/weights/weight.bin"), offset = tensor<uint64, []>(8794432)))];
            tensor<fp16, [1, 197, 256]> linear_32_cast_fp16 = linear(bias = vision_model_encoder_layers_5_self_attn_v_proj_bias_to_fp16, weight = vision_model_encoder_layers_5_self_attn_v_proj_weight_to_fp16, x = hidden_states_31_cast_fp16)[name = tensor<string, []>("linear_32_cast_fp16")];
            tensor<int32, [4]> var_377 = const()[name = tensor<string, []>("op_377"), val = tensor<int32, [4]>([1, 197, -1, 64])];
            tensor<fp16, [1, 197, 4, 64]> var_378_cast_fp16 = reshape(shape = var_377, x = linear_30_cast_fp16)[name = tensor<string, []>("op_378_cast_fp16")];
            tensor<int32, [4]> var_380 = const()[name = tensor<string, []>("op_380"), val = tensor<int32, [4]>([1, 197, -1, 64])];
            tensor<fp16, [1, 197, 4, 64]> var_381_cast_fp16 = reshape(shape = var_380, x = linear_31_cast_fp16)[name = tensor<string, []>("op_381_cast_fp16")];
            tensor<int32, [4]> var_383 = const()[name = tensor<string, []>("op_383"), val = tensor<int32, [4]>([1, 197, -1, 64])];
            tensor<fp16, [1, 197, 4, 64]> var_384_cast_fp16 = reshape(shape = var_383, x = linear_32_cast_fp16)[name = tensor<string, []>("op_384_cast_fp16")];
            tensor<int32, [4]> value_11_perm_0 = const()[name = tensor<string, []>("value_11_perm_0"), val = tensor<int32, [4]>([0, 2, 1, 3])];
            tensor<fp16, [1, 197, 4, 64]> mul_5_cast_fp16 = mul(x = var_378_cast_fp16, y = var_7_to_fp16)[name = tensor<string, []>("mul_5_cast_fp16")];
            tensor<bool, []> matmul_5_transpose_y_0 = const()[name = tensor<string, []>("matmul_5_transpose_y_0"), val = tensor<bool, []>(true)];
            tensor<bool, []> matmul_5_transpose_x_0 = const()[name = tensor<string, []>("matmul_5_transpose_x_0"), val = tensor<bool, []>(false)];
            tensor<int32, [4]> transpose_50_perm_0 = const()[name = tensor<string, []>("transpose_50_perm_0"), val = tensor<int32, [4]>([0, 2, -3, -1])];
            tensor<int32, [4]> transpose_51_perm_0 = const()[name = tensor<string, []>("transpose_51_perm_0"), val = tensor<int32, [4]>([0, 2, -3, -1])];
            tensor<fp16, [1, 4, 197, 64]> transpose_51 = transpose(perm = transpose_51_perm_0, x = var_381_cast_fp16)[name = tensor<string, []>("transpose_77")];
            tensor<fp16, [1, 4, 197, 64]> transpose_50 = transpose(perm = transpose_50_perm_0, x = mul_5_cast_fp16)[name = tensor<string, []>("transpose_78")];
            tensor<fp16, [1, 4, 197, 197]> matmul_5_cast_fp16 = matmul(transpose_x = matmul_5_transpose_x_0, transpose_y = matmul_5_transpose_y_0, x = transpose_50, y = transpose_51)[name = tensor<string, []>("matmul_5_cast_fp16")];
            tensor<int32, []> softmax_5_axis_0 = const()[name = tensor<string, []>("softmax_5_axis_0"), val = tensor<int32, []>(-1)];
            tensor<fp16, [1, 4, 197, 197]> softmax_5_cast_fp16 = softmax(axis = softmax_5_axis_0, x = matmul_5_cast_fp16)[name = tensor<string, []>("softmax_5_cast_fp16")];
            tensor<bool, []> attn_output_21_transpose_x_0 = const()[name = tensor<string, []>("attn_output_21_transpose_x_0"), val = tensor<bool, []>(false)];
            tensor<bool, []> attn_output_21_transpose_y_0 = const()[name = tensor<string, []>("attn_output_21_transpose_y_0"), val = tensor<bool, []>(false)];
            tensor<fp16, [1, 4, 197, 64]> value_11_cast_fp16 = transpose(perm = value_11_perm_0, x = var_384_cast_fp16)[name = tensor<string, []>("transpose_79")];
            tensor<fp16, [1, 4, 197, 64]> attn_output_21_cast_fp16 = matmul(transpose_x = attn_output_21_transpose_x_0, transpose_y = attn_output_21_transpose_y_0, x = softmax_5_cast_fp16, y = value_11_cast_fp16)[name = tensor<string, []>("attn_output_21_cast_fp16")];
            tensor<int32, [4]> var_387_perm_0 = const()[name = tensor<string, []>("op_387_perm_0"), val = tensor<int32, [4]>([0, 2, 1, 3])];
            tensor<int32, [3]> var_389 = const()[name = tensor<string, []>("op_389"), val = tensor<int32, [3]>([1, 197, 256])];
            tensor<fp16, [1, 197, 4, 64]> var_387_cast_fp16 = transpose(perm = var_387_perm_0, x = attn_output_21_cast_fp16)[name = tensor<string, []>("transpose_76")];
            tensor<fp16, [1, 197, 256]> var_390_cast_fp16 = reshape(shape = var_389, x = var_387_cast_fp16)[name = tensor<string, []>("op_390_cast_fp16")];
            tensor<fp16, [256, 256]> vision_model_encoder_layers_5_self_attn_out_proj_weight_to_fp16 = const()[name = tensor<string, []>("vision_model_encoder_layers_5_self_attn_out_proj_weight_to_fp16"), val = tensor<fp16, [256, 256]>(BLOBFILE(path = tensor<string, []>("@model_path/weights/weight.bin"), offset = tensor<uint64, []>(8795008)))];
            tensor<fp16, [256]> vision_model_encoder_layers_5_self_attn_out_proj_bias_to_fp16 = const()[name = tensor<string, []>("vision_model_encoder_layers_5_self_attn_out_proj_bias_to_fp16"), val = tensor<fp16, [256]>(BLOBFILE(path = tensor<string, []>("@model_path/weights/weight.bin"), offset = tensor<uint64, []>(8926144)))];
            tensor<fp16, [1, 197, 256]> linear_33_cast_fp16 = linear(bias = vision_model_encoder_layers_5_self_attn_out_proj_bias_to_fp16, weight = vision_model_encoder_layers_5_self_attn_out_proj_weight_to_fp16, x = var_390_cast_fp16)[name = tensor<string, []>("linear_33_cast_fp16")];
            tensor<fp16, [1, 197, 256]> input_71_cast_fp16 = add(x = input_67_cast_fp16, y = linear_33_cast_fp16)[name = tensor<string, []>("input_71_cast_fp16")];
            tensor<int32, [1]> input_73_axes_0 = const()[name = tensor<string, []>("input_73_axes_0"), val = tensor<int32, [1]>([-1])];
            tensor<fp16, [256]> vision_model_encoder_layers_5_layer_norm2_weight_to_fp16 = const()[name = tensor<string, []>("vision_model_encoder_layers_5_layer_norm2_weight_to_fp16"), val = tensor<fp16, [256]>(BLOBFILE(path = tensor<string, []>("@model_path/weights/weight.bin"), offset = tensor<uint64, []>(8926720)))];
            tensor<fp16, [256]> vision_model_encoder_layers_5_layer_norm2_bias_to_fp16 = const()[name = tensor<string, []>("vision_model_encoder_layers_5_layer_norm2_bias_to_fp16"), val = tensor<fp16, [256]>(BLOBFILE(path = tensor<string, []>("@model_path/weights/weight.bin"), offset = tensor<uint64, []>(8927296)))];
            tensor<fp16, [1, 197, 256]> input_73_cast_fp16 = layer_norm(axes = input_73_axes_0, beta = vision_model_encoder_layers_5_layer_norm2_bias_to_fp16, epsilon = var_9_to_fp16, gamma = vision_model_encoder_layers_5_layer_norm2_weight_to_fp16, x = input_71_cast_fp16)[name = tensor<string, []>("input_73_cast_fp16")];
            tensor<fp16, [1024, 256]> vision_model_encoder_layers_5_mlp_fc1_weight_to_fp16 = const()[name = tensor<string, []>("vision_model_encoder_layers_5_mlp_fc1_weight_to_fp16"), val = tensor<fp16, [1024, 256]>(BLOBFILE(path = tensor<string, []>("@model_path/weights/weight.bin"), offset = tensor<uint64, []>(8927872)))];
            tensor<fp16, [1024]> vision_model_encoder_layers_5_mlp_fc1_bias_to_fp16 = const()[name = tensor<string, []>("vision_model_encoder_layers_5_mlp_fc1_bias_to_fp16"), val = tensor<fp16, [1024]>(BLOBFILE(path = tensor<string, []>("@model_path/weights/weight.bin"), offset = tensor<uint64, []>(9452224)))];
            tensor<fp16, [1, 197, 1024]> linear_34_cast_fp16 = linear(bias = vision_model_encoder_layers_5_mlp_fc1_bias_to_fp16, weight = vision_model_encoder_layers_5_mlp_fc1_weight_to_fp16, x = input_73_cast_fp16)[name = tensor<string, []>("linear_34_cast_fp16")];
            tensor<string, []> input_77_mode_0 = const()[name = tensor<string, []>("input_77_mode_0"), val = tensor<string, []>("EXACT")];
            tensor<fp16, [1, 197, 1024]> input_77_cast_fp16 = gelu(mode = input_77_mode_0, x = linear_34_cast_fp16)[name = tensor<string, []>("input_77_cast_fp16")];
            tensor<fp16, [256, 1024]> vision_model_encoder_layers_5_mlp_fc2_weight_to_fp16 = const()[name = tensor<string, []>("vision_model_encoder_layers_5_mlp_fc2_weight_to_fp16"), val = tensor<fp16, [256, 1024]>(BLOBFILE(path = tensor<string, []>("@model_path/weights/weight.bin"), offset = tensor<uint64, []>(9454336)))];
            tensor<fp16, [256]> vision_model_encoder_layers_5_mlp_fc2_bias_to_fp16 = const()[name = tensor<string, []>("vision_model_encoder_layers_5_mlp_fc2_bias_to_fp16"), val = tensor<fp16, [256]>(BLOBFILE(path = tensor<string, []>("@model_path/weights/weight.bin"), offset = tensor<uint64, []>(9978688)))];
            tensor<fp16, [1, 197, 256]> linear_35_cast_fp16 = linear(bias = vision_model_encoder_layers_5_mlp_fc2_bias_to_fp16, weight = vision_model_encoder_layers_5_mlp_fc2_weight_to_fp16, x = input_77_cast_fp16)[name = tensor<string, []>("linear_35_cast_fp16")];
            tensor<fp16, [1, 197, 256]> input_79_cast_fp16 = add(x = input_71_cast_fp16, y = linear_35_cast_fp16)[name = tensor<string, []>("input_79_cast_fp16")];
            tensor<int32, [1]> hidden_states_37_axes_0 = const()[name = tensor<string, []>("hidden_states_37_axes_0"), val = tensor<int32, [1]>([-1])];
            tensor<fp16, [256]> vision_model_encoder_layers_6_layer_norm1_weight_to_fp16 = const()[name = tensor<string, []>("vision_model_encoder_layers_6_layer_norm1_weight_to_fp16"), val = tensor<fp16, [256]>(BLOBFILE(path = tensor<string, []>("@model_path/weights/weight.bin"), offset = tensor<uint64, []>(9979264)))];
            tensor<fp16, [256]> vision_model_encoder_layers_6_layer_norm1_bias_to_fp16 = const()[name = tensor<string, []>("vision_model_encoder_layers_6_layer_norm1_bias_to_fp16"), val = tensor<fp16, [256]>(BLOBFILE(path = tensor<string, []>("@model_path/weights/weight.bin"), offset = tensor<uint64, []>(9979840)))];
            tensor<fp16, [1, 197, 256]> hidden_states_37_cast_fp16 = layer_norm(axes = hidden_states_37_axes_0, beta = vision_model_encoder_layers_6_layer_norm1_bias_to_fp16, epsilon = var_9_to_fp16, gamma = vision_model_encoder_layers_6_layer_norm1_weight_to_fp16, x = input_79_cast_fp16)[name = tensor<string, []>("hidden_states_37_cast_fp16")];
            tensor<fp16, [256, 256]> vision_model_encoder_layers_6_self_attn_q_proj_weight_to_fp16 = const()[name = tensor<string, []>("vision_model_encoder_layers_6_self_attn_q_proj_weight_to_fp16"), val = tensor<fp16, [256, 256]>(BLOBFILE(path = tensor<string, []>("@model_path/weights/weight.bin"), offset = tensor<uint64, []>(9980416)))];
            tensor<fp16, [256]> vision_model_encoder_layers_6_self_attn_q_proj_bias_to_fp16 = const()[name = tensor<string, []>("vision_model_encoder_layers_6_self_attn_q_proj_bias_to_fp16"), val = tensor<fp16, [256]>(BLOBFILE(path = tensor<string, []>("@model_path/weights/weight.bin"), offset = tensor<uint64, []>(10111552)))];
            tensor<fp16, [1, 197, 256]> linear_36_cast_fp16 = linear(bias = vision_model_encoder_layers_6_self_attn_q_proj_bias_to_fp16, weight = vision_model_encoder_layers_6_self_attn_q_proj_weight_to_fp16, x = hidden_states_37_cast_fp16)[name = tensor<string, []>("linear_36_cast_fp16")];
            tensor<fp16, [256, 256]> vision_model_encoder_layers_6_self_attn_k_proj_weight_to_fp16 = const()[name = tensor<string, []>("vision_model_encoder_layers_6_self_attn_k_proj_weight_to_fp16"), val = tensor<fp16, [256, 256]>(BLOBFILE(path = tensor<string, []>("@model_path/weights/weight.bin"), offset = tensor<uint64, []>(10112128)))];
            tensor<fp16, [256]> vision_model_encoder_layers_6_self_attn_k_proj_bias_to_fp16 = const()[name = tensor<string, []>("vision_model_encoder_layers_6_self_attn_k_proj_bias_to_fp16"), val = tensor<fp16, [256]>(BLOBFILE(path = tensor<string, []>("@model_path/weights/weight.bin"), offset = tensor<uint64, []>(10243264)))];
            tensor<fp16, [1, 197, 256]> linear_37_cast_fp16 = linear(bias = vision_model_encoder_layers_6_self_attn_k_proj_bias_to_fp16, weight = vision_model_encoder_layers_6_self_attn_k_proj_weight_to_fp16, x = hidden_states_37_cast_fp16)[name = tensor<string, []>("linear_37_cast_fp16")];
            tensor<fp16, [256, 256]> vision_model_encoder_layers_6_self_attn_v_proj_weight_to_fp16 = const()[name = tensor<string, []>("vision_model_encoder_layers_6_self_attn_v_proj_weight_to_fp16"), val = tensor<fp16, [256, 256]>(BLOBFILE(path = tensor<string, []>("@model_path/weights/weight.bin"), offset = tensor<uint64, []>(10243840)))];
            tensor<fp16, [256]> vision_model_encoder_layers_6_self_attn_v_proj_bias_to_fp16 = const()[name = tensor<string, []>("vision_model_encoder_layers_6_self_attn_v_proj_bias_to_fp16"), val = tensor<fp16, [256]>(BLOBFILE(path = tensor<string, []>("@model_path/weights/weight.bin"), offset = tensor<uint64, []>(10374976)))];
            tensor<fp16, [1, 197, 256]> linear_38_cast_fp16 = linear(bias = vision_model_encoder_layers_6_self_attn_v_proj_bias_to_fp16, weight = vision_model_encoder_layers_6_self_attn_v_proj_weight_to_fp16, x = hidden_states_37_cast_fp16)[name = tensor<string, []>("linear_38_cast_fp16")];
            tensor<int32, [4]> var_434 = const()[name = tensor<string, []>("op_434"), val = tensor<int32, [4]>([1, 197, -1, 64])];
            tensor<fp16, [1, 197, 4, 64]> var_435_cast_fp16 = reshape(shape = var_434, x = linear_36_cast_fp16)[name = tensor<string, []>("op_435_cast_fp16")];
            tensor<int32, [4]> var_437 = const()[name = tensor<string, []>("op_437"), val = tensor<int32, [4]>([1, 197, -1, 64])];
            tensor<fp16, [1, 197, 4, 64]> var_438_cast_fp16 = reshape(shape = var_437, x = linear_37_cast_fp16)[name = tensor<string, []>("op_438_cast_fp16")];
            tensor<int32, [4]> var_440 = const()[name = tensor<string, []>("op_440"), val = tensor<int32, [4]>([1, 197, -1, 64])];
            tensor<fp16, [1, 197, 4, 64]> var_441_cast_fp16 = reshape(shape = var_440, x = linear_38_cast_fp16)[name = tensor<string, []>("op_441_cast_fp16")];
            tensor<int32, [4]> value_13_perm_0 = const()[name = tensor<string, []>("value_13_perm_0"), val = tensor<int32, [4]>([0, 2, 1, 3])];
            tensor<fp16, [1, 197, 4, 64]> mul_6_cast_fp16 = mul(x = var_435_cast_fp16, y = var_7_to_fp16)[name = tensor<string, []>("mul_6_cast_fp16")];
            tensor<bool, []> matmul_6_transpose_y_0 = const()[name = tensor<string, []>("matmul_6_transpose_y_0"), val = tensor<bool, []>(true)];
            tensor<bool, []> matmul_6_transpose_x_0 = const()[name = tensor<string, []>("matmul_6_transpose_x_0"), val = tensor<bool, []>(false)];
            tensor<int32, [4]> transpose_52_perm_0 = const()[name = tensor<string, []>("transpose_52_perm_0"), val = tensor<int32, [4]>([0, 2, -3, -1])];
            tensor<int32, [4]> transpose_53_perm_0 = const()[name = tensor<string, []>("transpose_53_perm_0"), val = tensor<int32, [4]>([0, 2, -3, -1])];
            tensor<fp16, [1, 4, 197, 64]> transpose_53 = transpose(perm = transpose_53_perm_0, x = var_438_cast_fp16)[name = tensor<string, []>("transpose_73")];
            tensor<fp16, [1, 4, 197, 64]> transpose_52 = transpose(perm = transpose_52_perm_0, x = mul_6_cast_fp16)[name = tensor<string, []>("transpose_74")];
            tensor<fp16, [1, 4, 197, 197]> matmul_6_cast_fp16 = matmul(transpose_x = matmul_6_transpose_x_0, transpose_y = matmul_6_transpose_y_0, x = transpose_52, y = transpose_53)[name = tensor<string, []>("matmul_6_cast_fp16")];
            tensor<int32, []> softmax_6_axis_0 = const()[name = tensor<string, []>("softmax_6_axis_0"), val = tensor<int32, []>(-1)];
            tensor<fp16, [1, 4, 197, 197]> softmax_6_cast_fp16 = softmax(axis = softmax_6_axis_0, x = matmul_6_cast_fp16)[name = tensor<string, []>("softmax_6_cast_fp16")];
            tensor<bool, []> attn_output_25_transpose_x_0 = const()[name = tensor<string, []>("attn_output_25_transpose_x_0"), val = tensor<bool, []>(false)];
            tensor<bool, []> attn_output_25_transpose_y_0 = const()[name = tensor<string, []>("attn_output_25_transpose_y_0"), val = tensor<bool, []>(false)];
            tensor<fp16, [1, 4, 197, 64]> value_13_cast_fp16 = transpose(perm = value_13_perm_0, x = var_441_cast_fp16)[name = tensor<string, []>("transpose_75")];
            tensor<fp16, [1, 4, 197, 64]> attn_output_25_cast_fp16 = matmul(transpose_x = attn_output_25_transpose_x_0, transpose_y = attn_output_25_transpose_y_0, x = softmax_6_cast_fp16, y = value_13_cast_fp16)[name = tensor<string, []>("attn_output_25_cast_fp16")];
            tensor<int32, [4]> var_444_perm_0 = const()[name = tensor<string, []>("op_444_perm_0"), val = tensor<int32, [4]>([0, 2, 1, 3])];
            tensor<int32, [3]> var_446 = const()[name = tensor<string, []>("op_446"), val = tensor<int32, [3]>([1, 197, 256])];
            tensor<fp16, [1, 197, 4, 64]> var_444_cast_fp16 = transpose(perm = var_444_perm_0, x = attn_output_25_cast_fp16)[name = tensor<string, []>("transpose_72")];
            tensor<fp16, [1, 197, 256]> var_447_cast_fp16 = reshape(shape = var_446, x = var_444_cast_fp16)[name = tensor<string, []>("op_447_cast_fp16")];
            tensor<fp16, [256, 256]> vision_model_encoder_layers_6_self_attn_out_proj_weight_to_fp16 = const()[name = tensor<string, []>("vision_model_encoder_layers_6_self_attn_out_proj_weight_to_fp16"), val = tensor<fp16, [256, 256]>(BLOBFILE(path = tensor<string, []>("@model_path/weights/weight.bin"), offset = tensor<uint64, []>(10375552)))];
            tensor<fp16, [256]> vision_model_encoder_layers_6_self_attn_out_proj_bias_to_fp16 = const()[name = tensor<string, []>("vision_model_encoder_layers_6_self_attn_out_proj_bias_to_fp16"), val = tensor<fp16, [256]>(BLOBFILE(path = tensor<string, []>("@model_path/weights/weight.bin"), offset = tensor<uint64, []>(10506688)))];
            tensor<fp16, [1, 197, 256]> linear_39_cast_fp16 = linear(bias = vision_model_encoder_layers_6_self_attn_out_proj_bias_to_fp16, weight = vision_model_encoder_layers_6_self_attn_out_proj_weight_to_fp16, x = var_447_cast_fp16)[name = tensor<string, []>("linear_39_cast_fp16")];
            tensor<fp16, [1, 197, 256]> input_83_cast_fp16 = add(x = input_79_cast_fp16, y = linear_39_cast_fp16)[name = tensor<string, []>("input_83_cast_fp16")];
            tensor<int32, [1]> input_85_axes_0 = const()[name = tensor<string, []>("input_85_axes_0"), val = tensor<int32, [1]>([-1])];
            tensor<fp16, [256]> vision_model_encoder_layers_6_layer_norm2_weight_to_fp16 = const()[name = tensor<string, []>("vision_model_encoder_layers_6_layer_norm2_weight_to_fp16"), val = tensor<fp16, [256]>(BLOBFILE(path = tensor<string, []>("@model_path/weights/weight.bin"), offset = tensor<uint64, []>(10507264)))];
            tensor<fp16, [256]> vision_model_encoder_layers_6_layer_norm2_bias_to_fp16 = const()[name = tensor<string, []>("vision_model_encoder_layers_6_layer_norm2_bias_to_fp16"), val = tensor<fp16, [256]>(BLOBFILE(path = tensor<string, []>("@model_path/weights/weight.bin"), offset = tensor<uint64, []>(10507840)))];
            tensor<fp16, [1, 197, 256]> input_85_cast_fp16 = layer_norm(axes = input_85_axes_0, beta = vision_model_encoder_layers_6_layer_norm2_bias_to_fp16, epsilon = var_9_to_fp16, gamma = vision_model_encoder_layers_6_layer_norm2_weight_to_fp16, x = input_83_cast_fp16)[name = tensor<string, []>("input_85_cast_fp16")];
            tensor<fp16, [1024, 256]> vision_model_encoder_layers_6_mlp_fc1_weight_to_fp16 = const()[name = tensor<string, []>("vision_model_encoder_layers_6_mlp_fc1_weight_to_fp16"), val = tensor<fp16, [1024, 256]>(BLOBFILE(path = tensor<string, []>("@model_path/weights/weight.bin"), offset = tensor<uint64, []>(10508416)))];
            tensor<fp16, [1024]> vision_model_encoder_layers_6_mlp_fc1_bias_to_fp16 = const()[name = tensor<string, []>("vision_model_encoder_layers_6_mlp_fc1_bias_to_fp16"), val = tensor<fp16, [1024]>(BLOBFILE(path = tensor<string, []>("@model_path/weights/weight.bin"), offset = tensor<uint64, []>(11032768)))];
            tensor<fp16, [1, 197, 1024]> linear_40_cast_fp16 = linear(bias = vision_model_encoder_layers_6_mlp_fc1_bias_to_fp16, weight = vision_model_encoder_layers_6_mlp_fc1_weight_to_fp16, x = input_85_cast_fp16)[name = tensor<string, []>("linear_40_cast_fp16")];
            tensor<string, []> input_89_mode_0 = const()[name = tensor<string, []>("input_89_mode_0"), val = tensor<string, []>("EXACT")];
            tensor<fp16, [1, 197, 1024]> input_89_cast_fp16 = gelu(mode = input_89_mode_0, x = linear_40_cast_fp16)[name = tensor<string, []>("input_89_cast_fp16")];
            tensor<fp16, [256, 1024]> vision_model_encoder_layers_6_mlp_fc2_weight_to_fp16 = const()[name = tensor<string, []>("vision_model_encoder_layers_6_mlp_fc2_weight_to_fp16"), val = tensor<fp16, [256, 1024]>(BLOBFILE(path = tensor<string, []>("@model_path/weights/weight.bin"), offset = tensor<uint64, []>(11034880)))];
            tensor<fp16, [256]> vision_model_encoder_layers_6_mlp_fc2_bias_to_fp16 = const()[name = tensor<string, []>("vision_model_encoder_layers_6_mlp_fc2_bias_to_fp16"), val = tensor<fp16, [256]>(BLOBFILE(path = tensor<string, []>("@model_path/weights/weight.bin"), offset = tensor<uint64, []>(11559232)))];
            tensor<fp16, [1, 197, 256]> linear_41_cast_fp16 = linear(bias = vision_model_encoder_layers_6_mlp_fc2_bias_to_fp16, weight = vision_model_encoder_layers_6_mlp_fc2_weight_to_fp16, x = input_89_cast_fp16)[name = tensor<string, []>("linear_41_cast_fp16")];
            tensor<fp16, [1, 197, 256]> input_91_cast_fp16 = add(x = input_83_cast_fp16, y = linear_41_cast_fp16)[name = tensor<string, []>("input_91_cast_fp16")];
            tensor<int32, [1]> hidden_states_43_axes_0 = const()[name = tensor<string, []>("hidden_states_43_axes_0"), val = tensor<int32, [1]>([-1])];
            tensor<fp16, [256]> vision_model_encoder_layers_7_layer_norm1_weight_to_fp16 = const()[name = tensor<string, []>("vision_model_encoder_layers_7_layer_norm1_weight_to_fp16"), val = tensor<fp16, [256]>(BLOBFILE(path = tensor<string, []>("@model_path/weights/weight.bin"), offset = tensor<uint64, []>(11559808)))];
            tensor<fp16, [256]> vision_model_encoder_layers_7_layer_norm1_bias_to_fp16 = const()[name = tensor<string, []>("vision_model_encoder_layers_7_layer_norm1_bias_to_fp16"), val = tensor<fp16, [256]>(BLOBFILE(path = tensor<string, []>("@model_path/weights/weight.bin"), offset = tensor<uint64, []>(11560384)))];
            tensor<fp16, [1, 197, 256]> hidden_states_43_cast_fp16 = layer_norm(axes = hidden_states_43_axes_0, beta = vision_model_encoder_layers_7_layer_norm1_bias_to_fp16, epsilon = var_9_to_fp16, gamma = vision_model_encoder_layers_7_layer_norm1_weight_to_fp16, x = input_91_cast_fp16)[name = tensor<string, []>("hidden_states_43_cast_fp16")];
            tensor<fp16, [256, 256]> vision_model_encoder_layers_7_self_attn_q_proj_weight_to_fp16 = const()[name = tensor<string, []>("vision_model_encoder_layers_7_self_attn_q_proj_weight_to_fp16"), val = tensor<fp16, [256, 256]>(BLOBFILE(path = tensor<string, []>("@model_path/weights/weight.bin"), offset = tensor<uint64, []>(11560960)))];
            tensor<fp16, [256]> vision_model_encoder_layers_7_self_attn_q_proj_bias_to_fp16 = const()[name = tensor<string, []>("vision_model_encoder_layers_7_self_attn_q_proj_bias_to_fp16"), val = tensor<fp16, [256]>(BLOBFILE(path = tensor<string, []>("@model_path/weights/weight.bin"), offset = tensor<uint64, []>(11692096)))];
            tensor<fp16, [1, 197, 256]> linear_42_cast_fp16 = linear(bias = vision_model_encoder_layers_7_self_attn_q_proj_bias_to_fp16, weight = vision_model_encoder_layers_7_self_attn_q_proj_weight_to_fp16, x = hidden_states_43_cast_fp16)[name = tensor<string, []>("linear_42_cast_fp16")];
            tensor<fp16, [256, 256]> vision_model_encoder_layers_7_self_attn_k_proj_weight_to_fp16 = const()[name = tensor<string, []>("vision_model_encoder_layers_7_self_attn_k_proj_weight_to_fp16"), val = tensor<fp16, [256, 256]>(BLOBFILE(path = tensor<string, []>("@model_path/weights/weight.bin"), offset = tensor<uint64, []>(11692672)))];
            tensor<fp16, [256]> vision_model_encoder_layers_7_self_attn_k_proj_bias_to_fp16 = const()[name = tensor<string, []>("vision_model_encoder_layers_7_self_attn_k_proj_bias_to_fp16"), val = tensor<fp16, [256]>(BLOBFILE(path = tensor<string, []>("@model_path/weights/weight.bin"), offset = tensor<uint64, []>(11823808)))];
            tensor<fp16, [1, 197, 256]> linear_43_cast_fp16 = linear(bias = vision_model_encoder_layers_7_self_attn_k_proj_bias_to_fp16, weight = vision_model_encoder_layers_7_self_attn_k_proj_weight_to_fp16, x = hidden_states_43_cast_fp16)[name = tensor<string, []>("linear_43_cast_fp16")];
            tensor<fp16, [256, 256]> vision_model_encoder_layers_7_self_attn_v_proj_weight_to_fp16 = const()[name = tensor<string, []>("vision_model_encoder_layers_7_self_attn_v_proj_weight_to_fp16"), val = tensor<fp16, [256, 256]>(BLOBFILE(path = tensor<string, []>("@model_path/weights/weight.bin"), offset = tensor<uint64, []>(11824384)))];
            tensor<fp16, [256]> vision_model_encoder_layers_7_self_attn_v_proj_bias_to_fp16 = const()[name = tensor<string, []>("vision_model_encoder_layers_7_self_attn_v_proj_bias_to_fp16"), val = tensor<fp16, [256]>(BLOBFILE(path = tensor<string, []>("@model_path/weights/weight.bin"), offset = tensor<uint64, []>(11955520)))];
            tensor<fp16, [1, 197, 256]> linear_44_cast_fp16 = linear(bias = vision_model_encoder_layers_7_self_attn_v_proj_bias_to_fp16, weight = vision_model_encoder_layers_7_self_attn_v_proj_weight_to_fp16, x = hidden_states_43_cast_fp16)[name = tensor<string, []>("linear_44_cast_fp16")];
            tensor<int32, [4]> var_491 = const()[name = tensor<string, []>("op_491"), val = tensor<int32, [4]>([1, 197, -1, 64])];
            tensor<fp16, [1, 197, 4, 64]> var_492_cast_fp16 = reshape(shape = var_491, x = linear_42_cast_fp16)[name = tensor<string, []>("op_492_cast_fp16")];
            tensor<int32, [4]> var_494 = const()[name = tensor<string, []>("op_494"), val = tensor<int32, [4]>([1, 197, -1, 64])];
            tensor<fp16, [1, 197, 4, 64]> var_495_cast_fp16 = reshape(shape = var_494, x = linear_43_cast_fp16)[name = tensor<string, []>("op_495_cast_fp16")];
            tensor<int32, [4]> var_497 = const()[name = tensor<string, []>("op_497"), val = tensor<int32, [4]>([1, 197, -1, 64])];
            tensor<fp16, [1, 197, 4, 64]> var_498_cast_fp16 = reshape(shape = var_497, x = linear_44_cast_fp16)[name = tensor<string, []>("op_498_cast_fp16")];
            tensor<int32, [4]> value_15_perm_0 = const()[name = tensor<string, []>("value_15_perm_0"), val = tensor<int32, [4]>([0, 2, 1, 3])];
            tensor<fp16, [1, 197, 4, 64]> mul_7_cast_fp16 = mul(x = var_492_cast_fp16, y = var_7_to_fp16)[name = tensor<string, []>("mul_7_cast_fp16")];
            tensor<bool, []> matmul_7_transpose_y_0 = const()[name = tensor<string, []>("matmul_7_transpose_y_0"), val = tensor<bool, []>(true)];
            tensor<bool, []> matmul_7_transpose_x_0 = const()[name = tensor<string, []>("matmul_7_transpose_x_0"), val = tensor<bool, []>(false)];
            tensor<int32, [4]> transpose_54_perm_0 = const()[name = tensor<string, []>("transpose_54_perm_0"), val = tensor<int32, [4]>([0, 2, -3, -1])];
            tensor<int32, [4]> transpose_55_perm_0 = const()[name = tensor<string, []>("transpose_55_perm_0"), val = tensor<int32, [4]>([0, 2, -3, -1])];
            tensor<fp16, [1, 4, 197, 64]> transpose_55 = transpose(perm = transpose_55_perm_0, x = var_495_cast_fp16)[name = tensor<string, []>("transpose_69")];
            tensor<fp16, [1, 4, 197, 64]> transpose_54 = transpose(perm = transpose_54_perm_0, x = mul_7_cast_fp16)[name = tensor<string, []>("transpose_70")];
            tensor<fp16, [1, 4, 197, 197]> matmul_7_cast_fp16 = matmul(transpose_x = matmul_7_transpose_x_0, transpose_y = matmul_7_transpose_y_0, x = transpose_54, y = transpose_55)[name = tensor<string, []>("matmul_7_cast_fp16")];
            tensor<int32, []> softmax_7_axis_0 = const()[name = tensor<string, []>("softmax_7_axis_0"), val = tensor<int32, []>(-1)];
            tensor<fp16, [1, 4, 197, 197]> softmax_7_cast_fp16 = softmax(axis = softmax_7_axis_0, x = matmul_7_cast_fp16)[name = tensor<string, []>("softmax_7_cast_fp16")];
            tensor<bool, []> attn_output_29_transpose_x_0 = const()[name = tensor<string, []>("attn_output_29_transpose_x_0"), val = tensor<bool, []>(false)];
            tensor<bool, []> attn_output_29_transpose_y_0 = const()[name = tensor<string, []>("attn_output_29_transpose_y_0"), val = tensor<bool, []>(false)];
            tensor<fp16, [1, 4, 197, 64]> value_15_cast_fp16 = transpose(perm = value_15_perm_0, x = var_498_cast_fp16)[name = tensor<string, []>("transpose_71")];
            tensor<fp16, [1, 4, 197, 64]> attn_output_29_cast_fp16 = matmul(transpose_x = attn_output_29_transpose_x_0, transpose_y = attn_output_29_transpose_y_0, x = softmax_7_cast_fp16, y = value_15_cast_fp16)[name = tensor<string, []>("attn_output_29_cast_fp16")];
            tensor<int32, [4]> var_501_perm_0 = const()[name = tensor<string, []>("op_501_perm_0"), val = tensor<int32, [4]>([0, 2, 1, 3])];
            tensor<int32, [3]> var_503 = const()[name = tensor<string, []>("op_503"), val = tensor<int32, [3]>([1, 197, 256])];
            tensor<fp16, [1, 197, 4, 64]> var_501_cast_fp16 = transpose(perm = var_501_perm_0, x = attn_output_29_cast_fp16)[name = tensor<string, []>("transpose_68")];
            tensor<fp16, [1, 197, 256]> var_504_cast_fp16 = reshape(shape = var_503, x = var_501_cast_fp16)[name = tensor<string, []>("op_504_cast_fp16")];
            tensor<fp16, [256, 256]> vision_model_encoder_layers_7_self_attn_out_proj_weight_to_fp16 = const()[name = tensor<string, []>("vision_model_encoder_layers_7_self_attn_out_proj_weight_to_fp16"), val = tensor<fp16, [256, 256]>(BLOBFILE(path = tensor<string, []>("@model_path/weights/weight.bin"), offset = tensor<uint64, []>(11956096)))];
            tensor<fp16, [256]> vision_model_encoder_layers_7_self_attn_out_proj_bias_to_fp16 = const()[name = tensor<string, []>("vision_model_encoder_layers_7_self_attn_out_proj_bias_to_fp16"), val = tensor<fp16, [256]>(BLOBFILE(path = tensor<string, []>("@model_path/weights/weight.bin"), offset = tensor<uint64, []>(12087232)))];
            tensor<fp16, [1, 197, 256]> linear_45_cast_fp16 = linear(bias = vision_model_encoder_layers_7_self_attn_out_proj_bias_to_fp16, weight = vision_model_encoder_layers_7_self_attn_out_proj_weight_to_fp16, x = var_504_cast_fp16)[name = tensor<string, []>("linear_45_cast_fp16")];
            tensor<fp16, [1, 197, 256]> input_95_cast_fp16 = add(x = input_91_cast_fp16, y = linear_45_cast_fp16)[name = tensor<string, []>("input_95_cast_fp16")];
            tensor<int32, [1]> input_97_axes_0 = const()[name = tensor<string, []>("input_97_axes_0"), val = tensor<int32, [1]>([-1])];
            tensor<fp16, [256]> vision_model_encoder_layers_7_layer_norm2_weight_to_fp16 = const()[name = tensor<string, []>("vision_model_encoder_layers_7_layer_norm2_weight_to_fp16"), val = tensor<fp16, [256]>(BLOBFILE(path = tensor<string, []>("@model_path/weights/weight.bin"), offset = tensor<uint64, []>(12087808)))];
            tensor<fp16, [256]> vision_model_encoder_layers_7_layer_norm2_bias_to_fp16 = const()[name = tensor<string, []>("vision_model_encoder_layers_7_layer_norm2_bias_to_fp16"), val = tensor<fp16, [256]>(BLOBFILE(path = tensor<string, []>("@model_path/weights/weight.bin"), offset = tensor<uint64, []>(12088384)))];
            tensor<fp16, [1, 197, 256]> input_97_cast_fp16 = layer_norm(axes = input_97_axes_0, beta = vision_model_encoder_layers_7_layer_norm2_bias_to_fp16, epsilon = var_9_to_fp16, gamma = vision_model_encoder_layers_7_layer_norm2_weight_to_fp16, x = input_95_cast_fp16)[name = tensor<string, []>("input_97_cast_fp16")];
            tensor<fp16, [1024, 256]> vision_model_encoder_layers_7_mlp_fc1_weight_to_fp16 = const()[name = tensor<string, []>("vision_model_encoder_layers_7_mlp_fc1_weight_to_fp16"), val = tensor<fp16, [1024, 256]>(BLOBFILE(path = tensor<string, []>("@model_path/weights/weight.bin"), offset = tensor<uint64, []>(12088960)))];
            tensor<fp16, [1024]> vision_model_encoder_layers_7_mlp_fc1_bias_to_fp16 = const()[name = tensor<string, []>("vision_model_encoder_layers_7_mlp_fc1_bias_to_fp16"), val = tensor<fp16, [1024]>(BLOBFILE(path = tensor<string, []>("@model_path/weights/weight.bin"), offset = tensor<uint64, []>(12613312)))];
            tensor<fp16, [1, 197, 1024]> linear_46_cast_fp16 = linear(bias = vision_model_encoder_layers_7_mlp_fc1_bias_to_fp16, weight = vision_model_encoder_layers_7_mlp_fc1_weight_to_fp16, x = input_97_cast_fp16)[name = tensor<string, []>("linear_46_cast_fp16")];
            tensor<string, []> input_101_mode_0 = const()[name = tensor<string, []>("input_101_mode_0"), val = tensor<string, []>("EXACT")];
            tensor<fp16, [1, 197, 1024]> input_101_cast_fp16 = gelu(mode = input_101_mode_0, x = linear_46_cast_fp16)[name = tensor<string, []>("input_101_cast_fp16")];
            tensor<fp16, [256, 1024]> vision_model_encoder_layers_7_mlp_fc2_weight_to_fp16 = const()[name = tensor<string, []>("vision_model_encoder_layers_7_mlp_fc2_weight_to_fp16"), val = tensor<fp16, [256, 1024]>(BLOBFILE(path = tensor<string, []>("@model_path/weights/weight.bin"), offset = tensor<uint64, []>(12615424)))];
            tensor<fp16, [256]> vision_model_encoder_layers_7_mlp_fc2_bias_to_fp16 = const()[name = tensor<string, []>("vision_model_encoder_layers_7_mlp_fc2_bias_to_fp16"), val = tensor<fp16, [256]>(BLOBFILE(path = tensor<string, []>("@model_path/weights/weight.bin"), offset = tensor<uint64, []>(13139776)))];
            tensor<fp16, [1, 197, 256]> linear_47_cast_fp16 = linear(bias = vision_model_encoder_layers_7_mlp_fc2_bias_to_fp16, weight = vision_model_encoder_layers_7_mlp_fc2_weight_to_fp16, x = input_101_cast_fp16)[name = tensor<string, []>("linear_47_cast_fp16")];
            tensor<fp16, [1, 197, 256]> input_103_cast_fp16 = add(x = input_95_cast_fp16, y = linear_47_cast_fp16)[name = tensor<string, []>("input_103_cast_fp16")];
            tensor<int32, [1]> hidden_states_49_axes_0 = const()[name = tensor<string, []>("hidden_states_49_axes_0"), val = tensor<int32, [1]>([-1])];
            tensor<fp16, [256]> vision_model_encoder_layers_8_layer_norm1_weight_to_fp16 = const()[name = tensor<string, []>("vision_model_encoder_layers_8_layer_norm1_weight_to_fp16"), val = tensor<fp16, [256]>(BLOBFILE(path = tensor<string, []>("@model_path/weights/weight.bin"), offset = tensor<uint64, []>(13140352)))];
            tensor<fp16, [256]> vision_model_encoder_layers_8_layer_norm1_bias_to_fp16 = const()[name = tensor<string, []>("vision_model_encoder_layers_8_layer_norm1_bias_to_fp16"), val = tensor<fp16, [256]>(BLOBFILE(path = tensor<string, []>("@model_path/weights/weight.bin"), offset = tensor<uint64, []>(13140928)))];
            tensor<fp16, [1, 197, 256]> hidden_states_49_cast_fp16 = layer_norm(axes = hidden_states_49_axes_0, beta = vision_model_encoder_layers_8_layer_norm1_bias_to_fp16, epsilon = var_9_to_fp16, gamma = vision_model_encoder_layers_8_layer_norm1_weight_to_fp16, x = input_103_cast_fp16)[name = tensor<string, []>("hidden_states_49_cast_fp16")];
            tensor<fp16, [256, 256]> vision_model_encoder_layers_8_self_attn_q_proj_weight_to_fp16 = const()[name = tensor<string, []>("vision_model_encoder_layers_8_self_attn_q_proj_weight_to_fp16"), val = tensor<fp16, [256, 256]>(BLOBFILE(path = tensor<string, []>("@model_path/weights/weight.bin"), offset = tensor<uint64, []>(13141504)))];
            tensor<fp16, [256]> vision_model_encoder_layers_8_self_attn_q_proj_bias_to_fp16 = const()[name = tensor<string, []>("vision_model_encoder_layers_8_self_attn_q_proj_bias_to_fp16"), val = tensor<fp16, [256]>(BLOBFILE(path = tensor<string, []>("@model_path/weights/weight.bin"), offset = tensor<uint64, []>(13272640)))];
            tensor<fp16, [1, 197, 256]> linear_48_cast_fp16 = linear(bias = vision_model_encoder_layers_8_self_attn_q_proj_bias_to_fp16, weight = vision_model_encoder_layers_8_self_attn_q_proj_weight_to_fp16, x = hidden_states_49_cast_fp16)[name = tensor<string, []>("linear_48_cast_fp16")];
            tensor<fp16, [256, 256]> vision_model_encoder_layers_8_self_attn_k_proj_weight_to_fp16 = const()[name = tensor<string, []>("vision_model_encoder_layers_8_self_attn_k_proj_weight_to_fp16"), val = tensor<fp16, [256, 256]>(BLOBFILE(path = tensor<string, []>("@model_path/weights/weight.bin"), offset = tensor<uint64, []>(13273216)))];
            tensor<fp16, [256]> vision_model_encoder_layers_8_self_attn_k_proj_bias_to_fp16 = const()[name = tensor<string, []>("vision_model_encoder_layers_8_self_attn_k_proj_bias_to_fp16"), val = tensor<fp16, [256]>(BLOBFILE(path = tensor<string, []>("@model_path/weights/weight.bin"), offset = tensor<uint64, []>(13404352)))];
            tensor<fp16, [1, 197, 256]> linear_49_cast_fp16 = linear(bias = vision_model_encoder_layers_8_self_attn_k_proj_bias_to_fp16, weight = vision_model_encoder_layers_8_self_attn_k_proj_weight_to_fp16, x = hidden_states_49_cast_fp16)[name = tensor<string, []>("linear_49_cast_fp16")];
            tensor<fp16, [256, 256]> vision_model_encoder_layers_8_self_attn_v_proj_weight_to_fp16 = const()[name = tensor<string, []>("vision_model_encoder_layers_8_self_attn_v_proj_weight_to_fp16"), val = tensor<fp16, [256, 256]>(BLOBFILE(path = tensor<string, []>("@model_path/weights/weight.bin"), offset = tensor<uint64, []>(13404928)))];
            tensor<fp16, [256]> vision_model_encoder_layers_8_self_attn_v_proj_bias_to_fp16 = const()[name = tensor<string, []>("vision_model_encoder_layers_8_self_attn_v_proj_bias_to_fp16"), val = tensor<fp16, [256]>(BLOBFILE(path = tensor<string, []>("@model_path/weights/weight.bin"), offset = tensor<uint64, []>(13536064)))];
            tensor<fp16, [1, 197, 256]> linear_50_cast_fp16 = linear(bias = vision_model_encoder_layers_8_self_attn_v_proj_bias_to_fp16, weight = vision_model_encoder_layers_8_self_attn_v_proj_weight_to_fp16, x = hidden_states_49_cast_fp16)[name = tensor<string, []>("linear_50_cast_fp16")];
            tensor<int32, [4]> var_548 = const()[name = tensor<string, []>("op_548"), val = tensor<int32, [4]>([1, 197, -1, 64])];
            tensor<fp16, [1, 197, 4, 64]> var_549_cast_fp16 = reshape(shape = var_548, x = linear_48_cast_fp16)[name = tensor<string, []>("op_549_cast_fp16")];
            tensor<int32, [4]> var_551 = const()[name = tensor<string, []>("op_551"), val = tensor<int32, [4]>([1, 197, -1, 64])];
            tensor<fp16, [1, 197, 4, 64]> var_552_cast_fp16 = reshape(shape = var_551, x = linear_49_cast_fp16)[name = tensor<string, []>("op_552_cast_fp16")];
            tensor<int32, [4]> var_554 = const()[name = tensor<string, []>("op_554"), val = tensor<int32, [4]>([1, 197, -1, 64])];
            tensor<fp16, [1, 197, 4, 64]> var_555_cast_fp16 = reshape(shape = var_554, x = linear_50_cast_fp16)[name = tensor<string, []>("op_555_cast_fp16")];
            tensor<int32, [4]> value_17_perm_0 = const()[name = tensor<string, []>("value_17_perm_0"), val = tensor<int32, [4]>([0, 2, 1, 3])];
            tensor<fp16, [1, 197, 4, 64]> mul_8_cast_fp16 = mul(x = var_549_cast_fp16, y = var_7_to_fp16)[name = tensor<string, []>("mul_8_cast_fp16")];
            tensor<bool, []> matmul_8_transpose_y_0 = const()[name = tensor<string, []>("matmul_8_transpose_y_0"), val = tensor<bool, []>(true)];
            tensor<bool, []> matmul_8_transpose_x_0 = const()[name = tensor<string, []>("matmul_8_transpose_x_0"), val = tensor<bool, []>(false)];
            tensor<int32, [4]> transpose_56_perm_0 = const()[name = tensor<string, []>("transpose_56_perm_0"), val = tensor<int32, [4]>([0, 2, -3, -1])];
            tensor<int32, [4]> transpose_57_perm_0 = const()[name = tensor<string, []>("transpose_57_perm_0"), val = tensor<int32, [4]>([0, 2, -3, -1])];
            tensor<fp16, [1, 4, 197, 64]> transpose_57 = transpose(perm = transpose_57_perm_0, x = var_552_cast_fp16)[name = tensor<string, []>("transpose_65")];
            tensor<fp16, [1, 4, 197, 64]> transpose_56 = transpose(perm = transpose_56_perm_0, x = mul_8_cast_fp16)[name = tensor<string, []>("transpose_66")];
            tensor<fp16, [1, 4, 197, 197]> matmul_8_cast_fp16 = matmul(transpose_x = matmul_8_transpose_x_0, transpose_y = matmul_8_transpose_y_0, x = transpose_56, y = transpose_57)[name = tensor<string, []>("matmul_8_cast_fp16")];
            tensor<int32, []> softmax_8_axis_0 = const()[name = tensor<string, []>("softmax_8_axis_0"), val = tensor<int32, []>(-1)];
            tensor<fp16, [1, 4, 197, 197]> softmax_8_cast_fp16 = softmax(axis = softmax_8_axis_0, x = matmul_8_cast_fp16)[name = tensor<string, []>("softmax_8_cast_fp16")];
            tensor<bool, []> attn_output_33_transpose_x_0 = const()[name = tensor<string, []>("attn_output_33_transpose_x_0"), val = tensor<bool, []>(false)];
            tensor<bool, []> attn_output_33_transpose_y_0 = const()[name = tensor<string, []>("attn_output_33_transpose_y_0"), val = tensor<bool, []>(false)];
            tensor<fp16, [1, 4, 197, 64]> value_17_cast_fp16 = transpose(perm = value_17_perm_0, x = var_555_cast_fp16)[name = tensor<string, []>("transpose_67")];
            tensor<fp16, [1, 4, 197, 64]> attn_output_33_cast_fp16 = matmul(transpose_x = attn_output_33_transpose_x_0, transpose_y = attn_output_33_transpose_y_0, x = softmax_8_cast_fp16, y = value_17_cast_fp16)[name = tensor<string, []>("attn_output_33_cast_fp16")];
            tensor<int32, [4]> var_558_perm_0 = const()[name = tensor<string, []>("op_558_perm_0"), val = tensor<int32, [4]>([0, 2, 1, 3])];
            tensor<int32, [3]> var_560 = const()[name = tensor<string, []>("op_560"), val = tensor<int32, [3]>([1, 197, 256])];
            tensor<fp16, [1, 197, 4, 64]> var_558_cast_fp16 = transpose(perm = var_558_perm_0, x = attn_output_33_cast_fp16)[name = tensor<string, []>("transpose_64")];
            tensor<fp16, [1, 197, 256]> var_561_cast_fp16 = reshape(shape = var_560, x = var_558_cast_fp16)[name = tensor<string, []>("op_561_cast_fp16")];
            tensor<fp16, [256, 256]> vision_model_encoder_layers_8_self_attn_out_proj_weight_to_fp16 = const()[name = tensor<string, []>("vision_model_encoder_layers_8_self_attn_out_proj_weight_to_fp16"), val = tensor<fp16, [256, 256]>(BLOBFILE(path = tensor<string, []>("@model_path/weights/weight.bin"), offset = tensor<uint64, []>(13536640)))];
            tensor<fp16, [256]> vision_model_encoder_layers_8_self_attn_out_proj_bias_to_fp16 = const()[name = tensor<string, []>("vision_model_encoder_layers_8_self_attn_out_proj_bias_to_fp16"), val = tensor<fp16, [256]>(BLOBFILE(path = tensor<string, []>("@model_path/weights/weight.bin"), offset = tensor<uint64, []>(13667776)))];
            tensor<fp16, [1, 197, 256]> linear_51_cast_fp16 = linear(bias = vision_model_encoder_layers_8_self_attn_out_proj_bias_to_fp16, weight = vision_model_encoder_layers_8_self_attn_out_proj_weight_to_fp16, x = var_561_cast_fp16)[name = tensor<string, []>("linear_51_cast_fp16")];
            tensor<fp16, [1, 197, 256]> input_107_cast_fp16 = add(x = input_103_cast_fp16, y = linear_51_cast_fp16)[name = tensor<string, []>("input_107_cast_fp16")];
            tensor<int32, [1]> input_109_axes_0 = const()[name = tensor<string, []>("input_109_axes_0"), val = tensor<int32, [1]>([-1])];
            tensor<fp16, [256]> vision_model_encoder_layers_8_layer_norm2_weight_to_fp16 = const()[name = tensor<string, []>("vision_model_encoder_layers_8_layer_norm2_weight_to_fp16"), val = tensor<fp16, [256]>(BLOBFILE(path = tensor<string, []>("@model_path/weights/weight.bin"), offset = tensor<uint64, []>(13668352)))];
            tensor<fp16, [256]> vision_model_encoder_layers_8_layer_norm2_bias_to_fp16 = const()[name = tensor<string, []>("vision_model_encoder_layers_8_layer_norm2_bias_to_fp16"), val = tensor<fp16, [256]>(BLOBFILE(path = tensor<string, []>("@model_path/weights/weight.bin"), offset = tensor<uint64, []>(13668928)))];
            tensor<fp16, [1, 197, 256]> input_109_cast_fp16 = layer_norm(axes = input_109_axes_0, beta = vision_model_encoder_layers_8_layer_norm2_bias_to_fp16, epsilon = var_9_to_fp16, gamma = vision_model_encoder_layers_8_layer_norm2_weight_to_fp16, x = input_107_cast_fp16)[name = tensor<string, []>("input_109_cast_fp16")];
            tensor<fp16, [1024, 256]> vision_model_encoder_layers_8_mlp_fc1_weight_to_fp16 = const()[name = tensor<string, []>("vision_model_encoder_layers_8_mlp_fc1_weight_to_fp16"), val = tensor<fp16, [1024, 256]>(BLOBFILE(path = tensor<string, []>("@model_path/weights/weight.bin"), offset = tensor<uint64, []>(13669504)))];
            tensor<fp16, [1024]> vision_model_encoder_layers_8_mlp_fc1_bias_to_fp16 = const()[name = tensor<string, []>("vision_model_encoder_layers_8_mlp_fc1_bias_to_fp16"), val = tensor<fp16, [1024]>(BLOBFILE(path = tensor<string, []>("@model_path/weights/weight.bin"), offset = tensor<uint64, []>(14193856)))];
            tensor<fp16, [1, 197, 1024]> linear_52_cast_fp16 = linear(bias = vision_model_encoder_layers_8_mlp_fc1_bias_to_fp16, weight = vision_model_encoder_layers_8_mlp_fc1_weight_to_fp16, x = input_109_cast_fp16)[name = tensor<string, []>("linear_52_cast_fp16")];
            tensor<string, []> input_113_mode_0 = const()[name = tensor<string, []>("input_113_mode_0"), val = tensor<string, []>("EXACT")];
            tensor<fp16, [1, 197, 1024]> input_113_cast_fp16 = gelu(mode = input_113_mode_0, x = linear_52_cast_fp16)[name = tensor<string, []>("input_113_cast_fp16")];
            tensor<fp16, [256, 1024]> vision_model_encoder_layers_8_mlp_fc2_weight_to_fp16 = const()[name = tensor<string, []>("vision_model_encoder_layers_8_mlp_fc2_weight_to_fp16"), val = tensor<fp16, [256, 1024]>(BLOBFILE(path = tensor<string, []>("@model_path/weights/weight.bin"), offset = tensor<uint64, []>(14195968)))];
            tensor<fp16, [256]> vision_model_encoder_layers_8_mlp_fc2_bias_to_fp16 = const()[name = tensor<string, []>("vision_model_encoder_layers_8_mlp_fc2_bias_to_fp16"), val = tensor<fp16, [256]>(BLOBFILE(path = tensor<string, []>("@model_path/weights/weight.bin"), offset = tensor<uint64, []>(14720320)))];
            tensor<fp16, [1, 197, 256]> linear_53_cast_fp16 = linear(bias = vision_model_encoder_layers_8_mlp_fc2_bias_to_fp16, weight = vision_model_encoder_layers_8_mlp_fc2_weight_to_fp16, x = input_113_cast_fp16)[name = tensor<string, []>("linear_53_cast_fp16")];
            tensor<fp16, [1, 197, 256]> input_115_cast_fp16 = add(x = input_107_cast_fp16, y = linear_53_cast_fp16)[name = tensor<string, []>("input_115_cast_fp16")];
            tensor<int32, [1]> hidden_states_55_axes_0 = const()[name = tensor<string, []>("hidden_states_55_axes_0"), val = tensor<int32, [1]>([-1])];
            tensor<fp16, [256]> vision_model_encoder_layers_9_layer_norm1_weight_to_fp16 = const()[name = tensor<string, []>("vision_model_encoder_layers_9_layer_norm1_weight_to_fp16"), val = tensor<fp16, [256]>(BLOBFILE(path = tensor<string, []>("@model_path/weights/weight.bin"), offset = tensor<uint64, []>(14720896)))];
            tensor<fp16, [256]> vision_model_encoder_layers_9_layer_norm1_bias_to_fp16 = const()[name = tensor<string, []>("vision_model_encoder_layers_9_layer_norm1_bias_to_fp16"), val = tensor<fp16, [256]>(BLOBFILE(path = tensor<string, []>("@model_path/weights/weight.bin"), offset = tensor<uint64, []>(14721472)))];
            tensor<fp16, [1, 197, 256]> hidden_states_55_cast_fp16 = layer_norm(axes = hidden_states_55_axes_0, beta = vision_model_encoder_layers_9_layer_norm1_bias_to_fp16, epsilon = var_9_to_fp16, gamma = vision_model_encoder_layers_9_layer_norm1_weight_to_fp16, x = input_115_cast_fp16)[name = tensor<string, []>("hidden_states_55_cast_fp16")];
            tensor<fp16, [256, 256]> vision_model_encoder_layers_9_self_attn_q_proj_weight_to_fp16 = const()[name = tensor<string, []>("vision_model_encoder_layers_9_self_attn_q_proj_weight_to_fp16"), val = tensor<fp16, [256, 256]>(BLOBFILE(path = tensor<string, []>("@model_path/weights/weight.bin"), offset = tensor<uint64, []>(14722048)))];
            tensor<fp16, [256]> vision_model_encoder_layers_9_self_attn_q_proj_bias_to_fp16 = const()[name = tensor<string, []>("vision_model_encoder_layers_9_self_attn_q_proj_bias_to_fp16"), val = tensor<fp16, [256]>(BLOBFILE(path = tensor<string, []>("@model_path/weights/weight.bin"), offset = tensor<uint64, []>(14853184)))];
            tensor<fp16, [1, 197, 256]> linear_54_cast_fp16 = linear(bias = vision_model_encoder_layers_9_self_attn_q_proj_bias_to_fp16, weight = vision_model_encoder_layers_9_self_attn_q_proj_weight_to_fp16, x = hidden_states_55_cast_fp16)[name = tensor<string, []>("linear_54_cast_fp16")];
            tensor<fp16, [256, 256]> vision_model_encoder_layers_9_self_attn_k_proj_weight_to_fp16 = const()[name = tensor<string, []>("vision_model_encoder_layers_9_self_attn_k_proj_weight_to_fp16"), val = tensor<fp16, [256, 256]>(BLOBFILE(path = tensor<string, []>("@model_path/weights/weight.bin"), offset = tensor<uint64, []>(14853760)))];
            tensor<fp16, [256]> vision_model_encoder_layers_9_self_attn_k_proj_bias_to_fp16 = const()[name = tensor<string, []>("vision_model_encoder_layers_9_self_attn_k_proj_bias_to_fp16"), val = tensor<fp16, [256]>(BLOBFILE(path = tensor<string, []>("@model_path/weights/weight.bin"), offset = tensor<uint64, []>(14984896)))];
            tensor<fp16, [1, 197, 256]> linear_55_cast_fp16 = linear(bias = vision_model_encoder_layers_9_self_attn_k_proj_bias_to_fp16, weight = vision_model_encoder_layers_9_self_attn_k_proj_weight_to_fp16, x = hidden_states_55_cast_fp16)[name = tensor<string, []>("linear_55_cast_fp16")];
            tensor<fp16, [256, 256]> vision_model_encoder_layers_9_self_attn_v_proj_weight_to_fp16 = const()[name = tensor<string, []>("vision_model_encoder_layers_9_self_attn_v_proj_weight_to_fp16"), val = tensor<fp16, [256, 256]>(BLOBFILE(path = tensor<string, []>("@model_path/weights/weight.bin"), offset = tensor<uint64, []>(14985472)))];
            tensor<fp16, [256]> vision_model_encoder_layers_9_self_attn_v_proj_bias_to_fp16 = const()[name = tensor<string, []>("vision_model_encoder_layers_9_self_attn_v_proj_bias_to_fp16"), val = tensor<fp16, [256]>(BLOBFILE(path = tensor<string, []>("@model_path/weights/weight.bin"), offset = tensor<uint64, []>(15116608)))];
            tensor<fp16, [1, 197, 256]> linear_56_cast_fp16 = linear(bias = vision_model_encoder_layers_9_self_attn_v_proj_bias_to_fp16, weight = vision_model_encoder_layers_9_self_attn_v_proj_weight_to_fp16, x = hidden_states_55_cast_fp16)[name = tensor<string, []>("linear_56_cast_fp16")];
            tensor<int32, [4]> var_605 = const()[name = tensor<string, []>("op_605"), val = tensor<int32, [4]>([1, 197, -1, 64])];
            tensor<fp16, [1, 197, 4, 64]> var_606_cast_fp16 = reshape(shape = var_605, x = linear_54_cast_fp16)[name = tensor<string, []>("op_606_cast_fp16")];
            tensor<int32, [4]> var_608 = const()[name = tensor<string, []>("op_608"), val = tensor<int32, [4]>([1, 197, -1, 64])];
            tensor<fp16, [1, 197, 4, 64]> var_609_cast_fp16 = reshape(shape = var_608, x = linear_55_cast_fp16)[name = tensor<string, []>("op_609_cast_fp16")];
            tensor<int32, [4]> var_611 = const()[name = tensor<string, []>("op_611"), val = tensor<int32, [4]>([1, 197, -1, 64])];
            tensor<fp16, [1, 197, 4, 64]> var_612_cast_fp16 = reshape(shape = var_611, x = linear_56_cast_fp16)[name = tensor<string, []>("op_612_cast_fp16")];
            tensor<int32, [4]> value_perm_0 = const()[name = tensor<string, []>("value_perm_0"), val = tensor<int32, [4]>([0, 2, 1, 3])];
            tensor<fp16, [1, 197, 4, 64]> mul_9_cast_fp16 = mul(x = var_606_cast_fp16, y = var_7_to_fp16)[name = tensor<string, []>("mul_9_cast_fp16")];
            tensor<bool, []> matmul_9_transpose_y_0 = const()[name = tensor<string, []>("matmul_9_transpose_y_0"), val = tensor<bool, []>(true)];
            tensor<bool, []> matmul_9_transpose_x_0 = const()[name = tensor<string, []>("matmul_9_transpose_x_0"), val = tensor<bool, []>(false)];
            tensor<int32, [4]> transpose_58_perm_0 = const()[name = tensor<string, []>("transpose_58_perm_0"), val = tensor<int32, [4]>([0, 2, -3, -1])];
            tensor<int32, [4]> transpose_59_perm_0 = const()[name = tensor<string, []>("transpose_59_perm_0"), val = tensor<int32, [4]>([0, 2, -3, -1])];
            tensor<fp16, [1, 4, 197, 64]> transpose_59 = transpose(perm = transpose_59_perm_0, x = var_609_cast_fp16)[name = tensor<string, []>("transpose_61")];
            tensor<fp16, [1, 4, 197, 64]> transpose_58 = transpose(perm = transpose_58_perm_0, x = mul_9_cast_fp16)[name = tensor<string, []>("transpose_62")];
            tensor<fp16, [1, 4, 197, 197]> matmul_9_cast_fp16 = matmul(transpose_x = matmul_9_transpose_x_0, transpose_y = matmul_9_transpose_y_0, x = transpose_58, y = transpose_59)[name = tensor<string, []>("matmul_9_cast_fp16")];
            tensor<int32, []> softmax_9_axis_0 = const()[name = tensor<string, []>("softmax_9_axis_0"), val = tensor<int32, []>(-1)];
            tensor<fp16, [1, 4, 197, 197]> softmax_9_cast_fp16 = softmax(axis = softmax_9_axis_0, x = matmul_9_cast_fp16)[name = tensor<string, []>("softmax_9_cast_fp16")];
            tensor<bool, []> attn_output_37_transpose_x_0 = const()[name = tensor<string, []>("attn_output_37_transpose_x_0"), val = tensor<bool, []>(false)];
            tensor<bool, []> attn_output_37_transpose_y_0 = const()[name = tensor<string, []>("attn_output_37_transpose_y_0"), val = tensor<bool, []>(false)];
            tensor<fp16, [1, 4, 197, 64]> value_cast_fp16 = transpose(perm = value_perm_0, x = var_612_cast_fp16)[name = tensor<string, []>("transpose_63")];
            tensor<fp16, [1, 4, 197, 64]> attn_output_37_cast_fp16 = matmul(transpose_x = attn_output_37_transpose_x_0, transpose_y = attn_output_37_transpose_y_0, x = softmax_9_cast_fp16, y = value_cast_fp16)[name = tensor<string, []>("attn_output_37_cast_fp16")];
            tensor<int32, [4]> var_615_perm_0 = const()[name = tensor<string, []>("op_615_perm_0"), val = tensor<int32, [4]>([0, 2, 1, 3])];
            tensor<int32, [3]> var_617 = const()[name = tensor<string, []>("op_617"), val = tensor<int32, [3]>([1, 197, 256])];
            tensor<fp16, [1, 197, 4, 64]> var_615_cast_fp16 = transpose(perm = var_615_perm_0, x = attn_output_37_cast_fp16)[name = tensor<string, []>("transpose_60")];
            tensor<fp16, [1, 197, 256]> var_618_cast_fp16 = reshape(shape = var_617, x = var_615_cast_fp16)[name = tensor<string, []>("op_618_cast_fp16")];
            tensor<fp16, [256, 256]> vision_model_encoder_layers_9_self_attn_out_proj_weight_to_fp16 = const()[name = tensor<string, []>("vision_model_encoder_layers_9_self_attn_out_proj_weight_to_fp16"), val = tensor<fp16, [256, 256]>(BLOBFILE(path = tensor<string, []>("@model_path/weights/weight.bin"), offset = tensor<uint64, []>(15117184)))];
            tensor<fp16, [256]> vision_model_encoder_layers_9_self_attn_out_proj_bias_to_fp16 = const()[name = tensor<string, []>("vision_model_encoder_layers_9_self_attn_out_proj_bias_to_fp16"), val = tensor<fp16, [256]>(BLOBFILE(path = tensor<string, []>("@model_path/weights/weight.bin"), offset = tensor<uint64, []>(15248320)))];
            tensor<fp16, [1, 197, 256]> linear_57_cast_fp16 = linear(bias = vision_model_encoder_layers_9_self_attn_out_proj_bias_to_fp16, weight = vision_model_encoder_layers_9_self_attn_out_proj_weight_to_fp16, x = var_618_cast_fp16)[name = tensor<string, []>("linear_57_cast_fp16")];
            tensor<fp16, [1, 197, 256]> input_119_cast_fp16 = add(x = input_115_cast_fp16, y = linear_57_cast_fp16)[name = tensor<string, []>("input_119_cast_fp16")];
            tensor<int32, [1]> input_121_axes_0 = const()[name = tensor<string, []>("input_121_axes_0"), val = tensor<int32, [1]>([-1])];
            tensor<fp16, [256]> vision_model_encoder_layers_9_layer_norm2_weight_to_fp16 = const()[name = tensor<string, []>("vision_model_encoder_layers_9_layer_norm2_weight_to_fp16"), val = tensor<fp16, [256]>(BLOBFILE(path = tensor<string, []>("@model_path/weights/weight.bin"), offset = tensor<uint64, []>(15248896)))];
            tensor<fp16, [256]> vision_model_encoder_layers_9_layer_norm2_bias_to_fp16 = const()[name = tensor<string, []>("vision_model_encoder_layers_9_layer_norm2_bias_to_fp16"), val = tensor<fp16, [256]>(BLOBFILE(path = tensor<string, []>("@model_path/weights/weight.bin"), offset = tensor<uint64, []>(15249472)))];
            tensor<fp16, [1, 197, 256]> input_121_cast_fp16 = layer_norm(axes = input_121_axes_0, beta = vision_model_encoder_layers_9_layer_norm2_bias_to_fp16, epsilon = var_9_to_fp16, gamma = vision_model_encoder_layers_9_layer_norm2_weight_to_fp16, x = input_119_cast_fp16)[name = tensor<string, []>("input_121_cast_fp16")];
            tensor<fp16, [1024, 256]> vision_model_encoder_layers_9_mlp_fc1_weight_to_fp16 = const()[name = tensor<string, []>("vision_model_encoder_layers_9_mlp_fc1_weight_to_fp16"), val = tensor<fp16, [1024, 256]>(BLOBFILE(path = tensor<string, []>("@model_path/weights/weight.bin"), offset = tensor<uint64, []>(15250048)))];
            tensor<fp16, [1024]> vision_model_encoder_layers_9_mlp_fc1_bias_to_fp16 = const()[name = tensor<string, []>("vision_model_encoder_layers_9_mlp_fc1_bias_to_fp16"), val = tensor<fp16, [1024]>(BLOBFILE(path = tensor<string, []>("@model_path/weights/weight.bin"), offset = tensor<uint64, []>(15774400)))];
            tensor<fp16, [1, 197, 1024]> linear_58_cast_fp16 = linear(bias = vision_model_encoder_layers_9_mlp_fc1_bias_to_fp16, weight = vision_model_encoder_layers_9_mlp_fc1_weight_to_fp16, x = input_121_cast_fp16)[name = tensor<string, []>("linear_58_cast_fp16")];
            tensor<string, []> input_125_mode_0 = const()[name = tensor<string, []>("input_125_mode_0"), val = tensor<string, []>("EXACT")];
            tensor<fp16, [1, 197, 1024]> input_125_cast_fp16 = gelu(mode = input_125_mode_0, x = linear_58_cast_fp16)[name = tensor<string, []>("input_125_cast_fp16")];
            tensor<fp16, [256, 1024]> vision_model_encoder_layers_9_mlp_fc2_weight_to_fp16 = const()[name = tensor<string, []>("vision_model_encoder_layers_9_mlp_fc2_weight_to_fp16"), val = tensor<fp16, [256, 1024]>(BLOBFILE(path = tensor<string, []>("@model_path/weights/weight.bin"), offset = tensor<uint64, []>(15776512)))];
            tensor<fp16, [256]> vision_model_encoder_layers_9_mlp_fc2_bias_to_fp16 = const()[name = tensor<string, []>("vision_model_encoder_layers_9_mlp_fc2_bias_to_fp16"), val = tensor<fp16, [256]>(BLOBFILE(path = tensor<string, []>("@model_path/weights/weight.bin"), offset = tensor<uint64, []>(16300864)))];
            tensor<fp16, [1, 197, 256]> linear_59_cast_fp16 = linear(bias = vision_model_encoder_layers_9_mlp_fc2_bias_to_fp16, weight = vision_model_encoder_layers_9_mlp_fc2_weight_to_fp16, x = input_125_cast_fp16)[name = tensor<string, []>("linear_59_cast_fp16")];
            tensor<fp16, [1, 197, 256]> last_hidden_state_cast_fp16 = add(x = input_119_cast_fp16, y = linear_59_cast_fp16)[name = tensor<string, []>("last_hidden_state_cast_fp16")];
            tensor<int32, [3]> var_639_begin_0 = const()[name = tensor<string, []>("op_639_begin_0"), val = tensor<int32, [3]>([0, 0, 0])];
            tensor<int32, [3]> var_639_end_0 = const()[name = tensor<string, []>("op_639_end_0"), val = tensor<int32, [3]>([1, 1, 256])];
            tensor<bool, [3]> var_639_end_mask_0 = const()[name = tensor<string, []>("op_639_end_mask_0"), val = tensor<bool, [3]>([true, false, true])];
            tensor<bool, [3]> var_639_squeeze_mask_0 = const()[name = tensor<string, []>("op_639_squeeze_mask_0"), val = tensor<bool, [3]>([false, true, false])];
            tensor<fp16, [1, 256]> var_639_cast_fp16 = slice_by_index(begin = var_639_begin_0, end = var_639_end_0, end_mask = var_639_end_mask_0, squeeze_mask = var_639_squeeze_mask_0, x = last_hidden_state_cast_fp16)[name = tensor<string, []>("op_639_cast_fp16")];
            tensor<int32, [1]> input_axes_0 = const()[name = tensor<string, []>("input_axes_0"), val = tensor<int32, [1]>([-1])];
            tensor<fp16, [256]> vision_model_post_layernorm_weight_to_fp16 = const()[name = tensor<string, []>("vision_model_post_layernorm_weight_to_fp16"), val = tensor<fp16, [256]>(BLOBFILE(path = tensor<string, []>("@model_path/weights/weight.bin"), offset = tensor<uint64, []>(16301440)))];
            tensor<fp16, [256]> vision_model_post_layernorm_bias_to_fp16 = const()[name = tensor<string, []>("vision_model_post_layernorm_bias_to_fp16"), val = tensor<fp16, [256]>(BLOBFILE(path = tensor<string, []>("@model_path/weights/weight.bin"), offset = tensor<uint64, []>(16302016)))];
            tensor<fp16, [1, 256]> input_cast_fp16 = layer_norm(axes = input_axes_0, beta = vision_model_post_layernorm_bias_to_fp16, epsilon = var_9_to_fp16, gamma = vision_model_post_layernorm_weight_to_fp16, x = var_639_cast_fp16)[name = tensor<string, []>("input_cast_fp16")];
            tensor<int32, [1]> var_647 = const()[name = tensor<string, []>("op_647"), val = tensor<int32, [1]>([-1])];
            tensor<bool, []> var_648 = const()[name = tensor<string, []>("op_648"), val = tensor<bool, []>(true)];
            tensor<fp16, [1, 1]> var_650_cast_fp16 = reduce_l2_norm(axes = var_647, keep_dims = var_648, x = input_cast_fp16)[name = tensor<string, []>("op_650_cast_fp16")];
            tensor<fp16, [1, 256]> var_651_cast_fp16 = real_div(x = input_cast_fp16, y = var_650_cast_fp16)[name = tensor<string, []>("op_651_cast_fp16")];
            tensor<string, []> var_651_cast_fp16_to_fp32_dtype_0 = const()[name = tensor<string, []>("op_651_cast_fp16_to_fp32_dtype_0"), val = tensor<string, []>("fp32")];
            tensor<fp32, [1, 256]> var_651 = cast(dtype = var_651_cast_fp16_to_fp32_dtype_0, x = var_651_cast_fp16)[name = tensor<string, []>("cast_45")];
        } -> (var_651);
}