program(1.0)
[buildInfo = dict<tensor<string, []>, tensor<string, []>>({{"coremlc-component-MIL", "3500.14.1"}, {"coremlc-version", "3500.32.1"}, {"coremltools-component-torch", "2.8.0"}, {"coremltools-source-dialect", "TorchScript"}, {"coremltools-version", "8.3.0"}})]
{
    func main<ios15>(tensor<fp32, [1, 3, 640, 640]> image) {
            tensor<int32, []> var_10 = const()[name = tensor<string, []>("op_10"), val = tensor<int32, []>(1)];
            tensor<int32, [4]> var_35_begin_0 = const()[name = tensor<string, []>("op_35_begin_0"), val = tensor<int32, [4]>([0, 0, 0, 0])];
            tensor<int32, [4]> var_35_end_0 = const()[name = tensor<string, []>("op_35_end_0"), val = tensor<int32, [4]>([1, 3, 640, 640])];
            tensor<bool, [4]> var_35_end_mask_0 = const()[name = tensor<string, []>("op_35_end_mask_0"), val = tensor<bool, [4]>([true, true, true, true])];
            tensor<int32, [4]> var_35_stride_0 = const()[name = tensor<string, []>("op_35_stride_0"), val = tensor<int32, [4]>([1, 1, 2, 1])];
            tensor<string, []> image_to_fp16_dtype_0 = const()[name = tensor<string, []>("image_to_fp16_dtype_0"), val = tensor<string, []>("fp16")];
            tensor<fp16, [1, 3, 640, 640]> image_to_fp16 = cast(dtype = image_to_fp16_dtype_0, x = image)[name = tensor<string, []>("cast_7")];
            tensor<fp16, [1, 3, 320, 640]> var_35_cast_fp16 = slice_by_index(begin = var_35_begin_0, end = var_35_end_0, end_mask = var_35_end_mask_0, stride = var_35_stride_0, x = image_to_fp16)[name = tensor<string, []>("op_35_cast_fp16")];
            tensor<int32, [4]> patch_top_left_begin_0 = const()[name = tensor<string, []>("patch_top_left_begin_0"), val = tensor<int32, [4]>([0, 0, 0, 0])];
            tensor<int32, [4]> patch_top_left_end_0 = const()[name = tensor<string, []>("patch_top_left_end_0"), val = tensor<int32, [4]>([1, 3, 320, 640])];
            tensor<bool, [4]> patch_top_left_end_mask_0 = const()[name = tensor<string, []>("patch_top_left_end_mask_0"), val = tensor<bool, [4]>([true, true, true, true])];
            tensor<int32, [4]> patch_top_left_stride_0 = const()[name = tensor<string, []>("patch_top_left_stride_0"), val = tensor<int32, [4]>([1, 1, 1, 2])];
            tensor<fp16, [1, 3, 320, 320]> patch_top_left_cast_fp16 = slice_by_index(begin = patch_top_left_begin_0, end = patch_top_left_end_0, end_mask = patch_top_left_end_mask_0, stride = patch_top_left_stride_0, x = var_35_cast_fp16)[name = tensor<string, []>("patch_top_left_cast_fp16")];
            tensor<int32, [4]> patch_top_right_begin_0 = const()[name = tensor<string, []>("patch_top_right_begin_0"), val = tensor<int32, [4]>([0, 0, 0, 1])];
            tensor<int32, [4]> patch_top_right_end_0 = const()[name = tensor<string, []>("patch_top_right_end_0"), val = tensor<int32, [4]>([1, 3, 320, 640])];
            tensor<bool, [4]> patch_top_right_end_mask_0 = const()[name = tensor<string, []>("patch_top_right_end_mask_0"), val = tensor<bool, [4]>([true, true, true, true])];
            tensor<int32, [4]> patch_top_right_stride_0 = const()[name = tensor<string, []>("patch_top_right_stride_0"), val = tensor<int32, [4]>([1, 1, 1, 2])];
            tensor<fp16, [1, 3, 320, 320]> patch_top_right_cast_fp16 = slice_by_index(begin = patch_top_right_begin_0, end = patch_top_right_end_0, end_mask = patch_top_right_end_mask_0, stride = patch_top_right_stride_0, x = var_35_cast_fp16)[name = tensor<string, []>("patch_top_right_cast_fp16")];
            tensor<int32, [4]> var_39_begin_0 = const()[name = tensor<string, []>("op_39_begin_0"), val = tensor<int32, [4]>([0, 0, 1, 0])];
            tensor<int32, [4]> var_39_end_0 = const()[name = tensor<string, []>("op_39_end_0"), val = tensor<int32, [4]>([1, 3, 640, 640])];
            tensor<bool, [4]> var_39_end_mask_0 = const()[name = tensor<string, []>("op_39_end_mask_0"), val = tensor<bool, [4]>([true, true, true, true])];
            tensor<int32, [4]> var_39_stride_0 = const()[name = tensor<string, []>("op_39_stride_0"), val = tensor<int32, [4]>([1, 1, 2, 1])];
            tensor<fp16, [1, 3, 320, 640]> var_39_cast_fp16 = slice_by_index(begin = var_39_begin_0, end = var_39_end_0, end_mask = var_39_end_mask_0, stride = var_39_stride_0, x = image_to_fp16)[name = tensor<string, []>("op_39_cast_fp16")];
            tensor<int32, [4]> patch_bot_left_begin_0 = const()[name = tensor<string, []>("patch_bot_left_begin_0"), val = tensor<int32, [4]>([0, 0, 0, 0])];
            tensor<int32, [4]> patch_bot_left_end_0 = const()[name = tensor<string, []>("patch_bot_left_end_0"), val = tensor<int32, [4]>([1, 3, 320, 640])];
            tensor<bool, [4]> patch_bot_left_end_mask_0 = const()[name = tensor<string, []>("patch_bot_left_end_mask_0"), val = tensor<bool, [4]>([true, true, true, true])];
            tensor<int32, [4]> patch_bot_left_stride_0 = const()[name = tensor<string, []>("patch_bot_left_stride_0"), val = tensor<int32, [4]>([1, 1, 1, 2])];
            tensor<fp16, [1, 3, 320, 320]> patch_bot_left_cast_fp16 = slice_by_index(begin = patch_bot_left_begin_0, end = patch_bot_left_end_0, end_mask = patch_bot_left_end_mask_0, stride = patch_bot_left_stride_0, x = var_39_cast_fp16)[name = tensor<string, []>("patch_bot_left_cast_fp16")];
            tensor<int32, [4]> patch_bot_right_begin_0 = const()[name = tensor<string, []>("patch_bot_right_begin_0"), val = tensor<int32, [4]>([0, 0, 0, 1])];
            tensor<int32, [4]> patch_bot_right_end_0 = const()[name = tensor<string, []>("patch_bot_right_end_0"), val = tensor<int32, [4]>([1, 3, 320, 640])];
            tensor<bool, [4]> patch_bot_right_end_mask_0 = const()[name = tensor<string, []>("patch_bot_right_end_mask_0"), val = tensor<bool, [4]>([true, true, true, true])];
            tensor<int32, [4]> patch_bot_right_stride_0 = const()[name = tensor<string, []>("patch_bot_right_stride_0"), val = tensor<int32, [4]>([1, 1, 1, 2])];
            tensor<fp16, [1, 3, 320, 320]> patch_bot_right_cast_fp16 = slice_by_index(begin = patch_bot_right_begin_0, end = patch_bot_right_end_0, end_mask = patch_bot_right_end_mask_0, stride = patch_bot_right_stride_0, x = var_39_cast_fp16)[name = tensor<string, []>("patch_bot_right_cast_fp16")];
            tensor<bool, []> input_1_interleave_0 = const()[name = tensor<string, []>("input_1_interleave_0"), val = tensor<bool, []>(false)];
            tensor<fp16, [1, 12, 320, 320]> input_1_cast_fp16 = concat(axis = var_10, interleave = input_1_interleave_0, values = (patch_top_left_cast_fp16, patch_bot_left_cast_fp16, patch_top_right_cast_fp16, patch_bot_right_cast_fp16))[name = tensor<string, []>("input_1_cast_fp16")];
            tensor<string, []> input_3_pad_type_0 = const()[name = tensor<string, []>("input_3_pad_type_0"), val = tensor<string, []>("custom")];
            tensor<int32, [4]> input_3_pad_0 = const()[name = tensor<string, []>("input_3_pad_0"), val = tensor<int32, [4]>([1, 1, 1, 1])];
            tensor<int32, [2]> input_3_strides_0 = const()[name = tensor<string, []>("input_3_strides_0"), val = tensor<int32, [2]>([1, 1])];
            tensor<int32, [2]> input_3_dilations_0 = const()[name = tensor<string, []>("input_3_dilations_0"), val = tensor<int32, [2]>([1, 1])];
            tensor<int32, []> input_3_groups_0 = const()[name = tensor<string, []>("input_3_groups_0"), val = tensor<int32, []>(1)];
            tensor<fp16, [32, 12, 3, 3]> const_26_to_fp16 = const()[name = tensor<string, []>("const_26_to_fp16"), val = tensor<fp16, [32, 12, 3, 3]>(BLOBFILE(path = tensor<string, []>("@model_path/weights/weight.bin"), offset = tensor<uint64, []>(64)))];
            tensor<fp16, [32]> const_27_to_fp16 = const()[name = tensor<string, []>("const_27_to_fp16"), val = tensor<fp16, [32]>(BLOBFILE(path = tensor<string, []>("@model_path/weights/weight.bin"), offset = tensor<uint64, []>(7040)))];
            tensor<fp16, [1, 32, 320, 320]> input_5_cast_fp16 = conv(bias = const_27_to_fp16, dilations = input_3_dilations_0, groups = input_3_groups_0, pad = input_3_pad_0, pad_type = input_3_pad_type_0, strides = input_3_strides_0, weight = const_26_to_fp16, x = input_1_cast_fp16)[name = tensor<string, []>("input_5_cast_fp16")];
            tensor<fp16, [1, 32, 320, 320]> input_7_cast_fp16 = silu(x = input_5_cast_fp16)[name = tensor<string, []>("input_7_cast_fp16")];
            tensor<string, []> input_9_pad_type_0 = const()[name = tensor<string, []>("input_9_pad_type_0"), val = tensor<string, []>("custom")];
            tensor<int32, [4]> input_9_pad_0 = const()[name = tensor<string, []>("input_9_pad_0"), val = tensor<int32, [4]>([1, 1, 1, 1])];
            tensor<int32, [2]> input_9_strides_0 = const()[name = tensor<string, []>("input_9_strides_0"), val = tensor<int32, [2]>([2, 2])];
            tensor<int32, [2]> input_9_dilations_0 = const()[name = tensor<string, []>("input_9_dilations_0"), val = tensor<int32, [2]>([1, 1])];
            tensor<int32, []> input_9_groups_0 = const()[name = tensor<string, []>("input_9_groups_0"), val = tensor<int32, []>(1)];
            tensor<fp16, [64, 32, 3, 3]> const_28_to_fp16 = const()[name = tensor<string, []>("const_28_to_fp16"), val = tensor<fp16, [64, 32, 3, 3]>(BLOBFILE(path = tensor<string, []>("@model_path/weights/weight.bin"), offset = tensor<uint64, []>(7168)))];
            tensor<fp16, [64]> const_29_to_fp16 = const()[name = tensor<string, []>("const_29_to_fp16"), val = tensor<fp16, [64]>(BLOBFILE(path = tensor<string, []>("@model_path/weights/weight.bin"), offset = tensor<uint64, []>(44096)))];
            tensor<fp16, [1, 64, 160, 160]> input_11_cast_fp16 = conv(bias = const_29_to_fp16, dilations = input_9_dilations_0, groups = input_9_groups_0, pad = input_9_pad_0, pad_type = input_9_pad_type_0, strides = input_9_strides_0, weight = const_28_to_fp16, x = input_7_cast_fp16)[name = tensor<string, []>("input_11_cast_fp16")];
            tensor<fp16, [1, 64, 160, 160]> input_13_cast_fp16 = silu(x = input_11_cast_fp16)[name = tensor<string, []>("input_13_cast_fp16")];
            tensor<string, []> input_15_pad_type_0 = const()[name = tensor<string, []>("input_15_pad_type_0"), val = tensor<string, []>("valid")];
            tensor<int32, [2]> input_15_strides_0 = const()[name = tensor<string, []>("input_15_strides_0"), val = tensor<int32, [2]>([1, 1])];
            tensor<int32, [4]> input_15_pad_0 = const()[name = tensor<string, []>("input_15_pad_0"), val = tensor<int32, [4]>([0, 0, 0, 0])];
            tensor<int32, [2]> input_15_dilations_0 = const()[name = tensor<string, []>("input_15_dilations_0"), val = tensor<int32, [2]>([1, 1])];
            tensor<int32, []> input_15_groups_0 = const()[name = tensor<string, []>("input_15_groups_0"), val = tensor<int32, []>(1)];
            tensor<fp16, [32, 64, 1, 1]> const_30_to_fp16 = const()[name = tensor<string, []>("const_30_to_fp16"), val = tensor<fp16, [32, 64, 1, 1]>(BLOBFILE(path = tensor<string, []>("@model_path/weights/weight.bin"), offset = tensor<uint64, []>(44288)))];
            tensor<fp16, [32]> const_31_to_fp16 = const()[name = tensor<string, []>("const_31_to_fp16"), val = tensor<fp16, [32]>(BLOBFILE(path = tensor<string, []>("@model_path/weights/weight.bin"), offset = tensor<uint64, []>(48448)))];
            tensor<fp16, [1, 32, 160, 160]> input_17_cast_fp16 = conv(bias = const_31_to_fp16, dilations = input_15_dilations_0, groups = input_15_groups_0, pad = input_15_pad_0, pad_type = input_15_pad_type_0, strides = input_15_strides_0, weight = const_30_to_fp16, x = input_13_cast_fp16)[name = tensor<string, []>("input_17_cast_fp16")];
            tensor<fp16, [1, 32, 160, 160]> input_23_cast_fp16 = silu(x = input_17_cast_fp16)[name = tensor<string, []>("input_23_cast_fp16")];
            tensor<string, []> input_19_pad_type_0 = const()[name = tensor<string, []>("input_19_pad_type_0"), val = tensor<string, []>("valid")];
            tensor<int32, [2]> input_19_strides_0 = const()[name = tensor<string, []>("input_19_strides_0"), val = tensor<int32, [2]>([1, 1])];
            tensor<int32, [4]> input_19_pad_0 = const()[name = tensor<string, []>("input_19_pad_0"), val = tensor<int32, [4]>([0, 0, 0, 0])];
            tensor<int32, [2]> input_19_dilations_0 = const()[name = tensor<string, []>("input_19_dilations_0"), val = tensor<int32, [2]>([1, 1])];
            tensor<int32, []> input_19_groups_0 = const()[name = tensor<string, []>("input_19_groups_0"), val = tensor<int32, []>(1)];
            tensor<fp16, [32, 64, 1, 1]> const_32_to_fp16 = const()[name = tensor<string, []>("const_32_to_fp16"), val = tensor<fp16, [32, 64, 1, 1]>(BLOBFILE(path = tensor<string, []>("@model_path/weights/weight.bin"), offset = tensor<uint64, []>(48576)))];
            tensor<fp16, [32]> const_33_to_fp16 = const()[name = tensor<string, []>("const_33_to_fp16"), val = tensor<fp16, [32]>(BLOBFILE(path = tensor<string, []>("@model_path/weights/weight.bin"), offset = tensor<uint64, []>(52736)))];
            tensor<fp16, [1, 32, 160, 160]> input_21_cast_fp16 = conv(bias = const_33_to_fp16, dilations = input_19_dilations_0, groups = input_19_groups_0, pad = input_19_pad_0, pad_type = input_19_pad_type_0, strides = input_19_strides_0, weight = const_32_to_fp16, x = input_13_cast_fp16)[name = tensor<string, []>("input_21_cast_fp16")];
            tensor<fp16, [1, 32, 160, 160]> x_2_1_cast_fp16 = silu(x = input_21_cast_fp16)[name = tensor<string, []>("x_2_1_cast_fp16")];
            tensor<string, []> input_25_pad_type_0 = const()[name = tensor<string, []>("input_25_pad_type_0"), val = tensor<string, []>("valid")];
            tensor<int32, [2]> input_25_strides_0 = const()[name = tensor<string, []>("input_25_strides_0"), val = tensor<int32, [2]>([1, 1])];
            tensor<int32, [4]> input_25_pad_0 = const()[name = tensor<string, []>("input_25_pad_0"), val = tensor<int32, [4]>([0, 0, 0, 0])];
            tensor<int32, [2]> input_25_dilations_0 = const()[name = tensor<string, []>("input_25_dilations_0"), val = tensor<int32, [2]>([1, 1])];
            tensor<int32, []> input_25_groups_0 = const()[name = tensor<string, []>("input_25_groups_0"), val = tensor<int32, []>(1)];
            tensor<fp16, [32, 32, 1, 1]> const_34_to_fp16 = const()[name = tensor<string, []>("const_34_to_fp16"), val = tensor<fp16, [32, 32, 1, 1]>(BLOBFILE(path = tensor<string, []>("@model_path/weights/weight.bin"), offset = tensor<uint64, []>(52864)))];
            tensor<fp16, [32]> const_35_to_fp16 = const()[name = tensor<string, []>("const_35_to_fp16"), val = tensor<fp16, [32]>(BLOBFILE(path = tensor<string, []>("@model_path/weights/weight.bin"), offset = tensor<uint64, []>(54976)))];
            tensor<fp16, [1, 32, 160, 160]> input_27_cast_fp16 = conv(bias = const_35_to_fp16, dilations = input_25_dilations_0, groups = input_25_groups_0, pad = input_25_pad_0, pad_type = input_25_pad_type_0, strides = input_25_strides_0, weight = const_34_to_fp16, x = input_23_cast_fp16)[name = tensor<string, []>("input_27_cast_fp16")];
            tensor<fp16, [1, 32, 160, 160]> input_29_cast_fp16 = silu(x = input_27_cast_fp16)[name = tensor<string, []>("input_29_cast_fp16")];
            tensor<string, []> input_31_pad_type_0 = const()[name = tensor<string, []>("input_31_pad_type_0"), val = tensor<string, []>("custom")];
            tensor<int32, [4]> input_31_pad_0 = const()[name = tensor<string, []>("input_31_pad_0"), val = tensor<int32, [4]>([1, 1, 1, 1])];
            tensor<int32, [2]> input_31_strides_0 = const()[name = tensor<string, []>("input_31_strides_0"), val = tensor<int32, [2]>([1, 1])];
            tensor<int32, [2]> input_31_dilations_0 = const()[name = tensor<string, []>("input_31_dilations_0"), val = tensor<int32, [2]>([1, 1])];
            tensor<int32, []> input_31_groups_0 = const()[name = tensor<string, []>("input_31_groups_0"), val = tensor<int32, []>(1)];
            tensor<fp16, [32, 32, 3, 3]> const_36_to_fp16 = const()[name = tensor<string, []>("const_36_to_fp16"), val = tensor<fp16, [32, 32, 3, 3]>(BLOBFILE(path = tensor<string, []>("@model_path/weights/weight.bin"), offset = tensor<uint64, []>(55104)))];
            tensor<fp16, [32]> const_37_to_fp16 = const()[name = tensor<string, []>("const_37_to_fp16"), val = tensor<fp16, [32]>(BLOBFILE(path = tensor<string, []>("@model_path/weights/weight.bin"), offset = tensor<uint64, []>(73600)))];
            tensor<fp16, [1, 32, 160, 160]> input_33_cast_fp16 = conv(bias = const_37_to_fp16, dilations = input_31_dilations_0, groups = input_31_groups_0, pad = input_31_pad_0, pad_type = input_31_pad_type_0, strides = input_31_strides_0, weight = const_36_to_fp16, x = input_29_cast_fp16)[name = tensor<string, []>("input_33_cast_fp16")];
            tensor<fp16, [1, 32, 160, 160]> y_1_cast_fp16 = silu(x = input_33_cast_fp16)[name = tensor<string, []>("y_1_cast_fp16")];
            tensor<fp16, [1, 32, 160, 160]> x_1_1_cast_fp16 = add(x = y_1_cast_fp16, y = input_23_cast_fp16)[name = tensor<string, []>("x_1_1_cast_fp16")];
            tensor<bool, []> input_35_interleave_0 = const()[name = tensor<string, []>("input_35_interleave_0"), val = tensor<bool, []>(false)];
            tensor<fp16, [1, 64, 160, 160]> input_35_cast_fp16 = concat(axis = var_10, interleave = input_35_interleave_0, values = (x_1_1_cast_fp16, x_2_1_cast_fp16))[name = tensor<string, []>("input_35_cast_fp16")];
            tensor<string, []> input_37_pad_type_0 = const()[name = tensor<string, []>("input_37_pad_type_0"), val = tensor<string, []>("valid")];
            tensor<int32, [2]> input_37_strides_0 = const()[name = tensor<string, []>("input_37_strides_0"), val = tensor<int32, [2]>([1, 1])];
            tensor<int32, [4]> input_37_pad_0 = const()[name = tensor<string, []>("input_37_pad_0"), val = tensor<int32, [4]>([0, 0, 0, 0])];
            tensor<int32, [2]> input_37_dilations_0 = const()[name = tensor<string, []>("input_37_dilations_0"), val = tensor<int32, [2]>([1, 1])];
            tensor<int32, []> input_37_groups_0 = const()[name = tensor<string, []>("input_37_groups_0"), val = tensor<int32, []>(1)];
            tensor<fp16, [64, 64, 1, 1]> const_38_to_fp16 = const()[name = tensor<string, []>("const_38_to_fp16"), val = tensor<fp16, [64, 64, 1, 1]>(BLOBFILE(path = tensor<string, []>("@model_path/weights/weight.bin"), offset = tensor<uint64, []>(73728)))];
            tensor<fp16, [64]> const_39_to_fp16 = const()[name = tensor<string, []>("const_39_to_fp16"), val = tensor<fp16, [64]>(BLOBFILE(path = tensor<string, []>("@model_path/weights/weight.bin"), offset = tensor<uint64, []>(81984)))];
            tensor<fp16, [1, 64, 160, 160]> input_39_cast_fp16 = conv(bias = const_39_to_fp16, dilations = input_37_dilations_0, groups = input_37_groups_0, pad = input_37_pad_0, pad_type = input_37_pad_type_0, strides = input_37_strides_0, weight = const_38_to_fp16, x = input_35_cast_fp16)[name = tensor<string, []>("input_39_cast_fp16")];
            tensor<fp16, [1, 64, 160, 160]> input_41_cast_fp16 = silu(x = input_39_cast_fp16)[name = tensor<string, []>("input_41_cast_fp16")];
            tensor<string, []> input_43_pad_type_0 = const()[name = tensor<string, []>("input_43_pad_type_0"), val = tensor<string, []>("custom")];
            tensor<int32, [4]> input_43_pad_0 = const()[name = tensor<string, []>("input_43_pad_0"), val = tensor<int32, [4]>([1, 1, 1, 1])];
            tensor<int32, [2]> input_43_strides_0 = const()[name = tensor<string, []>("input_43_strides_0"), val = tensor<int32, [2]>([2, 2])];
            tensor<int32, [2]> input_43_dilations_0 = const()[name = tensor<string, []>("input_43_dilations_0"), val = tensor<int32, [2]>([1, 1])];
            tensor<int32, []> input_43_groups_0 = const()[name = tensor<string, []>("input_43_groups_0"), val = tensor<int32, []>(1)];
            tensor<fp16, [128, 64, 3, 3]> const_40_to_fp16 = const()[name = tensor<string, []>("const_40_to_fp16"), val = tensor<fp16, [128, 64, 3, 3]>(BLOBFILE(path = tensor<string, []>("@model_path/weights/weight.bin"), offset = tensor<uint64, []>(82176)))];
            tensor<fp16, [128]> const_41_to_fp16 = const()[name = tensor<string, []>("const_41_to_fp16"), val = tensor<fp16, [128]>(BLOBFILE(path = tensor<string, []>("@model_path/weights/weight.bin"), offset = tensor<uint64, []>(229696)))];
            tensor<fp16, [1, 128, 80, 80]> input_45_cast_fp16 = conv(bias = const_41_to_fp16, dilations = input_43_dilations_0, groups = input_43_groups_0, pad = input_43_pad_0, pad_type = input_43_pad_type_0, strides = input_43_strides_0, weight = const_40_to_fp16, x = input_41_cast_fp16)[name = tensor<string, []>("input_45_cast_fp16")];
            tensor<fp16, [1, 128, 80, 80]> input_47_cast_fp16 = silu(x = input_45_cast_fp16)[name = tensor<string, []>("input_47_cast_fp16")];
            tensor<string, []> input_49_pad_type_0 = const()[name = tensor<string, []>("input_49_pad_type_0"), val = tensor<string, []>("valid")];
            tensor<int32, [2]> input_49_strides_0 = const()[name = tensor<string, []>("input_49_strides_0"), val = tensor<int32, [2]>([1, 1])];
            tensor<int32, [4]> input_49_pad_0 = const()[name = tensor<string, []>("input_49_pad_0"), val = tensor<int32, [4]>([0, 0, 0, 0])];
            tensor<int32, [2]> input_49_dilations_0 = const()[name = tensor<string, []>("input_49_dilations_0"), val = tensor<int32, [2]>([1, 1])];
            tensor<int32, []> input_49_groups_0 = const()[name = tensor<string, []>("input_49_groups_0"), val = tensor<int32, []>(1)];
            tensor<fp16, [64, 128, 1, 1]> const_42_to_fp16 = const()[name = tensor<string, []>("const_42_to_fp16"), val = tensor<fp16, [64, 128, 1, 1]>(BLOBFILE(path = tensor<string, []>("@model_path/weights/weight.bin"), offset = tensor<uint64, []>(230016)))];
            tensor<fp16, [64]> const_43_to_fp16 = const()[name = tensor<string, []>("const_43_to_fp16"), val = tensor<fp16, [64]>(BLOBFILE(path = tensor<string, []>("@model_path/weights/weight.bin"), offset = tensor<uint64, []>(246464)))];
            tensor<fp16, [1, 64, 80, 80]> input_51_cast_fp16 = conv(bias = const_43_to_fp16, dilations = input_49_dilations_0, groups = input_49_groups_0, pad = input_49_pad_0, pad_type = input_49_pad_type_0, strides = input_49_strides_0, weight = const_42_to_fp16, x = input_47_cast_fp16)[name = tensor<string, []>("input_51_cast_fp16")];
            tensor<fp16, [1, 64, 80, 80]> input_57_cast_fp16 = silu(x = input_51_cast_fp16)[name = tensor<string, []>("input_57_cast_fp16")];
            tensor<string, []> input_53_pad_type_0 = const()[name = tensor<string, []>("input_53_pad_type_0"), val = tensor<string, []>("valid")];
            tensor<int32, [2]> input_53_strides_0 = const()[name = tensor<string, []>("input_53_strides_0"), val = tensor<int32, [2]>([1, 1])];
            tensor<int32, [4]> input_53_pad_0 = const()[name = tensor<string, []>("input_53_pad_0"), val = tensor<int32, [4]>([0, 0, 0, 0])];
            tensor<int32, [2]> input_53_dilations_0 = const()[name = tensor<string, []>("input_53_dilations_0"), val = tensor<int32, [2]>([1, 1])];
            tensor<int32, []> input_53_groups_0 = const()[name = tensor<string, []>("input_53_groups_0"), val = tensor<int32, []>(1)];
            tensor<fp16, [64, 128, 1, 1]> const_44_to_fp16 = const()[name = tensor<string, []>("const_44_to_fp16"), val = tensor<fp16, [64, 128, 1, 1]>(BLOBFILE(path = tensor<string, []>("@model_path/weights/weight.bin"), offset = tensor<uint64, []>(246656)))];
            tensor<fp16, [64]> const_45_to_fp16 = const()[name = tensor<string, []>("const_45_to_fp16"), val = tensor<fp16, [64]>(BLOBFILE(path = tensor<string, []>("@model_path/weights/weight.bin"), offset = tensor<uint64, []>(263104)))];
            tensor<fp16, [1, 64, 80, 80]> input_55_cast_fp16 = conv(bias = const_45_to_fp16, dilations = input_53_dilations_0, groups = input_53_groups_0, pad = input_53_pad_0, pad_type = input_53_pad_type_0, strides = input_53_strides_0, weight = const_44_to_fp16, x = input_47_cast_fp16)[name = tensor<string, []>("input_55_cast_fp16")];
            tensor<fp16, [1, 64, 80, 80]> x_2_3_cast_fp16 = silu(x = input_55_cast_fp16)[name = tensor<string, []>("x_2_3_cast_fp16")];
            tensor<string, []> input_59_pad_type_0 = const()[name = tensor<string, []>("input_59_pad_type_0"), val = tensor<string, []>("valid")];
            tensor<int32, [2]> input_59_strides_0 = const()[name = tensor<string, []>("input_59_strides_0"), val = tensor<int32, [2]>([1, 1])];
            tensor<int32, [4]> input_59_pad_0 = const()[name = tensor<string, []>("input_59_pad_0"), val = tensor<int32, [4]>([0, 0, 0, 0])];
            tensor<int32, [2]> input_59_dilations_0 = const()[name = tensor<string, []>("input_59_dilations_0"), val = tensor<int32, [2]>([1, 1])];
            tensor<int32, []> input_59_groups_0 = const()[name = tensor<string, []>("input_59_groups_0"), val = tensor<int32, []>(1)];
            tensor<fp16, [64, 64, 1, 1]> const_46_to_fp16 = const()[name = tensor<string, []>("const_46_to_fp16"), val = tensor<fp16, [64, 64, 1, 1]>(BLOBFILE(path = tensor<string, []>("@model_path/weights/weight.bin"), offset = tensor<uint64, []>(263296)))];
            tensor<fp16, [64]> const_47_to_fp16 = const()[name = tensor<string, []>("const_47_to_fp16"), val = tensor<fp16, [64]>(BLOBFILE(path = tensor<string, []>("@model_path/weights/weight.bin"), offset = tensor<uint64, []>(271552)))];
            tensor<fp16, [1, 64, 80, 80]> input_61_cast_fp16 = conv(bias = const_47_to_fp16, dilations = input_59_dilations_0, groups = input_59_groups_0, pad = input_59_pad_0, pad_type = input_59_pad_type_0, strides = input_59_strides_0, weight = const_46_to_fp16, x = input_57_cast_fp16)[name = tensor<string, []>("input_61_cast_fp16")];
            tensor<fp16, [1, 64, 80, 80]> input_63_cast_fp16 = silu(x = input_61_cast_fp16)[name = tensor<string, []>("input_63_cast_fp16")];
            tensor<string, []> input_65_pad_type_0 = const()[name = tensor<string, []>("input_65_pad_type_0"), val = tensor<string, []>("custom")];
            tensor<int32, [4]> input_65_pad_0 = const()[name = tensor<string, []>("input_65_pad_0"), val = tensor<int32, [4]>([1, 1, 1, 1])];
            tensor<int32, [2]> input_65_strides_0 = const()[name = tensor<string, []>("input_65_strides_0"), val = tensor<int32, [2]>([1, 1])];
            tensor<int32, [2]> input_65_dilations_0 = const()[name = tensor<string, []>("input_65_dilations_0"), val = tensor<int32, [2]>([1, 1])];
            tensor<int32, []> input_65_groups_0 = const()[name = tensor<string, []>("input_65_groups_0"), val = tensor<int32, []>(1)];
            tensor<fp16, [64, 64, 3, 3]> const_48_to_fp16 = const()[name = tensor<string, []>("const_48_to_fp16"), val = tensor<fp16, [64, 64, 3, 3]>(BLOBFILE(path = tensor<string, []>("@model_path/weights/weight.bin"), offset = tensor<uint64, []>(271744)))];
            tensor<fp16, [64]> const_49_to_fp16 = const()[name = tensor<string, []>("const_49_to_fp16"), val = tensor<fp16, [64]>(BLOBFILE(path = tensor<string, []>("@model_path/weights/weight.bin"), offset = tensor<uint64, []>(345536)))];
            tensor<fp16, [1, 64, 80, 80]> input_67_cast_fp16 = conv(bias = const_49_to_fp16, dilations = input_65_dilations_0, groups = input_65_groups_0, pad = input_65_pad_0, pad_type = input_65_pad_type_0, strides = input_65_strides_0, weight = const_48_to_fp16, x = input_63_cast_fp16)[name = tensor<string, []>("input_67_cast_fp16")];
            tensor<fp16, [1, 64, 80, 80]> y_3_cast_fp16 = silu(x = input_67_cast_fp16)[name = tensor<string, []>("y_3_cast_fp16")];
            tensor<fp16, [1, 64, 80, 80]> input_69_cast_fp16 = add(x = y_3_cast_fp16, y = input_57_cast_fp16)[name = tensor<string, []>("input_69_cast_fp16")];
            tensor<string, []> input_71_pad_type_0 = const()[name = tensor<string, []>("input_71_pad_type_0"), val = tensor<string, []>("valid")];
            tensor<int32, [2]> input_71_strides_0 = const()[name = tensor<string, []>("input_71_strides_0"), val = tensor<int32, [2]>([1, 1])];
            tensor<int32, [4]> input_71_pad_0 = const()[name = tensor<string, []>("input_71_pad_0"), val = tensor<int32, [4]>([0, 0, 0, 0])];
            tensor<int32, [2]> input_71_dilations_0 = const()[name = tensor<string, []>("input_71_dilations_0"), val = tensor<int32, [2]>([1, 1])];
            tensor<int32, []> input_71_groups_0 = const()[name = tensor<string, []>("input_71_groups_0"), val = tensor<int32, []>(1)];
            tensor<fp16, [64, 64, 1, 1]> const_50_to_fp16 = const()[name = tensor<string, []>("const_50_to_fp16"), val = tensor<fp16, [64, 64, 1, 1]>(BLOBFILE(path = tensor<string, []>("@model_path/weights/weight.bin"), offset = tensor<uint64, []>(345728)))];
            tensor<fp16, [64]> const_51_to_fp16 = const()[name = tensor<string, []>("const_51_to_fp16"), val = tensor<fp16, [64]>(BLOBFILE(path = tensor<string, []>("@model_path/weights/weight.bin"), offset = tensor<uint64, []>(353984)))];
            tensor<fp16, [1, 64, 80, 80]> input_73_cast_fp16 = conv(bias = const_51_to_fp16, dilations = input_71_dilations_0, groups = input_71_groups_0, pad = input_71_pad_0, pad_type = input_71_pad_type_0, strides = input_71_strides_0, weight = const_50_to_fp16, x = input_69_cast_fp16)[name = tensor<string, []>("input_73_cast_fp16")];
            tensor<fp16, [1, 64, 80, 80]> input_75_cast_fp16 = silu(x = input_73_cast_fp16)[name = tensor<string, []>("input_75_cast_fp16")];
            tensor<string, []> input_77_pad_type_0 = const()[name = tensor<string, []>("input_77_pad_type_0"), val = tensor<string, []>("custom")];
            tensor<int32, [4]> input_77_pad_0 = const()[name = tensor<string, []>("input_77_pad_0"), val = tensor<int32, [4]>([1, 1, 1, 1])];
            tensor<int32, [2]> input_77_strides_0 = const()[name = tensor<string, []>("input_77_strides_0"), val = tensor<int32, [2]>([1, 1])];
            tensor<int32, [2]> input_77_dilations_0 = const()[name = tensor<string, []>("input_77_dilations_0"), val = tensor<int32, [2]>([1, 1])];
            tensor<int32, []> input_77_groups_0 = const()[name = tensor<string, []>("input_77_groups_0"), val = tensor<int32, []>(1)];
            tensor<fp16, [64, 64, 3, 3]> const_52_to_fp16 = const()[name = tensor<string, []>("const_52_to_fp16"), val = tensor<fp16, [64, 64, 3, 3]>(BLOBFILE(path = tensor<string, []>("@model_path/weights/weight.bin"), offset = tensor<uint64, []>(354176)))];
            tensor<fp16, [64]> const_53_to_fp16 = const()[name = tensor<string, []>("const_53_to_fp16"), val = tensor<fp16, [64]>(BLOBFILE(path = tensor<string, []>("@model_path/weights/weight.bin"), offset = tensor<uint64, []>(427968)))];
            tensor<fp16, [1, 64, 80, 80]> input_79_cast_fp16 = conv(bias = const_53_to_fp16, dilations = input_77_dilations_0, groups = input_77_groups_0, pad = input_77_pad_0, pad_type = input_77_pad_type_0, strides = input_77_strides_0, weight = const_52_to_fp16, x = input_75_cast_fp16)[name = tensor<string, []>("input_79_cast_fp16")];
            tensor<fp16, [1, 64, 80, 80]> y_5_cast_fp16 = silu(x = input_79_cast_fp16)[name = tensor<string, []>("y_5_cast_fp16")];
            tensor<fp16, [1, 64, 80, 80]> input_81_cast_fp16 = add(x = y_5_cast_fp16, y = input_69_cast_fp16)[name = tensor<string, []>("input_81_cast_fp16")];
            tensor<string, []> input_83_pad_type_0 = const()[name = tensor<string, []>("input_83_pad_type_0"), val = tensor<string, []>("valid")];
            tensor<int32, [2]> input_83_strides_0 = const()[name = tensor<string, []>("input_83_strides_0"), val = tensor<int32, [2]>([1, 1])];
            tensor<int32, [4]> input_83_pad_0 = const()[name = tensor<string, []>("input_83_pad_0"), val = tensor<int32, [4]>([0, 0, 0, 0])];
            tensor<int32, [2]> input_83_dilations_0 = const()[name = tensor<string, []>("input_83_dilations_0"), val = tensor<int32, [2]>([1, 1])];
            tensor<int32, []> input_83_groups_0 = const()[name = tensor<string, []>("input_83_groups_0"), val = tensor<int32, []>(1)];
            tensor<fp16, [64, 64, 1, 1]> const_54_to_fp16 = const()[name = tensor<string, []>("const_54_to_fp16"), val = tensor<fp16, [64, 64, 1, 1]>(BLOBFILE(path = tensor<string, []>("@model_path/weights/weight.bin"), offset = tensor<uint64, []>(428160)))];
            tensor<fp16, [64]> const_55_to_fp16 = const()[name = tensor<string, []>("const_55_to_fp16"), val = tensor<fp16, [64]>(BLOBFILE(path = tensor<string, []>("@model_path/weights/weight.bin"), offset = tensor<uint64, []>(436416)))];
            tensor<fp16, [1, 64, 80, 80]> input_85_cast_fp16 = conv(bias = const_55_to_fp16, dilations = input_83_dilations_0, groups = input_83_groups_0, pad = input_83_pad_0, pad_type = input_83_pad_type_0, strides = input_83_strides_0, weight = const_54_to_fp16, x = input_81_cast_fp16)[name = tensor<string, []>("input_85_cast_fp16")];
            tensor<fp16, [1, 64, 80, 80]> input_87_cast_fp16 = silu(x = input_85_cast_fp16)[name = tensor<string, []>("input_87_cast_fp16")];
            tensor<string, []> input_89_pad_type_0 = const()[name = tensor<string, []>("input_89_pad_type_0"), val = tensor<string, []>("custom")];
            tensor<int32, [4]> input_89_pad_0 = const()[name = tensor<string, []>("input_89_pad_0"), val = tensor<int32, [4]>([1, 1, 1, 1])];
            tensor<int32, [2]> input_89_strides_0 = const()[name = tensor<string, []>("input_89_strides_0"), val = tensor<int32, [2]>([1, 1])];
            tensor<int32, [2]> input_89_dilations_0 = const()[name = tensor<string, []>("input_89_dilations_0"), val = tensor<int32, [2]>([1, 1])];
            tensor<int32, []> input_89_groups_0 = const()[name = tensor<string, []>("input_89_groups_0"), val = tensor<int32, []>(1)];
            tensor<fp16, [64, 64, 3, 3]> const_56_to_fp16 = const()[name = tensor<string, []>("const_56_to_fp16"), val = tensor<fp16, [64, 64, 3, 3]>(BLOBFILE(path = tensor<string, []>("@model_path/weights/weight.bin"), offset = tensor<uint64, []>(436608)))];
            tensor<fp16, [64]> const_57_to_fp16 = const()[name = tensor<string, []>("const_57_to_fp16"), val = tensor<fp16, [64]>(BLOBFILE(path = tensor<string, []>("@model_path/weights/weight.bin"), offset = tensor<uint64, []>(510400)))];
            tensor<fp16, [1, 64, 80, 80]> input_91_cast_fp16 = conv(bias = const_57_to_fp16, dilations = input_89_dilations_0, groups = input_89_groups_0, pad = input_89_pad_0, pad_type = input_89_pad_type_0, strides = input_89_strides_0, weight = const_56_to_fp16, x = input_87_cast_fp16)[name = tensor<string, []>("input_91_cast_fp16")];
            tensor<fp16, [1, 64, 80, 80]> y_7_cast_fp16 = silu(x = input_91_cast_fp16)[name = tensor<string, []>("y_7_cast_fp16")];
            tensor<fp16, [1, 64, 80, 80]> x_1_3_cast_fp16 = add(x = y_7_cast_fp16, y = input_81_cast_fp16)[name = tensor<string, []>("x_1_3_cast_fp16")];
            tensor<bool, []> input_93_interleave_0 = const()[name = tensor<string, []>("input_93_interleave_0"), val = tensor<bool, []>(false)];
            tensor<fp16, [1, 128, 80, 80]> input_93_cast_fp16 = concat(axis = var_10, interleave = input_93_interleave_0, values = (x_1_3_cast_fp16, x_2_3_cast_fp16))[name = tensor<string, []>("input_93_cast_fp16")];
            tensor<string, []> input_95_pad_type_0 = const()[name = tensor<string, []>("input_95_pad_type_0"), val = tensor<string, []>("valid")];
            tensor<int32, [2]> input_95_strides_0 = const()[name = tensor<string, []>("input_95_strides_0"), val = tensor<int32, [2]>([1, 1])];
            tensor<int32, [4]> input_95_pad_0 = const()[name = tensor<string, []>("input_95_pad_0"), val = tensor<int32, [4]>([0, 0, 0, 0])];
            tensor<int32, [2]> input_95_dilations_0 = const()[name = tensor<string, []>("input_95_dilations_0"), val = tensor<int32, [2]>([1, 1])];
            tensor<int32, []> input_95_groups_0 = const()[name = tensor<string, []>("input_95_groups_0"), val = tensor<int32, []>(1)];
            tensor<fp16, [128, 128, 1, 1]> const_58_to_fp16 = const()[name = tensor<string, []>("const_58_to_fp16"), val = tensor<fp16, [128, 128, 1, 1]>(BLOBFILE(path = tensor<string, []>("@model_path/weights/weight.bin"), offset = tensor<uint64, []>(510592)))];
            tensor<fp16, [128]> const_59_to_fp16 = const()[name = tensor<string, []>("const_59_to_fp16"), val = tensor<fp16, [128]>(BLOBFILE(path = tensor<string, []>("@model_path/weights/weight.bin"), offset = tensor<uint64, []>(543424)))];
            tensor<fp16, [1, 128, 80, 80]> input_97_cast_fp16 = conv(bias = const_59_to_fp16, dilations = input_95_dilations_0, groups = input_95_groups_0, pad = input_95_pad_0, pad_type = input_95_pad_type_0, strides = input_95_strides_0, weight = const_58_to_fp16, x = input_93_cast_fp16)[name = tensor<string, []>("input_97_cast_fp16")];
            tensor<fp16, [1, 128, 80, 80]> input_99_cast_fp16 = silu(x = input_97_cast_fp16)[name = tensor<string, []>("input_99_cast_fp16")];
            tensor<string, []> input_101_pad_type_0 = const()[name = tensor<string, []>("input_101_pad_type_0"), val = tensor<string, []>("custom")];
            tensor<int32, [4]> input_101_pad_0 = const()[name = tensor<string, []>("input_101_pad_0"), val = tensor<int32, [4]>([1, 1, 1, 1])];
            tensor<int32, [2]> input_101_strides_0 = const()[name = tensor<string, []>("input_101_strides_0"), val = tensor<int32, [2]>([2, 2])];
            tensor<int32, [2]> input_101_dilations_0 = const()[name = tensor<string, []>("input_101_dilations_0"), val = tensor<int32, [2]>([1, 1])];
            tensor<int32, []> input_101_groups_0 = const()[name = tensor<string, []>("input_101_groups_0"), val = tensor<int32, []>(1)];
            tensor<fp16, [256, 128, 3, 3]> const_60_to_fp16 = const()[name = tensor<string, []>("const_60_to_fp16"), val = tensor<fp16, [256, 128, 3, 3]>(BLOBFILE(path = tensor<string, []>("@model_path/weights/weight.bin"), offset = tensor<uint64, []>(543744)))];
            tensor<fp16, [256]> const_61_to_fp16 = const()[name = tensor<string, []>("const_61_to_fp16"), val = tensor<fp16, [256]>(BLOBFILE(path = tensor<string, []>("@model_path/weights/weight.bin"), offset = tensor<uint64, []>(1133632)))];
            tensor<fp16, [1, 256, 40, 40]> input_103_cast_fp16 = conv(bias = const_61_to_fp16, dilations = input_101_dilations_0, groups = input_101_groups_0, pad = input_101_pad_0, pad_type = input_101_pad_type_0, strides = input_101_strides_0, weight = const_60_to_fp16, x = input_99_cast_fp16)[name = tensor<string, []>("input_103_cast_fp16")];
            tensor<fp16, [1, 256, 40, 40]> input_105_cast_fp16 = silu(x = input_103_cast_fp16)[name = tensor<string, []>("input_105_cast_fp16")];
            tensor<string, []> input_107_pad_type_0 = const()[name = tensor<string, []>("input_107_pad_type_0"), val = tensor<string, []>("valid")];
            tensor<int32, [2]> input_107_strides_0 = const()[name = tensor<string, []>("input_107_strides_0"), val = tensor<int32, [2]>([1, 1])];
            tensor<int32, [4]> input_107_pad_0 = const()[name = tensor<string, []>("input_107_pad_0"), val = tensor<int32, [4]>([0, 0, 0, 0])];
            tensor<int32, [2]> input_107_dilations_0 = const()[name = tensor<string, []>("input_107_dilations_0"), val = tensor<int32, [2]>([1, 1])];
            tensor<int32, []> input_107_groups_0 = const()[name = tensor<string, []>("input_107_groups_0"), val = tensor<int32, []>(1)];
            tensor<fp16, [128, 256, 1, 1]> const_62_to_fp16 = const()[name = tensor<string, []>("const_62_to_fp16"), val = tensor<fp16, [128, 256, 1, 1]>(BLOBFILE(path = tensor<string, []>("@model_path/weights/weight.bin"), offset = tensor<uint64, []>(1134208)))];
            tensor<fp16, [128]> const_63_to_fp16 = const()[name = tensor<string, []>("const_63_to_fp16"), val = tensor<fp16, [128]>(BLOBFILE(path = tensor<string, []>("@model_path/weights/weight.bin"), offset = tensor<uint64, []>(1199808)))];
            tensor<fp16, [1, 128, 40, 40]> input_109_cast_fp16 = conv(bias = const_63_to_fp16, dilations = input_107_dilations_0, groups = input_107_groups_0, pad = input_107_pad_0, pad_type = input_107_pad_type_0, strides = input_107_strides_0, weight = const_62_to_fp16, x = input_105_cast_fp16)[name = tensor<string, []>("input_109_cast_fp16")];
            tensor<fp16, [1, 128, 40, 40]> input_115_cast_fp16 = silu(x = input_109_cast_fp16)[name = tensor<string, []>("input_115_cast_fp16")];
            tensor<string, []> input_111_pad_type_0 = const()[name = tensor<string, []>("input_111_pad_type_0"), val = tensor<string, []>("valid")];
            tensor<int32, [2]> input_111_strides_0 = const()[name = tensor<string, []>("input_111_strides_0"), val = tensor<int32, [2]>([1, 1])];
            tensor<int32, [4]> input_111_pad_0 = const()[name = tensor<string, []>("input_111_pad_0"), val = tensor<int32, [4]>([0, 0, 0, 0])];
            tensor<int32, [2]> input_111_dilations_0 = const()[name = tensor<string, []>("input_111_dilations_0"), val = tensor<int32, [2]>([1, 1])];
            tensor<int32, []> input_111_groups_0 = const()[name = tensor<string, []>("input_111_groups_0"), val = tensor<int32, []>(1)];
            tensor<fp16, [128, 256, 1, 1]> const_64_to_fp16 = const()[name = tensor<string, []>("const_64_to_fp16"), val = tensor<fp16, [128, 256, 1, 1]>(BLOBFILE(path = tensor<string, []>("@model_path/weights/weight.bin"), offset = tensor<uint64, []>(1200128)))];
            tensor<fp16, [128]> const_65_to_fp16 = const()[name = tensor<string, []>("const_65_to_fp16"), val = tensor<fp16, [128]>(BLOBFILE(path = tensor<string, []>("@model_path/weights/weight.bin"), offset = tensor<uint64, []>(1265728)))];
            tensor<fp16, [1, 128, 40, 40]> input_113_cast_fp16 = conv(bias = const_65_to_fp16, dilations = input_111_dilations_0, groups = input_111_groups_0, pad = input_111_pad_0, pad_type = input_111_pad_type_0, strides = input_111_strides_0, weight = const_64_to_fp16, x = input_105_cast_fp16)[name = tensor<string, []>("input_113_cast_fp16")];
            tensor<fp16, [1, 128, 40, 40]> x_2_5_cast_fp16 = silu(x = input_113_cast_fp16)[name = tensor<string, []>("x_2_5_cast_fp16")];
            tensor<string, []> input_117_pad_type_0 = const()[name = tensor<string, []>("input_117_pad_type_0"), val = tensor<string, []>("valid")];
            tensor<int32, [2]> input_117_strides_0 = const()[name = tensor<string, []>("input_117_strides_0"), val = tensor<int32, [2]>([1, 1])];
            tensor<int32, [4]> input_117_pad_0 = const()[name = tensor<string, []>("input_117_pad_0"), val = tensor<int32, [4]>([0, 0, 0, 0])];
            tensor<int32, [2]> input_117_dilations_0 = const()[name = tensor<string, []>("input_117_dilations_0"), val = tensor<int32, [2]>([1, 1])];
            tensor<int32, []> input_117_groups_0 = const()[name = tensor<string, []>("input_117_groups_0"), val = tensor<int32, []>(1)];
            tensor<fp16, [128, 128, 1, 1]> const_66_to_fp16 = const()[name = tensor<string, []>("const_66_to_fp16"), val = tensor<fp16, [128, 128, 1, 1]>(BLOBFILE(path = tensor<string, []>("@model_path/weights/weight.bin"), offset = tensor<uint64, []>(1266048)))];
            tensor<fp16, [128]> const_67_to_fp16 = const()[name = tensor<string, []>("const_67_to_fp16"), val = tensor<fp16, [128]>(BLOBFILE(path = tensor<string, []>("@model_path/weights/weight.bin"), offset = tensor<uint64, []>(1298880)))];
            tensor<fp16, [1, 128, 40, 40]> input_119_cast_fp16 = conv(bias = const_67_to_fp16, dilations = input_117_dilations_0, groups = input_117_groups_0, pad = input_117_pad_0, pad_type = input_117_pad_type_0, strides = input_117_strides_0, weight = const_66_to_fp16, x = input_115_cast_fp16)[name = tensor<string, []>("input_119_cast_fp16")];
            tensor<fp16, [1, 128, 40, 40]> input_121_cast_fp16 = silu(x = input_119_cast_fp16)[name = tensor<string, []>("input_121_cast_fp16")];
            tensor<string, []> input_123_pad_type_0 = const()[name = tensor<string, []>("input_123_pad_type_0"), val = tensor<string, []>("custom")];
            tensor<int32, [4]> input_123_pad_0 = const()[name = tensor<string, []>("input_123_pad_0"), val = tensor<int32, [4]>([1, 1, 1, 1])];
            tensor<int32, [2]> input_123_strides_0 = const()[name = tensor<string, []>("input_123_strides_0"), val = tensor<int32, [2]>([1, 1])];
            tensor<int32, [2]> input_123_dilations_0 = const()[name = tensor<string, []>("input_123_dilations_0"), val = tensor<int32, [2]>([1, 1])];
            tensor<int32, []> input_123_groups_0 = const()[name = tensor<string, []>("input_123_groups_0"), val = tensor<int32, []>(1)];
            tensor<fp16, [128, 128, 3, 3]> const_68_to_fp16 = const()[name = tensor<string, []>("const_68_to_fp16"), val = tensor<fp16, [128, 128, 3, 3]>(BLOBFILE(path = tensor<string, []>("@model_path/weights/weight.bin"), offset = tensor<uint64, []>(1299200)))];
            tensor<fp16, [128]> const_69_to_fp16 = const()[name = tensor<string, []>("const_69_to_fp16"), val = tensor<fp16, [128]>(BLOBFILE(path = tensor<string, []>("@model_path/weights/weight.bin"), offset = tensor<uint64, []>(1594176)))];
            tensor<fp16, [1, 128, 40, 40]> input_125_cast_fp16 = conv(bias = const_69_to_fp16, dilations = input_123_dilations_0, groups = input_123_groups_0, pad = input_123_pad_0, pad_type = input_123_pad_type_0, strides = input_123_strides_0, weight = const_68_to_fp16, x = input_121_cast_fp16)[name = tensor<string, []>("input_125_cast_fp16")];
            tensor<fp16, [1, 128, 40, 40]> y_9_cast_fp16 = silu(x = input_125_cast_fp16)[name = tensor<string, []>("y_9_cast_fp16")];
            tensor<fp16, [1, 128, 40, 40]> input_127_cast_fp16 = add(x = y_9_cast_fp16, y = input_115_cast_fp16)[name = tensor<string, []>("input_127_cast_fp16")];
            tensor<string, []> input_129_pad_type_0 = const()[name = tensor<string, []>("input_129_pad_type_0"), val = tensor<string, []>("valid")];
            tensor<int32, [2]> input_129_strides_0 = const()[name = tensor<string, []>("input_129_strides_0"), val = tensor<int32, [2]>([1, 1])];
            tensor<int32, [4]> input_129_pad_0 = const()[name = tensor<string, []>("input_129_pad_0"), val = tensor<int32, [4]>([0, 0, 0, 0])];
            tensor<int32, [2]> input_129_dilations_0 = const()[name = tensor<string, []>("input_129_dilations_0"), val = tensor<int32, [2]>([1, 1])];
            tensor<int32, []> input_129_groups_0 = const()[name = tensor<string, []>("input_129_groups_0"), val = tensor<int32, []>(1)];
            tensor<fp16, [128, 128, 1, 1]> const_70_to_fp16 = const()[name = tensor<string, []>("const_70_to_fp16"), val = tensor<fp16, [128, 128, 1, 1]>(BLOBFILE(path = tensor<string, []>("@model_path/weights/weight.bin"), offset = tensor<uint64, []>(1594496)))];
            tensor<fp16, [128]> const_71_to_fp16 = const()[name = tensor<string, []>("const_71_to_fp16"), val = tensor<fp16, [128]>(BLOBFILE(path = tensor<string, []>("@model_path/weights/weight.bin"), offset = tensor<uint64, []>(1627328)))];
            tensor<fp16, [1, 128, 40, 40]> input_131_cast_fp16 = conv(bias = const_71_to_fp16, dilations = input_129_dilations_0, groups = input_129_groups_0, pad = input_129_pad_0, pad_type = input_129_pad_type_0, strides = input_129_strides_0, weight = const_70_to_fp16, x = input_127_cast_fp16)[name = tensor<string, []>("input_131_cast_fp16")];
            tensor<fp16, [1, 128, 40, 40]> input_133_cast_fp16 = silu(x = input_131_cast_fp16)[name = tensor<string, []>("input_133_cast_fp16")];
            tensor<string, []> input_135_pad_type_0 = const()[name = tensor<string, []>("input_135_pad_type_0"), val = tensor<string, []>("custom")];
            tensor<int32, [4]> input_135_pad_0 = const()[name = tensor<string, []>("input_135_pad_0"), val = tensor<int32, [4]>([1, 1, 1, 1])];
            tensor<int32, [2]> input_135_strides_0 = const()[name = tensor<string, []>("input_135_strides_0"), val = tensor<int32, [2]>([1, 1])];
            tensor<int32, [2]> input_135_dilations_0 = const()[name = tensor<string, []>("input_135_dilations_0"), val = tensor<int32, [2]>([1, 1])];
            tensor<int32, []> input_135_groups_0 = const()[name = tensor<string, []>("input_135_groups_0"), val = tensor<int32, []>(1)];
            tensor<fp16, [128, 128, 3, 3]> const_72_to_fp16 = const()[name = tensor<string, []>("const_72_to_fp16"), val = tensor<fp16, [128, 128, 3, 3]>(BLOBFILE(path = tensor<string, []>("@model_path/weights/weight.bin"), offset = tensor<uint64, []>(1627648)))];
            tensor<fp16, [128]> const_73_to_fp16 = const()[name = tensor<string, []>("const_73_to_fp16"), val = tensor<fp16, [128]>(BLOBFILE(path = tensor<string, []>("@model_path/weights/weight.bin"), offset = tensor<uint64, []>(1922624)))];
            tensor<fp16, [1, 128, 40, 40]> input_137_cast_fp16 = conv(bias = const_73_to_fp16, dilations = input_135_dilations_0, groups = input_135_groups_0, pad = input_135_pad_0, pad_type = input_135_pad_type_0, strides = input_135_strides_0, weight = const_72_to_fp16, x = input_133_cast_fp16)[name = tensor<string, []>("input_137_cast_fp16")];
            tensor<fp16, [1, 128, 40, 40]> y_11_cast_fp16 = silu(x = input_137_cast_fp16)[name = tensor<string, []>("y_11_cast_fp16")];
            tensor<fp16, [1, 128, 40, 40]> input_139_cast_fp16 = add(x = y_11_cast_fp16, y = input_127_cast_fp16)[name = tensor<string, []>("input_139_cast_fp16")];
            tensor<string, []> input_141_pad_type_0 = const()[name = tensor<string, []>("input_141_pad_type_0"), val = tensor<string, []>("valid")];
            tensor<int32, [2]> input_141_strides_0 = const()[name = tensor<string, []>("input_141_strides_0"), val = tensor<int32, [2]>([1, 1])];
            tensor<int32, [4]> input_141_pad_0 = const()[name = tensor<string, []>("input_141_pad_0"), val = tensor<int32, [4]>([0, 0, 0, 0])];
            tensor<int32, [2]> input_141_dilations_0 = const()[name = tensor<string, []>("input_141_dilations_0"), val = tensor<int32, [2]>([1, 1])];
            tensor<int32, []> input_141_groups_0 = const()[name = tensor<string, []>("input_141_groups_0"), val = tensor<int32, []>(1)];
            tensor<fp16, [128, 128, 1, 1]> const_74_to_fp16 = const()[name = tensor<string, []>("const_74_to_fp16"), val = tensor<fp16, [128, 128, 1, 1]>(BLOBFILE(path = tensor<string, []>("@model_path/weights/weight.bin"), offset = tensor<uint64, []>(1922944)))];
            tensor<fp16, [128]> const_75_to_fp16 = const()[name = tensor<string, []>("const_75_to_fp16"), val = tensor<fp16, [128]>(BLOBFILE(path = tensor<string, []>("@model_path/weights/weight.bin"), offset = tensor<uint64, []>(1955776)))];
            tensor<fp16, [1, 128, 40, 40]> input_143_cast_fp16 = conv(bias = const_75_to_fp16, dilations = input_141_dilations_0, groups = input_141_groups_0, pad = input_141_pad_0, pad_type = input_141_pad_type_0, strides = input_141_strides_0, weight = const_74_to_fp16, x = input_139_cast_fp16)[name = tensor<string, []>("input_143_cast_fp16")];
            tensor<fp16, [1, 128, 40, 40]> input_145_cast_fp16 = silu(x = input_143_cast_fp16)[name = tensor<string, []>("input_145_cast_fp16")];
            tensor<string, []> input_147_pad_type_0 = const()[name = tensor<string, []>("input_147_pad_type_0"), val = tensor<string, []>("custom")];
            tensor<int32, [4]> input_147_pad_0 = const()[name = tensor<string, []>("input_147_pad_0"), val = tensor<int32, [4]>([1, 1, 1, 1])];
            tensor<int32, [2]> input_147_strides_0 = const()[name = tensor<string, []>("input_147_strides_0"), val = tensor<int32, [2]>([1, 1])];
            tensor<int32, [2]> input_147_dilations_0 = const()[name = tensor<string, []>("input_147_dilations_0"), val = tensor<int32, [2]>([1, 1])];
            tensor<int32, []> input_147_groups_0 = const()[name = tensor<string, []>("input_147_groups_0"), val = tensor<int32, []>(1)];
            tensor<fp16, [128, 128, 3, 3]> const_76_to_fp16 = const()[name = tensor<string, []>("const_76_to_fp16"), val = tensor<fp16, [128, 128, 3, 3]>(BLOBFILE(path = tensor<string, []>("@model_path/weights/weight.bin"), offset = tensor<uint64, []>(1956096)))];
            tensor<fp16, [128]> const_77_to_fp16 = const()[name = tensor<string, []>("const_77_to_fp16"), val = tensor<fp16, [128]>(BLOBFILE(path = tensor<string, []>("@model_path/weights/weight.bin"), offset = tensor<uint64, []>(2251072)))];
            tensor<fp16, [1, 128, 40, 40]> input_149_cast_fp16 = conv(bias = const_77_to_fp16, dilations = input_147_dilations_0, groups = input_147_groups_0, pad = input_147_pad_0, pad_type = input_147_pad_type_0, strides = input_147_strides_0, weight = const_76_to_fp16, x = input_145_cast_fp16)[name = tensor<string, []>("input_149_cast_fp16")];
            tensor<fp16, [1, 128, 40, 40]> y_cast_fp16 = silu(x = input_149_cast_fp16)[name = tensor<string, []>("y_cast_fp16")];
            tensor<fp16, [1, 128, 40, 40]> x_1_5_cast_fp16 = add(x = y_cast_fp16, y = input_139_cast_fp16)[name = tensor<string, []>("x_1_5_cast_fp16")];
            tensor<bool, []> input_151_interleave_0 = const()[name = tensor<string, []>("input_151_interleave_0"), val = tensor<bool, []>(false)];
            tensor<fp16, [1, 256, 40, 40]> input_151_cast_fp16 = concat(axis = var_10, interleave = input_151_interleave_0, values = (x_1_5_cast_fp16, x_2_5_cast_fp16))[name = tensor<string, []>("input_151_cast_fp16")];
            tensor<string, []> input_153_pad_type_0 = const()[name = tensor<string, []>("input_153_pad_type_0"), val = tensor<string, []>("valid")];
            tensor<int32, [2]> input_153_strides_0 = const()[name = tensor<string, []>("input_153_strides_0"), val = tensor<int32, [2]>([1, 1])];
            tensor<int32, [4]> input_153_pad_0 = const()[name = tensor<string, []>("input_153_pad_0"), val = tensor<int32, [4]>([0, 0, 0, 0])];
            tensor<int32, [2]> input_153_dilations_0 = const()[name = tensor<string, []>("input_153_dilations_0"), val = tensor<int32, [2]>([1, 1])];
            tensor<int32, []> input_153_groups_0 = const()[name = tensor<string, []>("input_153_groups_0"), val = tensor<int32, []>(1)];
            tensor<fp16, [256, 256, 1, 1]> const_78_to_fp16 = const()[name = tensor<string, []>("const_78_to_fp16"), val = tensor<fp16, [256, 256, 1, 1]>(BLOBFILE(path = tensor<string, []>("@model_path/weights/weight.bin"), offset = tensor<uint64, []>(2251392)))];
            tensor<fp16, [256]> const_79_to_fp16 = const()[name = tensor<string, []>("const_79_to_fp16"), val = tensor<fp16, [256]>(BLOBFILE(path = tensor<string, []>("@model_path/weights/weight.bin"), offset = tensor<uint64, []>(2382528)))];
            tensor<fp16, [1, 256, 40, 40]> input_155_cast_fp16 = conv(bias = const_79_to_fp16, dilations = input_153_dilations_0, groups = input_153_groups_0, pad = input_153_pad_0, pad_type = input_153_pad_type_0, strides = input_153_strides_0, weight = const_78_to_fp16, x = input_151_cast_fp16)[name = tensor<string, []>("input_155_cast_fp16")];
            tensor<fp16, [1, 256, 40, 40]> input_157_cast_fp16 = silu(x = input_155_cast_fp16)[name = tensor<string, []>("input_157_cast_fp16")];
            tensor<string, []> input_159_pad_type_0 = const()[name = tensor<string, []>("input_159_pad_type_0"), val = tensor<string, []>("custom")];
            tensor<int32, [4]> input_159_pad_0 = const()[name = tensor<string, []>("input_159_pad_0"), val = tensor<int32, [4]>([1, 1, 1, 1])];
            tensor<int32, [2]> input_159_strides_0 = const()[name = tensor<string, []>("input_159_strides_0"), val = tensor<int32, [2]>([2, 2])];
            tensor<int32, [2]> input_159_dilations_0 = const()[name = tensor<string, []>("input_159_dilations_0"), val = tensor<int32, [2]>([1, 1])];
            tensor<int32, []> input_159_groups_0 = const()[name = tensor<string, []>("input_159_groups_0"), val = tensor<int32, []>(1)];
            tensor<fp16, [512, 256, 3, 3]> const_80_to_fp16 = const()[name = tensor<string, []>("const_80_to_fp16"), val = tensor<fp16, [512, 256, 3, 3]>(BLOBFILE(path = tensor<string, []>("@model_path/weights/weight.bin"), offset = tensor<uint64, []>(2383104)))];
            tensor<fp16, [512]> const_81_to_fp16 = const()[name = tensor<string, []>("const_81_to_fp16"), val = tensor<fp16, [512]>(BLOBFILE(path = tensor<string, []>("@model_path/weights/weight.bin"), offset = tensor<uint64, []>(4742464)))];
            tensor<fp16, [1, 512, 20, 20]> input_161_cast_fp16 = conv(bias = const_81_to_fp16, dilations = input_159_dilations_0, groups = input_159_groups_0, pad = input_159_pad_0, pad_type = input_159_pad_type_0, strides = input_159_strides_0, weight = const_80_to_fp16, x = input_157_cast_fp16)[name = tensor<string, []>("input_161_cast_fp16")];
            tensor<fp16, [1, 512, 20, 20]> input_163_cast_fp16 = silu(x = input_161_cast_fp16)[name = tensor<string, []>("input_163_cast_fp16")];
            tensor<string, []> input_165_pad_type_0 = const()[name = tensor<string, []>("input_165_pad_type_0"), val = tensor<string, []>("valid")];
            tensor<int32, [2]> input_165_strides_0 = const()[name = tensor<string, []>("input_165_strides_0"), val = tensor<int32, [2]>([1, 1])];
            tensor<int32, [4]> input_165_pad_0 = const()[name = tensor<string, []>("input_165_pad_0"), val = tensor<int32, [4]>([0, 0, 0, 0])];
            tensor<int32, [2]> input_165_dilations_0 = const()[name = tensor<string, []>("input_165_dilations_0"), val = tensor<int32, [2]>([1, 1])];
            tensor<int32, []> input_165_groups_0 = const()[name = tensor<string, []>("input_165_groups_0"), val = tensor<int32, []>(1)];
            tensor<fp16, [256, 512, 1, 1]> const_82_to_fp16 = const()[name = tensor<string, []>("const_82_to_fp16"), val = tensor<fp16, [256, 512, 1, 1]>(BLOBFILE(path = tensor<string, []>("@model_path/weights/weight.bin"), offset = tensor<uint64, []>(4743552)))];
            tensor<fp16, [256]> const_83_to_fp16 = const()[name = tensor<string, []>("const_83_to_fp16"), val = tensor<fp16, [256]>(BLOBFILE(path = tensor<string, []>("@model_path/weights/weight.bin"), offset = tensor<uint64, []>(5005760)))];
            tensor<fp16, [1, 256, 20, 20]> input_167_cast_fp16 = conv(bias = const_83_to_fp16, dilations = input_165_dilations_0, groups = input_165_groups_0, pad = input_165_pad_0, pad_type = input_165_pad_type_0, strides = input_165_strides_0, weight = const_82_to_fp16, x = input_163_cast_fp16)[name = tensor<string, []>("input_167_cast_fp16")];
            tensor<fp16, [1, 256, 20, 20]> input_169_cast_fp16 = silu(x = input_167_cast_fp16)[name = tensor<string, []>("input_169_cast_fp16")];
            tensor<int32, [2]> var_508 = const()[name = tensor<string, []>("op_508"), val = tensor<int32, [2]>([5, 5])];
            tensor<int32, [2]> var_509 = const()[name = tensor<string, []>("op_509"), val = tensor<int32, [2]>([1, 1])];
            tensor<string, []> var_512_pad_type_0 = const()[name = tensor<string, []>("op_512_pad_type_0"), val = tensor<string, []>("custom")];
            tensor<int32, [4]> var_512_pad_0 = const()[name = tensor<string, []>("op_512_pad_0"), val = tensor<int32, [4]>([2, 2, 2, 2])];
            tensor<bool, []> var_512_ceil_mode_0 = const()[name = tensor<string, []>("op_512_ceil_mode_0"), val = tensor<bool, []>(false)];
            tensor<fp16, [1, 256, 20, 20]> var_512_cast_fp16 = max_pool(ceil_mode = var_512_ceil_mode_0, kernel_sizes = var_508, pad = var_512_pad_0, pad_type = var_512_pad_type_0, strides = var_509, x = input_169_cast_fp16)[name = tensor<string, []>("op_512_cast_fp16")];
            tensor<int32, [2]> var_513 = const()[name = tensor<string, []>("op_513"), val = tensor<int32, [2]>([9, 9])];
            tensor<int32, [2]> var_514 = const()[name = tensor<string, []>("op_514"), val = tensor<int32, [2]>([1, 1])];
            tensor<string, []> var_517_pad_type_0 = const()[name = tensor<string, []>("op_517_pad_type_0"), val = tensor<string, []>("custom")];
            tensor<int32, [4]> var_517_pad_0 = const()[name = tensor<string, []>("op_517_pad_0"), val = tensor<int32, [4]>([4, 4, 4, 4])];
            tensor<bool, []> var_517_ceil_mode_0 = const()[name = tensor<string, []>("op_517_ceil_mode_0"), val = tensor<bool, []>(false)];
            tensor<fp16, [1, 256, 20, 20]> var_517_cast_fp16 = max_pool(ceil_mode = var_517_ceil_mode_0, kernel_sizes = var_513, pad = var_517_pad_0, pad_type = var_517_pad_type_0, strides = var_514, x = input_169_cast_fp16)[name = tensor<string, []>("op_517_cast_fp16")];
            tensor<int32, [2]> var_518 = const()[name = tensor<string, []>("op_518"), val = tensor<int32, [2]>([13, 13])];
            tensor<int32, [2]> var_519 = const()[name = tensor<string, []>("op_519"), val = tensor<int32, [2]>([1, 1])];
            tensor<string, []> var_522_pad_type_0 = const()[name = tensor<string, []>("op_522_pad_type_0"), val = tensor<string, []>("custom")];
            tensor<int32, [4]> var_522_pad_0 = const()[name = tensor<string, []>("op_522_pad_0"), val = tensor<int32, [4]>([6, 6, 6, 6])];
            tensor<bool, []> var_522_ceil_mode_0 = const()[name = tensor<string, []>("op_522_ceil_mode_0"), val = tensor<bool, []>(false)];
            tensor<fp16, [1, 256, 20, 20]> var_522_cast_fp16 = max_pool(ceil_mode = var_522_ceil_mode_0, kernel_sizes = var_518, pad = var_522_pad_0, pad_type = var_522_pad_type_0, strides = var_519, x = input_169_cast_fp16)[name = tensor<string, []>("op_522_cast_fp16")];
            tensor<bool, []> input_171_interleave_0 = const()[name = tensor<string, []>("input_171_interleave_0"), val = tensor<bool, []>(false)];
            tensor<fp16, [1, 1024, 20, 20]> input_171_cast_fp16 = concat(axis = var_10, interleave = input_171_interleave_0, values = (input_169_cast_fp16, var_512_cast_fp16, var_517_cast_fp16, var_522_cast_fp16))[name = tensor<string, []>("input_171_cast_fp16")];
            tensor<string, []> input_173_pad_type_0 = const()[name = tensor<string, []>("input_173_pad_type_0"), val = tensor<string, []>("valid")];
            tensor<int32, [2]> input_173_strides_0 = const()[name = tensor<string, []>("input_173_strides_0"), val = tensor<int32, [2]>([1, 1])];
            tensor<int32, [4]> input_173_pad_0 = const()[name = tensor<string, []>("input_173_pad_0"), val = tensor<int32, [4]>([0, 0, 0, 0])];
            tensor<int32, [2]> input_173_dilations_0 = const()[name = tensor<string, []>("input_173_dilations_0"), val = tensor<int32, [2]>([1, 1])];
            tensor<int32, []> input_173_groups_0 = const()[name = tensor<string, []>("input_173_groups_0"), val = tensor<int32, []>(1)];
            tensor<fp16, [512, 1024, 1, 1]> const_84_to_fp16 = const()[name = tensor<string, []>("const_84_to_fp16"), val = tensor<fp16, [512, 1024, 1, 1]>(BLOBFILE(path = tensor<string, []>("@model_path/weights/weight.bin"), offset = tensor<uint64, []>(5006336)))];
            tensor<fp16, [512]> const_85_to_fp16 = const()[name = tensor<string, []>("const_85_to_fp16"), val = tensor<fp16, [512]>(BLOBFILE(path = tensor<string, []>("@model_path/weights/weight.bin"), offset = tensor<uint64, []>(6054976)))];
            tensor<fp16, [1, 512, 20, 20]> input_175_cast_fp16 = conv(bias = const_85_to_fp16, dilations = input_173_dilations_0, groups = input_173_groups_0, pad = input_173_pad_0, pad_type = input_173_pad_type_0, strides = input_173_strides_0, weight = const_84_to_fp16, x = input_171_cast_fp16)[name = tensor<string, []>("input_175_cast_fp16")];
            tensor<fp16, [1, 512, 20, 20]> input_177_cast_fp16 = silu(x = input_175_cast_fp16)[name = tensor<string, []>("input_177_cast_fp16")];
            tensor<string, []> input_179_pad_type_0 = const()[name = tensor<string, []>("input_179_pad_type_0"), val = tensor<string, []>("valid")];
            tensor<int32, [2]> input_179_strides_0 = const()[name = tensor<string, []>("input_179_strides_0"), val = tensor<int32, [2]>([1, 1])];
            tensor<int32, [4]> input_179_pad_0 = const()[name = tensor<string, []>("input_179_pad_0"), val = tensor<int32, [4]>([0, 0, 0, 0])];
            tensor<int32, [2]> input_179_dilations_0 = const()[name = tensor<string, []>("input_179_dilations_0"), val = tensor<int32, [2]>([1, 1])];
            tensor<int32, []> input_179_groups_0 = const()[name = tensor<string, []>("input_179_groups_0"), val = tensor<int32, []>(1)];
            tensor<fp16, [256, 512, 1, 1]> const_86_to_fp16 = const()[name = tensor<string, []>("const_86_to_fp16"), val = tensor<fp16, [256, 512, 1, 1]>(BLOBFILE(path = tensor<string, []>("@model_path/weights/weight.bin"), offset = tensor<uint64, []>(6056064)))];
            tensor<fp16, [256]> const_87_to_fp16 = const()[name = tensor<string, []>("const_87_to_fp16"), val = tensor<fp16, [256]>(BLOBFILE(path = tensor<string, []>("@model_path/weights/weight.bin"), offset = tensor<uint64, []>(6318272)))];
            tensor<fp16, [1, 256, 20, 20]> input_181_cast_fp16 = conv(bias = const_87_to_fp16, dilations = input_179_dilations_0, groups = input_179_groups_0, pad = input_179_pad_0, pad_type = input_179_pad_type_0, strides = input_179_strides_0, weight = const_86_to_fp16, x = input_177_cast_fp16)[name = tensor<string, []>("input_181_cast_fp16")];
            tensor<fp16, [1, 256, 20, 20]> input_187_cast_fp16 = silu(x = input_181_cast_fp16)[name = tensor<string, []>("input_187_cast_fp16")];
            tensor<string, []> input_183_pad_type_0 = const()[name = tensor<string, []>("input_183_pad_type_0"), val = tensor<string, []>("valid")];
            tensor<int32, [2]> input_183_strides_0 = const()[name = tensor<string, []>("input_183_strides_0"), val = tensor<int32, [2]>([1, 1])];
            tensor<int32, [4]> input_183_pad_0 = const()[name = tensor<string, []>("input_183_pad_0"), val = tensor<int32, [4]>([0, 0, 0, 0])];
            tensor<int32, [2]> input_183_dilations_0 = const()[name = tensor<string, []>("input_183_dilations_0"), val = tensor<int32, [2]>([1, 1])];
            tensor<int32, []> input_183_groups_0 = const()[name = tensor<string, []>("input_183_groups_0"), val = tensor<int32, []>(1)];
            tensor<fp16, [256, 512, 1, 1]> const_88_to_fp16 = const()[name = tensor<string, []>("const_88_to_fp16"), val = tensor<fp16, [256, 512, 1, 1]>(BLOBFILE(path = tensor<string, []>("@model_path/weights/weight.bin"), offset = tensor<uint64, []>(6318848)))];
            tensor<fp16, [256]> const_89_to_fp16 = const()[name = tensor<string, []>("const_89_to_fp16"), val = tensor<fp16, [256]>(BLOBFILE(path = tensor<string, []>("@model_path/weights/weight.bin"), offset = tensor<uint64, []>(6581056)))];
            tensor<fp16, [1, 256, 20, 20]> input_185_cast_fp16 = conv(bias = const_89_to_fp16, dilations = input_183_dilations_0, groups = input_183_groups_0, pad = input_183_pad_0, pad_type = input_183_pad_type_0, strides = input_183_strides_0, weight = const_88_to_fp16, x = input_177_cast_fp16)[name = tensor<string, []>("input_185_cast_fp16")];
            tensor<fp16, [1, 256, 20, 20]> x_2_7_cast_fp16 = silu(x = input_185_cast_fp16)[name = tensor<string, []>("x_2_7_cast_fp16")];
            tensor<string, []> input_189_pad_type_0 = const()[name = tensor<string, []>("input_189_pad_type_0"), val = tensor<string, []>("valid")];
            tensor<int32, [2]> input_189_strides_0 = const()[name = tensor<string, []>("input_189_strides_0"), val = tensor<int32, [2]>([1, 1])];
            tensor<int32, [4]> input_189_pad_0 = const()[name = tensor<string, []>("input_189_pad_0"), val = tensor<int32, [4]>([0, 0, 0, 0])];
            tensor<int32, [2]> input_189_dilations_0 = const()[name = tensor<string, []>("input_189_dilations_0"), val = tensor<int32, [2]>([1, 1])];
            tensor<int32, []> input_189_groups_0 = const()[name = tensor<string, []>("input_189_groups_0"), val = tensor<int32, []>(1)];
            tensor<fp16, [256, 256, 1, 1]> const_90_to_fp16 = const()[name = tensor<string, []>("const_90_to_fp16"), val = tensor<fp16, [256, 256, 1, 1]>(BLOBFILE(path = tensor<string, []>("@model_path/weights/weight.bin"), offset = tensor<uint64, []>(6581632)))];
            tensor<fp16, [256]> const_91_to_fp16 = const()[name = tensor<string, []>("const_91_to_fp16"), val = tensor<fp16, [256]>(BLOBFILE(path = tensor<string, []>("@model_path/weights/weight.bin"), offset = tensor<uint64, []>(6712768)))];
            tensor<fp16, [1, 256, 20, 20]> input_191_cast_fp16 = conv(bias = const_91_to_fp16, dilations = input_189_dilations_0, groups = input_189_groups_0, pad = input_189_pad_0, pad_type = input_189_pad_type_0, strides = input_189_strides_0, weight = const_90_to_fp16, x = input_187_cast_fp16)[name = tensor<string, []>("input_191_cast_fp16")];
            tensor<fp16, [1, 256, 20, 20]> input_193_cast_fp16 = silu(x = input_191_cast_fp16)[name = tensor<string, []>("input_193_cast_fp16")];
            tensor<string, []> input_195_pad_type_0 = const()[name = tensor<string, []>("input_195_pad_type_0"), val = tensor<string, []>("custom")];
            tensor<int32, [4]> input_195_pad_0 = const()[name = tensor<string, []>("input_195_pad_0"), val = tensor<int32, [4]>([1, 1, 1, 1])];
            tensor<int32, [2]> input_195_strides_0 = const()[name = tensor<string, []>("input_195_strides_0"), val = tensor<int32, [2]>([1, 1])];
            tensor<int32, [2]> input_195_dilations_0 = const()[name = tensor<string, []>("input_195_dilations_0"), val = tensor<int32, [2]>([1, 1])];
            tensor<int32, []> input_195_groups_0 = const()[name = tensor<string, []>("input_195_groups_0"), val = tensor<int32, []>(1)];
            tensor<fp16, [256, 256, 3, 3]> const_92_to_fp16 = const()[name = tensor<string, []>("const_92_to_fp16"), val = tensor<fp16, [256, 256, 3, 3]>(BLOBFILE(path = tensor<string, []>("@model_path/weights/weight.bin"), offset = tensor<uint64, []>(6713344)))];
            tensor<fp16, [256]> const_93_to_fp16 = const()[name = tensor<string, []>("const_93_to_fp16"), val = tensor<fp16, [256]>(BLOBFILE(path = tensor<string, []>("@model_path/weights/weight.bin"), offset = tensor<uint64, []>(7893056)))];
            tensor<fp16, [1, 256, 20, 20]> input_197_cast_fp16 = conv(bias = const_93_to_fp16, dilations = input_195_dilations_0, groups = input_195_groups_0, pad = input_195_pad_0, pad_type = input_195_pad_type_0, strides = input_195_strides_0, weight = const_92_to_fp16, x = input_193_cast_fp16)[name = tensor<string, []>("input_197_cast_fp16")];
            tensor<fp16, [1, 256, 20, 20]> x_1_7_cast_fp16 = silu(x = input_197_cast_fp16)[name = tensor<string, []>("x_1_7_cast_fp16")];
            tensor<bool, []> input_199_interleave_0 = const()[name = tensor<string, []>("input_199_interleave_0"), val = tensor<bool, []>(false)];
            tensor<fp16, [1, 512, 20, 20]> input_199_cast_fp16 = concat(axis = var_10, interleave = input_199_interleave_0, values = (x_1_7_cast_fp16, x_2_7_cast_fp16))[name = tensor<string, []>("input_199_cast_fp16")];
            tensor<string, []> input_201_pad_type_0 = const()[name = tensor<string, []>("input_201_pad_type_0"), val = tensor<string, []>("valid")];
            tensor<int32, [2]> input_201_strides_0 = const()[name = tensor<string, []>("input_201_strides_0"), val = tensor<int32, [2]>([1, 1])];
            tensor<int32, [4]> input_201_pad_0 = const()[name = tensor<string, []>("input_201_pad_0"), val = tensor<int32, [4]>([0, 0, 0, 0])];
            tensor<int32, [2]> input_201_dilations_0 = const()[name = tensor<string, []>("input_201_dilations_0"), val = tensor<int32, [2]>([1, 1])];
            tensor<int32, []> input_201_groups_0 = const()[name = tensor<string, []>("input_201_groups_0"), val = tensor<int32, []>(1)];
            tensor<fp16, [512, 512, 1, 1]> const_94_to_fp16 = const()[name = tensor<string, []>("const_94_to_fp16"), val = tensor<fp16, [512, 512, 1, 1]>(BLOBFILE(path = tensor<string, []>("@model_path/weights/weight.bin"), offset = tensor<uint64, []>(7893632)))];
            tensor<fp16, [512]> const_95_to_fp16 = const()[name = tensor<string, []>("const_95_to_fp16"), val = tensor<fp16, [512]>(BLOBFILE(path = tensor<string, []>("@model_path/weights/weight.bin"), offset = tensor<uint64, []>(8417984)))];
            tensor<fp16, [1, 512, 20, 20]> input_203_cast_fp16 = conv(bias = const_95_to_fp16, dilations = input_201_dilations_0, groups = input_201_groups_0, pad = input_201_pad_0, pad_type = input_201_pad_type_0, strides = input_201_strides_0, weight = const_94_to_fp16, x = input_199_cast_fp16)[name = tensor<string, []>("input_203_cast_fp16")];
            tensor<fp16, [1, 512, 20, 20]> input_205_cast_fp16 = silu(x = input_203_cast_fp16)[name = tensor<string, []>("input_205_cast_fp16")];
            tensor<string, []> input_207_pad_type_0 = const()[name = tensor<string, []>("input_207_pad_type_0"), val = tensor<string, []>("valid")];
            tensor<int32, [2]> input_207_strides_0 = const()[name = tensor<string, []>("input_207_strides_0"), val = tensor<int32, [2]>([1, 1])];
            tensor<int32, [4]> input_207_pad_0 = const()[name = tensor<string, []>("input_207_pad_0"), val = tensor<int32, [4]>([0, 0, 0, 0])];
            tensor<int32, [2]> input_207_dilations_0 = const()[name = tensor<string, []>("input_207_dilations_0"), val = tensor<int32, [2]>([1, 1])];
            tensor<int32, []> input_207_groups_0 = const()[name = tensor<string, []>("input_207_groups_0"), val = tensor<int32, []>(1)];
            tensor<fp16, [256, 512, 1, 1]> const_96_to_fp16 = const()[name = tensor<string, []>("const_96_to_fp16"), val = tensor<fp16, [256, 512, 1, 1]>(BLOBFILE(path = tensor<string, []>("@model_path/weights/weight.bin"), offset = tensor<uint64, []>(8419072)))];
            tensor<fp16, [256]> const_97_to_fp16 = const()[name = tensor<string, []>("const_97_to_fp16"), val = tensor<fp16, [256]>(BLOBFILE(path = tensor<string, []>("@model_path/weights/weight.bin"), offset = tensor<uint64, []>(8681280)))];
            tensor<fp16, [1, 256, 20, 20]> input_209_cast_fp16 = conv(bias = const_97_to_fp16, dilations = input_207_dilations_0, groups = input_207_groups_0, pad = input_207_pad_0, pad_type = input_207_pad_type_0, strides = input_207_strides_0, weight = const_96_to_fp16, x = input_205_cast_fp16)[name = tensor<string, []>("input_209_cast_fp16")];
            tensor<fp16, [1, 256, 20, 20]> input_211_cast_fp16 = silu(x = input_209_cast_fp16)[name = tensor<string, []>("input_211_cast_fp16")];
            tensor<fp32, []> f_out0_scale_factor_height_0 = const()[name = tensor<string, []>("f_out0_scale_factor_height_0"), val = tensor<fp32, []>(0x1p+1)];
            tensor<fp32, []> f_out0_scale_factor_width_0 = const()[name = tensor<string, []>("f_out0_scale_factor_width_0"), val = tensor<fp32, []>(0x1p+1)];
            tensor<fp16, [1, 256, 40, 40]> f_out0_cast_fp16 = upsample_nearest_neighbor(scale_factor_height = f_out0_scale_factor_height_0, scale_factor_width = f_out0_scale_factor_width_0, x = input_211_cast_fp16)[name = tensor<string, []>("f_out0_cast_fp16")];
            tensor<bool, []> input_213_interleave_0 = const()[name = tensor<string, []>("input_213_interleave_0"), val = tensor<bool, []>(false)];
            tensor<fp16, [1, 512, 40, 40]> input_213_cast_fp16 = concat(axis = var_10, interleave = input_213_interleave_0, values = (f_out0_cast_fp16, input_157_cast_fp16))[name = tensor<string, []>("input_213_cast_fp16")];
            tensor<string, []> input_215_pad_type_0 = const()[name = tensor<string, []>("input_215_pad_type_0"), val = tensor<string, []>("valid")];
            tensor<int32, [2]> input_215_strides_0 = const()[name = tensor<string, []>("input_215_strides_0"), val = tensor<int32, [2]>([1, 1])];
            tensor<int32, [4]> input_215_pad_0 = const()[name = tensor<string, []>("input_215_pad_0"), val = tensor<int32, [4]>([0, 0, 0, 0])];
            tensor<int32, [2]> input_215_dilations_0 = const()[name = tensor<string, []>("input_215_dilations_0"), val = tensor<int32, [2]>([1, 1])];
            tensor<int32, []> input_215_groups_0 = const()[name = tensor<string, []>("input_215_groups_0"), val = tensor<int32, []>(1)];
            tensor<fp16, [128, 512, 1, 1]> const_98_to_fp16 = const()[name = tensor<string, []>("const_98_to_fp16"), val = tensor<fp16, [128, 512, 1, 1]>(BLOBFILE(path = tensor<string, []>("@model_path/weights/weight.bin"), offset = tensor<uint64, []>(8681856)))];
            tensor<fp16, [128]> const_99_to_fp16 = const()[name = tensor<string, []>("const_99_to_fp16"), val = tensor<fp16, [128]>(BLOBFILE(path = tensor<string, []>("@model_path/weights/weight.bin"), offset = tensor<uint64, []>(8812992)))];
            tensor<fp16, [1, 128, 40, 40]> input_217_cast_fp16 = conv(bias = const_99_to_fp16, dilations = input_215_dilations_0, groups = input_215_groups_0, pad = input_215_pad_0, pad_type = input_215_pad_type_0, strides = input_215_strides_0, weight = const_98_to_fp16, x = input_213_cast_fp16)[name = tensor<string, []>("input_217_cast_fp16")];
            tensor<fp16, [1, 128, 40, 40]> input_223_cast_fp16 = silu(x = input_217_cast_fp16)[name = tensor<string, []>("input_223_cast_fp16")];
            tensor<string, []> input_219_pad_type_0 = const()[name = tensor<string, []>("input_219_pad_type_0"), val = tensor<string, []>("valid")];
            tensor<int32, [2]> input_219_strides_0 = const()[name = tensor<string, []>("input_219_strides_0"), val = tensor<int32, [2]>([1, 1])];
            tensor<int32, [4]> input_219_pad_0 = const()[name = tensor<string, []>("input_219_pad_0"), val = tensor<int32, [4]>([0, 0, 0, 0])];
            tensor<int32, [2]> input_219_dilations_0 = const()[name = tensor<string, []>("input_219_dilations_0"), val = tensor<int32, [2]>([1, 1])];
            tensor<int32, []> input_219_groups_0 = const()[name = tensor<string, []>("input_219_groups_0"), val = tensor<int32, []>(1)];
            tensor<fp16, [128, 512, 1, 1]> const_100_to_fp16 = const()[name = tensor<string, []>("const_100_to_fp16"), val = tensor<fp16, [128, 512, 1, 1]>(BLOBFILE(path = tensor<string, []>("@model_path/weights/weight.bin"), offset = tensor<uint64, []>(8813312)))];
            tensor<fp16, [128]> const_101_to_fp16 = const()[name = tensor<string, []>("const_101_to_fp16"), val = tensor<fp16, [128]>(BLOBFILE(path = tensor<string, []>("@model_path/weights/weight.bin"), offset = tensor<uint64, []>(8944448)))];
            tensor<fp16, [1, 128, 40, 40]> input_221_cast_fp16 = conv(bias = const_101_to_fp16, dilations = input_219_dilations_0, groups = input_219_groups_0, pad = input_219_pad_0, pad_type = input_219_pad_type_0, strides = input_219_strides_0, weight = const_100_to_fp16, x = input_213_cast_fp16)[name = tensor<string, []>("input_221_cast_fp16")];
            tensor<fp16, [1, 128, 40, 40]> x_2_9_cast_fp16 = silu(x = input_221_cast_fp16)[name = tensor<string, []>("x_2_9_cast_fp16")];
            tensor<string, []> input_225_pad_type_0 = const()[name = tensor<string, []>("input_225_pad_type_0"), val = tensor<string, []>("valid")];
            tensor<int32, [2]> input_225_strides_0 = const()[name = tensor<string, []>("input_225_strides_0"), val = tensor<int32, [2]>([1, 1])];
            tensor<int32, [4]> input_225_pad_0 = const()[name = tensor<string, []>("input_225_pad_0"), val = tensor<int32, [4]>([0, 0, 0, 0])];
            tensor<int32, [2]> input_225_dilations_0 = const()[name = tensor<string, []>("input_225_dilations_0"), val = tensor<int32, [2]>([1, 1])];
            tensor<int32, []> input_225_groups_0 = const()[name = tensor<string, []>("input_225_groups_0"), val = tensor<int32, []>(1)];
            tensor<fp16, [128, 128, 1, 1]> const_102_to_fp16 = const()[name = tensor<string, []>("const_102_to_fp16"), val = tensor<fp16, [128, 128, 1, 1]>(BLOBFILE(path = tensor<string, []>("@model_path/weights/weight.bin"), offset = tensor<uint64, []>(8944768)))];
            tensor<fp16, [128]> const_103_to_fp16 = const()[name = tensor<string, []>("const_103_to_fp16"), val = tensor<fp16, [128]>(BLOBFILE(path = tensor<string, []>("@model_path/weights/weight.bin"), offset = tensor<uint64, []>(8977600)))];
            tensor<fp16, [1, 128, 40, 40]> input_227_cast_fp16 = conv(bias = const_103_to_fp16, dilations = input_225_dilations_0, groups = input_225_groups_0, pad = input_225_pad_0, pad_type = input_225_pad_type_0, strides = input_225_strides_0, weight = const_102_to_fp16, x = input_223_cast_fp16)[name = tensor<string, []>("input_227_cast_fp16")];
            tensor<fp16, [1, 128, 40, 40]> input_229_cast_fp16 = silu(x = input_227_cast_fp16)[name = tensor<string, []>("input_229_cast_fp16")];
            tensor<string, []> input_231_pad_type_0 = const()[name = tensor<string, []>("input_231_pad_type_0"), val = tensor<string, []>("custom")];
            tensor<int32, [4]> input_231_pad_0 = const()[name = tensor<string, []>("input_231_pad_0"), val = tensor<int32, [4]>([1, 1, 1, 1])];
            tensor<int32, [2]> input_231_strides_0 = const()[name = tensor<string, []>("input_231_strides_0"), val = tensor<int32, [2]>([1, 1])];
            tensor<int32, [2]> input_231_dilations_0 = const()[name = tensor<string, []>("input_231_dilations_0"), val = tensor<int32, [2]>([1, 1])];
            tensor<int32, []> input_231_groups_0 = const()[name = tensor<string, []>("input_231_groups_0"), val = tensor<int32, []>(1)];
            tensor<fp16, [128, 128, 3, 3]> const_104_to_fp16 = const()[name = tensor<string, []>("const_104_to_fp16"), val = tensor<fp16, [128, 128, 3, 3]>(BLOBFILE(path = tensor<string, []>("@model_path/weights/weight.bin"), offset = tensor<uint64, []>(8977920)))];
            tensor<fp16, [128]> const_105_to_fp16 = const()[name = tensor<string, []>("const_105_to_fp16"), val = tensor<fp16, [128]>(BLOBFILE(path = tensor<string, []>("@model_path/weights/weight.bin"), offset = tensor<uint64, []>(9272896)))];
            tensor<fp16, [1, 128, 40, 40]> input_233_cast_fp16 = conv(bias = const_105_to_fp16, dilations = input_231_dilations_0, groups = input_231_groups_0, pad = input_231_pad_0, pad_type = input_231_pad_type_0, strides = input_231_strides_0, weight = const_104_to_fp16, x = input_229_cast_fp16)[name = tensor<string, []>("input_233_cast_fp16")];
            tensor<fp16, [1, 128, 40, 40]> x_1_9_cast_fp16 = silu(x = input_233_cast_fp16)[name = tensor<string, []>("x_1_9_cast_fp16")];
            tensor<bool, []> input_235_interleave_0 = const()[name = tensor<string, []>("input_235_interleave_0"), val = tensor<bool, []>(false)];
            tensor<fp16, [1, 256, 40, 40]> input_235_cast_fp16 = concat(axis = var_10, interleave = input_235_interleave_0, values = (x_1_9_cast_fp16, x_2_9_cast_fp16))[name = tensor<string, []>("input_235_cast_fp16")];
            tensor<string, []> input_237_pad_type_0 = const()[name = tensor<string, []>("input_237_pad_type_0"), val = tensor<string, []>("valid")];
            tensor<int32, [2]> input_237_strides_0 = const()[name = tensor<string, []>("input_237_strides_0"), val = tensor<int32, [2]>([1, 1])];
            tensor<int32, [4]> input_237_pad_0 = const()[name = tensor<string, []>("input_237_pad_0"), val = tensor<int32, [4]>([0, 0, 0, 0])];
            tensor<int32, [2]> input_237_dilations_0 = const()[name = tensor<string, []>("input_237_dilations_0"), val = tensor<int32, [2]>([1, 1])];
            tensor<int32, []> input_237_groups_0 = const()[name = tensor<string, []>("input_237_groups_0"), val = tensor<int32, []>(1)];
            tensor<fp16, [256, 256, 1, 1]> const_106_to_fp16 = const()[name = tensor<string, []>("const_106_to_fp16"), val = tensor<fp16, [256, 256, 1, 1]>(BLOBFILE(path = tensor<string, []>("@model_path/weights/weight.bin"), offset = tensor<uint64, []>(9273216)))];
            tensor<fp16, [256]> const_107_to_fp16 = const()[name = tensor<string, []>("const_107_to_fp16"), val = tensor<fp16, [256]>(BLOBFILE(path = tensor<string, []>("@model_path/weights/weight.bin"), offset = tensor<uint64, []>(9404352)))];
            tensor<fp16, [1, 256, 40, 40]> input_239_cast_fp16 = conv(bias = const_107_to_fp16, dilations = input_237_dilations_0, groups = input_237_groups_0, pad = input_237_pad_0, pad_type = input_237_pad_type_0, strides = input_237_strides_0, weight = const_106_to_fp16, x = input_235_cast_fp16)[name = tensor<string, []>("input_239_cast_fp16")];
            tensor<fp16, [1, 256, 40, 40]> input_241_cast_fp16 = silu(x = input_239_cast_fp16)[name = tensor<string, []>("input_241_cast_fp16")];
            tensor<string, []> input_243_pad_type_0 = const()[name = tensor<string, []>("input_243_pad_type_0"), val = tensor<string, []>("valid")];
            tensor<int32, [2]> input_243_strides_0 = const()[name = tensor<string, []>("input_243_strides_0"), val = tensor<int32, [2]>([1, 1])];
            tensor<int32, [4]> input_243_pad_0 = const()[name = tensor<string, []>("input_243_pad_0"), val = tensor<int32, [4]>([0, 0, 0, 0])];
            tensor<int32, [2]> input_243_dilations_0 = const()[name = tensor<string, []>("input_243_dilations_0"), val = tensor<int32, [2]>([1, 1])];
            tensor<int32, []> input_243_groups_0 = const()[name = tensor<string, []>("input_243_groups_0"), val = tensor<int32, []>(1)];
            tensor<fp16, [128, 256, 1, 1]> const_108_to_fp16 = const()[name = tensor<string, []>("const_108_to_fp16"), val = tensor<fp16, [128, 256, 1, 1]>(BLOBFILE(path = tensor<string, []>("@model_path/weights/weight.bin"), offset = tensor<uint64, []>(9404928)))];
            tensor<fp16, [128]> const_109_to_fp16 = const()[name = tensor<string, []>("const_109_to_fp16"), val = tensor<fp16, [128]>(BLOBFILE(path = tensor<string, []>("@model_path/weights/weight.bin"), offset = tensor<uint64, []>(9470528)))];
            tensor<fp16, [1, 128, 40, 40]> input_245_cast_fp16 = conv(bias = const_109_to_fp16, dilations = input_243_dilations_0, groups = input_243_groups_0, pad = input_243_pad_0, pad_type = input_243_pad_type_0, strides = input_243_strides_0, weight = const_108_to_fp16, x = input_241_cast_fp16)[name = tensor<string, []>("input_245_cast_fp16")];
            tensor<fp16, [1, 128, 40, 40]> input_247_cast_fp16 = silu(x = input_245_cast_fp16)[name = tensor<string, []>("input_247_cast_fp16")];
            tensor<fp32, []> f_out1_scale_factor_height_0 = const()[name = tensor<string, []>("f_out1_scale_factor_height_0"), val = tensor<fp32, []>(0x1p+1)];
            tensor<fp32, []> f_out1_scale_factor_width_0 = const()[name = tensor<string, []>("f_out1_scale_factor_width_0"), val = tensor<fp32, []>(0x1p+1)];
            tensor<fp16, [1, 128, 80, 80]> f_out1_cast_fp16 = upsample_nearest_neighbor(scale_factor_height = f_out1_scale_factor_height_0, scale_factor_width = f_out1_scale_factor_width_0, x = input_247_cast_fp16)[name = tensor<string, []>("f_out1_cast_fp16")];
            tensor<bool, []> input_249_interleave_0 = const()[name = tensor<string, []>("input_249_interleave_0"), val = tensor<bool, []>(false)];
            tensor<fp16, [1, 256, 80, 80]> input_249_cast_fp16 = concat(axis = var_10, interleave = input_249_interleave_0, values = (f_out1_cast_fp16, input_99_cast_fp16))[name = tensor<string, []>("input_249_cast_fp16")];
            tensor<string, []> input_251_pad_type_0 = const()[name = tensor<string, []>("input_251_pad_type_0"), val = tensor<string, []>("valid")];
            tensor<int32, [2]> input_251_strides_0 = const()[name = tensor<string, []>("input_251_strides_0"), val = tensor<int32, [2]>([1, 1])];
            tensor<int32, [4]> input_251_pad_0 = const()[name = tensor<string, []>("input_251_pad_0"), val = tensor<int32, [4]>([0, 0, 0, 0])];
            tensor<int32, [2]> input_251_dilations_0 = const()[name = tensor<string, []>("input_251_dilations_0"), val = tensor<int32, [2]>([1, 1])];
            tensor<int32, []> input_251_groups_0 = const()[name = tensor<string, []>("input_251_groups_0"), val = tensor<int32, []>(1)];
            tensor<fp16, [64, 256, 1, 1]> const_110_to_fp16 = const()[name = tensor<string, []>("const_110_to_fp16"), val = tensor<fp16, [64, 256, 1, 1]>(BLOBFILE(path = tensor<string, []>("@model_path/weights/weight.bin"), offset = tensor<uint64, []>(9470848)))];
            tensor<fp16, [64]> const_111_to_fp16 = const()[name = tensor<string, []>("const_111_to_fp16"), val = tensor<fp16, [64]>(BLOBFILE(path = tensor<string, []>("@model_path/weights/weight.bin"), offset = tensor<uint64, []>(9503680)))];
            tensor<fp16, [1, 64, 80, 80]> input_253_cast_fp16 = conv(bias = const_111_to_fp16, dilations = input_251_dilations_0, groups = input_251_groups_0, pad = input_251_pad_0, pad_type = input_251_pad_type_0, strides = input_251_strides_0, weight = const_110_to_fp16, x = input_249_cast_fp16)[name = tensor<string, []>("input_253_cast_fp16")];
            tensor<fp16, [1, 64, 80, 80]> input_259_cast_fp16 = silu(x = input_253_cast_fp16)[name = tensor<string, []>("input_259_cast_fp16")];
            tensor<string, []> input_255_pad_type_0 = const()[name = tensor<string, []>("input_255_pad_type_0"), val = tensor<string, []>("valid")];
            tensor<int32, [2]> input_255_strides_0 = const()[name = tensor<string, []>("input_255_strides_0"), val = tensor<int32, [2]>([1, 1])];
            tensor<int32, [4]> input_255_pad_0 = const()[name = tensor<string, []>("input_255_pad_0"), val = tensor<int32, [4]>([0, 0, 0, 0])];
            tensor<int32, [2]> input_255_dilations_0 = const()[name = tensor<string, []>("input_255_dilations_0"), val = tensor<int32, [2]>([1, 1])];
            tensor<int32, []> input_255_groups_0 = const()[name = tensor<string, []>("input_255_groups_0"), val = tensor<int32, []>(1)];
            tensor<fp16, [64, 256, 1, 1]> const_112_to_fp16 = const()[name = tensor<string, []>("const_112_to_fp16"), val = tensor<fp16, [64, 256, 1, 1]>(BLOBFILE(path = tensor<string, []>("@model_path/weights/weight.bin"), offset = tensor<uint64, []>(9503872)))];
            tensor<fp16, [64]> const_113_to_fp16 = const()[name = tensor<string, []>("const_113_to_fp16"), val = tensor<fp16, [64]>(BLOBFILE(path = tensor<string, []>("@model_path/weights/weight.bin"), offset = tensor<uint64, []>(9536704)))];
            tensor<fp16, [1, 64, 80, 80]> input_257_cast_fp16 = conv(bias = const_113_to_fp16, dilations = input_255_dilations_0, groups = input_255_groups_0, pad = input_255_pad_0, pad_type = input_255_pad_type_0, strides = input_255_strides_0, weight = const_112_to_fp16, x = input_249_cast_fp16)[name = tensor<string, []>("input_257_cast_fp16")];
            tensor<fp16, [1, 64, 80, 80]> x_2_11_cast_fp16 = silu(x = input_257_cast_fp16)[name = tensor<string, []>("x_2_11_cast_fp16")];
            tensor<string, []> input_261_pad_type_0 = const()[name = tensor<string, []>("input_261_pad_type_0"), val = tensor<string, []>("valid")];
            tensor<int32, [2]> input_261_strides_0 = const()[name = tensor<string, []>("input_261_strides_0"), val = tensor<int32, [2]>([1, 1])];
            tensor<int32, [4]> input_261_pad_0 = const()[name = tensor<string, []>("input_261_pad_0"), val = tensor<int32, [4]>([0, 0, 0, 0])];
            tensor<int32, [2]> input_261_dilations_0 = const()[name = tensor<string, []>("input_261_dilations_0"), val = tensor<int32, [2]>([1, 1])];
            tensor<int32, []> input_261_groups_0 = const()[name = tensor<string, []>("input_261_groups_0"), val = tensor<int32, []>(1)];
            tensor<fp16, [64, 64, 1, 1]> const_114_to_fp16 = const()[name = tensor<string, []>("const_114_to_fp16"), val = tensor<fp16, [64, 64, 1, 1]>(BLOBFILE(path = tensor<string, []>("@model_path/weights/weight.bin"), offset = tensor<uint64, []>(9536896)))];
            tensor<fp16, [64]> const_115_to_fp16 = const()[name = tensor<string, []>("const_115_to_fp16"), val = tensor<fp16, [64]>(BLOBFILE(path = tensor<string, []>("@model_path/weights/weight.bin"), offset = tensor<uint64, []>(9545152)))];
            tensor<fp16, [1, 64, 80, 80]> input_263_cast_fp16 = conv(bias = const_115_to_fp16, dilations = input_261_dilations_0, groups = input_261_groups_0, pad = input_261_pad_0, pad_type = input_261_pad_type_0, strides = input_261_strides_0, weight = const_114_to_fp16, x = input_259_cast_fp16)[name = tensor<string, []>("input_263_cast_fp16")];
            tensor<fp16, [1, 64, 80, 80]> input_265_cast_fp16 = silu(x = input_263_cast_fp16)[name = tensor<string, []>("input_265_cast_fp16")];
            tensor<string, []> input_267_pad_type_0 = const()[name = tensor<string, []>("input_267_pad_type_0"), val = tensor<string, []>("custom")];
            tensor<int32, [4]> input_267_pad_0 = const()[name = tensor<string, []>("input_267_pad_0"), val = tensor<int32, [4]>([1, 1, 1, 1])];
            tensor<int32, [2]> input_267_strides_0 = const()[name = tensor<string, []>("input_267_strides_0"), val = tensor<int32, [2]>([1, 1])];
            tensor<int32, [2]> input_267_dilations_0 = const()[name = tensor<string, []>("input_267_dilations_0"), val = tensor<int32, [2]>([1, 1])];
            tensor<int32, []> input_267_groups_0 = const()[name = tensor<string, []>("input_267_groups_0"), val = tensor<int32, []>(1)];
            tensor<fp16, [64, 64, 3, 3]> const_116_to_fp16 = const()[name = tensor<string, []>("const_116_to_fp16"), val = tensor<fp16, [64, 64, 3, 3]>(BLOBFILE(path = tensor<string, []>("@model_path/weights/weight.bin"), offset = tensor<uint64, []>(9545344)))];
            tensor<fp16, [64]> const_117_to_fp16 = const()[name = tensor<string, []>("const_117_to_fp16"), val = tensor<fp16, [64]>(BLOBFILE(path = tensor<string, []>("@model_path/weights/weight.bin"), offset = tensor<uint64, []>(9619136)))];
            tensor<fp16, [1, 64, 80, 80]> input_269_cast_fp16 = conv(bias = const_117_to_fp16, dilations = input_267_dilations_0, groups = input_267_groups_0, pad = input_267_pad_0, pad_type = input_267_pad_type_0, strides = input_267_strides_0, weight = const_116_to_fp16, x = input_265_cast_fp16)[name = tensor<string, []>("input_269_cast_fp16")];
            tensor<fp16, [1, 64, 80, 80]> x_1_11_cast_fp16 = silu(x = input_269_cast_fp16)[name = tensor<string, []>("x_1_11_cast_fp16")];
            tensor<bool, []> input_271_interleave_0 = const()[name = tensor<string, []>("input_271_interleave_0"), val = tensor<bool, []>(false)];
            tensor<fp16, [1, 128, 80, 80]> input_271_cast_fp16 = concat(axis = var_10, interleave = input_271_interleave_0, values = (x_1_11_cast_fp16, x_2_11_cast_fp16))[name = tensor<string, []>("input_271_cast_fp16")];
            tensor<string, []> input_273_pad_type_0 = const()[name = tensor<string, []>("input_273_pad_type_0"), val = tensor<string, []>("valid")];
            tensor<int32, [2]> input_273_strides_0 = const()[name = tensor<string, []>("input_273_strides_0"), val = tensor<int32, [2]>([1, 1])];
            tensor<int32, [4]> input_273_pad_0 = const()[name = tensor<string, []>("input_273_pad_0"), val = tensor<int32, [4]>([0, 0, 0, 0])];
            tensor<int32, [2]> input_273_dilations_0 = const()[name = tensor<string, []>("input_273_dilations_0"), val = tensor<int32, [2]>([1, 1])];
            tensor<int32, []> input_273_groups_0 = const()[name = tensor<string, []>("input_273_groups_0"), val = tensor<int32, []>(1)];
            tensor<fp16, [128, 128, 1, 1]> const_118_to_fp16 = const()[name = tensor<string, []>("const_118_to_fp16"), val = tensor<fp16, [128, 128, 1, 1]>(BLOBFILE(path = tensor<string, []>("@model_path/weights/weight.bin"), offset = tensor<uint64, []>(9619328)))];
            tensor<fp16, [128]> const_119_to_fp16 = const()[name = tensor<string, []>("const_119_to_fp16"), val = tensor<fp16, [128]>(BLOBFILE(path = tensor<string, []>("@model_path/weights/weight.bin"), offset = tensor<uint64, []>(9652160)))];
            tensor<fp16, [1, 128, 80, 80]> input_275_cast_fp16 = conv(bias = const_119_to_fp16, dilations = input_273_dilations_0, groups = input_273_groups_0, pad = input_273_pad_0, pad_type = input_273_pad_type_0, strides = input_273_strides_0, weight = const_118_to_fp16, x = input_271_cast_fp16)[name = tensor<string, []>("input_275_cast_fp16")];
            tensor<fp16, [1, 128, 80, 80]> input_277_cast_fp16 = silu(x = input_275_cast_fp16)[name = tensor<string, []>("input_277_cast_fp16")];
            tensor<string, []> input_279_pad_type_0 = const()[name = tensor<string, []>("input_279_pad_type_0"), val = tensor<string, []>("custom")];
            tensor<int32, [4]> input_279_pad_0 = const()[name = tensor<string, []>("input_279_pad_0"), val = tensor<int32, [4]>([1, 1, 1, 1])];
            tensor<int32, [2]> input_279_strides_0 = const()[name = tensor<string, []>("input_279_strides_0"), val = tensor<int32, [2]>([2, 2])];
            tensor<int32, [2]> input_279_dilations_0 = const()[name = tensor<string, []>("input_279_dilations_0"), val = tensor<int32, [2]>([1, 1])];
            tensor<int32, []> input_279_groups_0 = const()[name = tensor<string, []>("input_279_groups_0"), val = tensor<int32, []>(1)];
            tensor<fp16, [128, 128, 3, 3]> const_120_to_fp16 = const()[name = tensor<string, []>("const_120_to_fp16"), val = tensor<fp16, [128, 128, 3, 3]>(BLOBFILE(path = tensor<string, []>("@model_path/weights/weight.bin"), offset = tensor<uint64, []>(9652480)))];
            tensor<fp16, [128]> const_121_to_fp16 = const()[name = tensor<string, []>("const_121_to_fp16"), val = tensor<fp16, [128]>(BLOBFILE(path = tensor<string, []>("@model_path/weights/weight.bin"), offset = tensor<uint64, []>(9947456)))];
            tensor<fp16, [1, 128, 40, 40]> input_281_cast_fp16 = conv(bias = const_121_to_fp16, dilations = input_279_dilations_0, groups = input_279_groups_0, pad = input_279_pad_0, pad_type = input_279_pad_type_0, strides = input_279_strides_0, weight = const_120_to_fp16, x = input_277_cast_fp16)[name = tensor<string, []>("input_281_cast_fp16")];
            tensor<fp16, [1, 128, 40, 40]> p_out1_cast_fp16 = silu(x = input_281_cast_fp16)[name = tensor<string, []>("p_out1_cast_fp16")];
            tensor<bool, []> input_283_interleave_0 = const()[name = tensor<string, []>("input_283_interleave_0"), val = tensor<bool, []>(false)];
            tensor<fp16, [1, 256, 40, 40]> input_283_cast_fp16 = concat(axis = var_10, interleave = input_283_interleave_0, values = (p_out1_cast_fp16, input_247_cast_fp16))[name = tensor<string, []>("input_283_cast_fp16")];
            tensor<string, []> input_285_pad_type_0 = const()[name = tensor<string, []>("input_285_pad_type_0"), val = tensor<string, []>("valid")];
            tensor<int32, [2]> input_285_strides_0 = const()[name = tensor<string, []>("input_285_strides_0"), val = tensor<int32, [2]>([1, 1])];
            tensor<int32, [4]> input_285_pad_0 = const()[name = tensor<string, []>("input_285_pad_0"), val = tensor<int32, [4]>([0, 0, 0, 0])];
            tensor<int32, [2]> input_285_dilations_0 = const()[name = tensor<string, []>("input_285_dilations_0"), val = tensor<int32, [2]>([1, 1])];
            tensor<int32, []> input_285_groups_0 = const()[name = tensor<string, []>("input_285_groups_0"), val = tensor<int32, []>(1)];
            tensor<fp16, [128, 256, 1, 1]> const_122_to_fp16 = const()[name = tensor<string, []>("const_122_to_fp16"), val = tensor<fp16, [128, 256, 1, 1]>(BLOBFILE(path = tensor<string, []>("@model_path/weights/weight.bin"), offset = tensor<uint64, []>(9947776)))];
            tensor<fp16, [128]> const_123_to_fp16 = const()[name = tensor<string, []>("const_123_to_fp16"), val = tensor<fp16, [128]>(BLOBFILE(path = tensor<string, []>("@model_path/weights/weight.bin"), offset = tensor<uint64, []>(10013376)))];
            tensor<fp16, [1, 128, 40, 40]> input_287_cast_fp16 = conv(bias = const_123_to_fp16, dilations = input_285_dilations_0, groups = input_285_groups_0, pad = input_285_pad_0, pad_type = input_285_pad_type_0, strides = input_285_strides_0, weight = const_122_to_fp16, x = input_283_cast_fp16)[name = tensor<string, []>("input_287_cast_fp16")];
            tensor<fp16, [1, 128, 40, 40]> input_293_cast_fp16 = silu(x = input_287_cast_fp16)[name = tensor<string, []>("input_293_cast_fp16")];
            tensor<string, []> input_289_pad_type_0 = const()[name = tensor<string, []>("input_289_pad_type_0"), val = tensor<string, []>("valid")];
            tensor<int32, [2]> input_289_strides_0 = const()[name = tensor<string, []>("input_289_strides_0"), val = tensor<int32, [2]>([1, 1])];
            tensor<int32, [4]> input_289_pad_0 = const()[name = tensor<string, []>("input_289_pad_0"), val = tensor<int32, [4]>([0, 0, 0, 0])];
            tensor<int32, [2]> input_289_dilations_0 = const()[name = tensor<string, []>("input_289_dilations_0"), val = tensor<int32, [2]>([1, 1])];
            tensor<int32, []> input_289_groups_0 = const()[name = tensor<string, []>("input_289_groups_0"), val = tensor<int32, []>(1)];
            tensor<fp16, [128, 256, 1, 1]> const_124_to_fp16 = const()[name = tensor<string, []>("const_124_to_fp16"), val = tensor<fp16, [128, 256, 1, 1]>(BLOBFILE(path = tensor<string, []>("@model_path/weights/weight.bin"), offset = tensor<uint64, []>(10013696)))];
            tensor<fp16, [128]> const_125_to_fp16 = const()[name = tensor<string, []>("const_125_to_fp16"), val = tensor<fp16, [128]>(BLOBFILE(path = tensor<string, []>("@model_path/weights/weight.bin"), offset = tensor<uint64, []>(10079296)))];
            tensor<fp16, [1, 128, 40, 40]> input_291_cast_fp16 = conv(bias = const_125_to_fp16, dilations = input_289_dilations_0, groups = input_289_groups_0, pad = input_289_pad_0, pad_type = input_289_pad_type_0, strides = input_289_strides_0, weight = const_124_to_fp16, x = input_283_cast_fp16)[name = tensor<string, []>("input_291_cast_fp16")];
            tensor<fp16, [1, 128, 40, 40]> x_2_13_cast_fp16 = silu(x = input_291_cast_fp16)[name = tensor<string, []>("x_2_13_cast_fp16")];
            tensor<string, []> input_295_pad_type_0 = const()[name = tensor<string, []>("input_295_pad_type_0"), val = tensor<string, []>("valid")];
            tensor<int32, [2]> input_295_strides_0 = const()[name = tensor<string, []>("input_295_strides_0"), val = tensor<int32, [2]>([1, 1])];
            tensor<int32, [4]> input_295_pad_0 = const()[name = tensor<string, []>("input_295_pad_0"), val = tensor<int32, [4]>([0, 0, 0, 0])];
            tensor<int32, [2]> input_295_dilations_0 = const()[name = tensor<string, []>("input_295_dilations_0"), val = tensor<int32, [2]>([1, 1])];
            tensor<int32, []> input_295_groups_0 = const()[name = tensor<string, []>("input_295_groups_0"), val = tensor<int32, []>(1)];
            tensor<fp16, [128, 128, 1, 1]> const_126_to_fp16 = const()[name = tensor<string, []>("const_126_to_fp16"), val = tensor<fp16, [128, 128, 1, 1]>(BLOBFILE(path = tensor<string, []>("@model_path/weights/weight.bin"), offset = tensor<uint64, []>(10079616)))];
            tensor<fp16, [128]> const_127_to_fp16 = const()[name = tensor<string, []>("const_127_to_fp16"), val = tensor<fp16, [128]>(BLOBFILE(path = tensor<string, []>("@model_path/weights/weight.bin"), offset = tensor<uint64, []>(10112448)))];
            tensor<fp16, [1, 128, 40, 40]> input_297_cast_fp16 = conv(bias = const_127_to_fp16, dilations = input_295_dilations_0, groups = input_295_groups_0, pad = input_295_pad_0, pad_type = input_295_pad_type_0, strides = input_295_strides_0, weight = const_126_to_fp16, x = input_293_cast_fp16)[name = tensor<string, []>("input_297_cast_fp16")];
            tensor<fp16, [1, 128, 40, 40]> input_299_cast_fp16 = silu(x = input_297_cast_fp16)[name = tensor<string, []>("input_299_cast_fp16")];
            tensor<string, []> input_301_pad_type_0 = const()[name = tensor<string, []>("input_301_pad_type_0"), val = tensor<string, []>("custom")];
            tensor<int32, [4]> input_301_pad_0 = const()[name = tensor<string, []>("input_301_pad_0"), val = tensor<int32, [4]>([1, 1, 1, 1])];
            tensor<int32, [2]> input_301_strides_0 = const()[name = tensor<string, []>("input_301_strides_0"), val = tensor<int32, [2]>([1, 1])];
            tensor<int32, [2]> input_301_dilations_0 = const()[name = tensor<string, []>("input_301_dilations_0"), val = tensor<int32, [2]>([1, 1])];
            tensor<int32, []> input_301_groups_0 = const()[name = tensor<string, []>("input_301_groups_0"), val = tensor<int32, []>(1)];
            tensor<fp16, [128, 128, 3, 3]> const_128_to_fp16 = const()[name = tensor<string, []>("const_128_to_fp16"), val = tensor<fp16, [128, 128, 3, 3]>(BLOBFILE(path = tensor<string, []>("@model_path/weights/weight.bin"), offset = tensor<uint64, []>(10112768)))];
            tensor<fp16, [128]> const_129_to_fp16 = const()[name = tensor<string, []>("const_129_to_fp16"), val = tensor<fp16, [128]>(BLOBFILE(path = tensor<string, []>("@model_path/weights/weight.bin"), offset = tensor<uint64, []>(10407744)))];
            tensor<fp16, [1, 128, 40, 40]> input_303_cast_fp16 = conv(bias = const_129_to_fp16, dilations = input_301_dilations_0, groups = input_301_groups_0, pad = input_301_pad_0, pad_type = input_301_pad_type_0, strides = input_301_strides_0, weight = const_128_to_fp16, x = input_299_cast_fp16)[name = tensor<string, []>("input_303_cast_fp16")];
            tensor<fp16, [1, 128, 40, 40]> x_1_13_cast_fp16 = silu(x = input_303_cast_fp16)[name = tensor<string, []>("x_1_13_cast_fp16")];
            tensor<bool, []> input_305_interleave_0 = const()[name = tensor<string, []>("input_305_interleave_0"), val = tensor<bool, []>(false)];
            tensor<fp16, [1, 256, 40, 40]> input_305_cast_fp16 = concat(axis = var_10, interleave = input_305_interleave_0, values = (x_1_13_cast_fp16, x_2_13_cast_fp16))[name = tensor<string, []>("input_305_cast_fp16")];
            tensor<string, []> input_307_pad_type_0 = const()[name = tensor<string, []>("input_307_pad_type_0"), val = tensor<string, []>("valid")];
            tensor<int32, [2]> input_307_strides_0 = const()[name = tensor<string, []>("input_307_strides_0"), val = tensor<int32, [2]>([1, 1])];
            tensor<int32, [4]> input_307_pad_0 = const()[name = tensor<string, []>("input_307_pad_0"), val = tensor<int32, [4]>([0, 0, 0, 0])];
            tensor<int32, [2]> input_307_dilations_0 = const()[name = tensor<string, []>("input_307_dilations_0"), val = tensor<int32, [2]>([1, 1])];
            tensor<int32, []> input_307_groups_0 = const()[name = tensor<string, []>("input_307_groups_0"), val = tensor<int32, []>(1)];
            tensor<fp16, [256, 256, 1, 1]> const_130_to_fp16 = const()[name = tensor<string, []>("const_130_to_fp16"), val = tensor<fp16, [256, 256, 1, 1]>(BLOBFILE(path = tensor<string, []>("@model_path/weights/weight.bin"), offset = tensor<uint64, []>(10408064)))];
            tensor<fp16, [256]> const_131_to_fp16 = const()[name = tensor<string, []>("const_131_to_fp16"), val = tensor<fp16, [256]>(BLOBFILE(path = tensor<string, []>("@model_path/weights/weight.bin"), offset = tensor<uint64, []>(10539200)))];
            tensor<fp16, [1, 256, 40, 40]> input_309_cast_fp16 = conv(bias = const_131_to_fp16, dilations = input_307_dilations_0, groups = input_307_groups_0, pad = input_307_pad_0, pad_type = input_307_pad_type_0, strides = input_307_strides_0, weight = const_130_to_fp16, x = input_305_cast_fp16)[name = tensor<string, []>("input_309_cast_fp16")];
            tensor<fp16, [1, 256, 40, 40]> input_311_cast_fp16 = silu(x = input_309_cast_fp16)[name = tensor<string, []>("input_311_cast_fp16")];
            tensor<string, []> input_313_pad_type_0 = const()[name = tensor<string, []>("input_313_pad_type_0"), val = tensor<string, []>("custom")];
            tensor<int32, [4]> input_313_pad_0 = const()[name = tensor<string, []>("input_313_pad_0"), val = tensor<int32, [4]>([1, 1, 1, 1])];
            tensor<int32, [2]> input_313_strides_0 = const()[name = tensor<string, []>("input_313_strides_0"), val = tensor<int32, [2]>([2, 2])];
            tensor<int32, [2]> input_313_dilations_0 = const()[name = tensor<string, []>("input_313_dilations_0"), val = tensor<int32, [2]>([1, 1])];
            tensor<int32, []> input_313_groups_0 = const()[name = tensor<string, []>("input_313_groups_0"), val = tensor<int32, []>(1)];
            tensor<fp16, [256, 256, 3, 3]> const_132_to_fp16 = const()[name = tensor<string, []>("const_132_to_fp16"), val = tensor<fp16, [256, 256, 3, 3]>(BLOBFILE(path = tensor<string, []>("@model_path/weights/weight.bin"), offset = tensor<uint64, []>(10539776)))];
            tensor<fp16, [256]> const_133_to_fp16 = const()[name = tensor<string, []>("const_133_to_fp16"), val = tensor<fp16, [256]>(BLOBFILE(path = tensor<string, []>("@model_path/weights/weight.bin"), offset = tensor<uint64, []>(11719488)))];
            tensor<fp16, [1, 256, 20, 20]> input_315_cast_fp16 = conv(bias = const_133_to_fp16, dilations = input_313_dilations_0, groups = input_313_groups_0, pad = input_313_pad_0, pad_type = input_313_pad_type_0, strides = input_313_strides_0, weight = const_132_to_fp16, x = input_311_cast_fp16)[name = tensor<string, []>("input_315_cast_fp16")];
            tensor<fp16, [1, 256, 20, 20]> p_out0_cast_fp16 = silu(x = input_315_cast_fp16)[name = tensor<string, []>("p_out0_cast_fp16")];
            tensor<bool, []> input_317_interleave_0 = const()[name = tensor<string, []>("input_317_interleave_0"), val = tensor<bool, []>(false)];
            tensor<fp16, [1, 512, 20, 20]> input_317_cast_fp16 = concat(axis = var_10, interleave = input_317_interleave_0, values = (p_out0_cast_fp16, input_211_cast_fp16))[name = tensor<string, []>("input_317_cast_fp16")];
            tensor<string, []> input_319_pad_type_0 = const()[name = tensor<string, []>("input_319_pad_type_0"), val = tensor<string, []>("valid")];
            tensor<int32, [2]> input_319_strides_0 = const()[name = tensor<string, []>("input_319_strides_0"), val = tensor<int32, [2]>([1, 1])];
            tensor<int32, [4]> input_319_pad_0 = const()[name = tensor<string, []>("input_319_pad_0"), val = tensor<int32, [4]>([0, 0, 0, 0])];
            tensor<int32, [2]> input_319_dilations_0 = const()[name = tensor<string, []>("input_319_dilations_0"), val = tensor<int32, [2]>([1, 1])];
            tensor<int32, []> input_319_groups_0 = const()[name = tensor<string, []>("input_319_groups_0"), val = tensor<int32, []>(1)];
            tensor<fp16, [256, 512, 1, 1]> const_134_to_fp16 = const()[name = tensor<string, []>("const_134_to_fp16"), val = tensor<fp16, [256, 512, 1, 1]>(BLOBFILE(path = tensor<string, []>("@model_path/weights/weight.bin"), offset = tensor<uint64, []>(11720064)))];
            tensor<fp16, [256]> const_135_to_fp16 = const()[name = tensor<string, []>("const_135_to_fp16"), val = tensor<fp16, [256]>(BLOBFILE(path = tensor<string, []>("@model_path/weights/weight.bin"), offset = tensor<uint64, []>(11982272)))];
            tensor<fp16, [1, 256, 20, 20]> input_321_cast_fp16 = conv(bias = const_135_to_fp16, dilations = input_319_dilations_0, groups = input_319_groups_0, pad = input_319_pad_0, pad_type = input_319_pad_type_0, strides = input_319_strides_0, weight = const_134_to_fp16, x = input_317_cast_fp16)[name = tensor<string, []>("input_321_cast_fp16")];
            tensor<fp16, [1, 256, 20, 20]> input_327_cast_fp16 = silu(x = input_321_cast_fp16)[name = tensor<string, []>("input_327_cast_fp16")];
            tensor<string, []> input_323_pad_type_0 = const()[name = tensor<string, []>("input_323_pad_type_0"), val = tensor<string, []>("valid")];
            tensor<int32, [2]> input_323_strides_0 = const()[name = tensor<string, []>("input_323_strides_0"), val = tensor<int32, [2]>([1, 1])];
            tensor<int32, [4]> input_323_pad_0 = const()[name = tensor<string, []>("input_323_pad_0"), val = tensor<int32, [4]>([0, 0, 0, 0])];
            tensor<int32, [2]> input_323_dilations_0 = const()[name = tensor<string, []>("input_323_dilations_0"), val = tensor<int32, [2]>([1, 1])];
            tensor<int32, []> input_323_groups_0 = const()[name = tensor<string, []>("input_323_groups_0"), val = tensor<int32, []>(1)];
            tensor<fp16, [256, 512, 1, 1]> const_136_to_fp16 = const()[name = tensor<string, []>("const_136_to_fp16"), val = tensor<fp16, [256, 512, 1, 1]>(BLOBFILE(path = tensor<string, []>("@model_path/weights/weight.bin"), offset = tensor<uint64, []>(11982848)))];
            tensor<fp16, [256]> const_137_to_fp16 = const()[name = tensor<string, []>("const_137_to_fp16"), val = tensor<fp16, [256]>(BLOBFILE(path = tensor<string, []>("@model_path/weights/weight.bin"), offset = tensor<uint64, []>(12245056)))];
            tensor<fp16, [1, 256, 20, 20]> input_325_cast_fp16 = conv(bias = const_137_to_fp16, dilations = input_323_dilations_0, groups = input_323_groups_0, pad = input_323_pad_0, pad_type = input_323_pad_type_0, strides = input_323_strides_0, weight = const_136_to_fp16, x = input_317_cast_fp16)[name = tensor<string, []>("input_325_cast_fp16")];
            tensor<fp16, [1, 256, 20, 20]> x_2_cast_fp16 = silu(x = input_325_cast_fp16)[name = tensor<string, []>("x_2_cast_fp16")];
            tensor<string, []> input_329_pad_type_0 = const()[name = tensor<string, []>("input_329_pad_type_0"), val = tensor<string, []>("valid")];
            tensor<int32, [2]> input_329_strides_0 = const()[name = tensor<string, []>("input_329_strides_0"), val = tensor<int32, [2]>([1, 1])];
            tensor<int32, [4]> input_329_pad_0 = const()[name = tensor<string, []>("input_329_pad_0"), val = tensor<int32, [4]>([0, 0, 0, 0])];
            tensor<int32, [2]> input_329_dilations_0 = const()[name = tensor<string, []>("input_329_dilations_0"), val = tensor<int32, [2]>([1, 1])];
            tensor<int32, []> input_329_groups_0 = const()[name = tensor<string, []>("input_329_groups_0"), val = tensor<int32, []>(1)];
            tensor<fp16, [256, 256, 1, 1]> const_138_to_fp16 = const()[name = tensor<string, []>("const_138_to_fp16"), val = tensor<fp16, [256, 256, 1, 1]>(BLOBFILE(path = tensor<string, []>("@model_path/weights/weight.bin"), offset = tensor<uint64, []>(12245632)))];
            tensor<fp16, [256]> const_139_to_fp16 = const()[name = tensor<string, []>("const_139_to_fp16"), val = tensor<fp16, [256]>(BLOBFILE(path = tensor<string, []>("@model_path/weights/weight.bin"), offset = tensor<uint64, []>(12376768)))];
            tensor<fp16, [1, 256, 20, 20]> input_331_cast_fp16 = conv(bias = const_139_to_fp16, dilations = input_329_dilations_0, groups = input_329_groups_0, pad = input_329_pad_0, pad_type = input_329_pad_type_0, strides = input_329_strides_0, weight = const_138_to_fp16, x = input_327_cast_fp16)[name = tensor<string, []>("input_331_cast_fp16")];
            tensor<fp16, [1, 256, 20, 20]> input_333_cast_fp16 = silu(x = input_331_cast_fp16)[name = tensor<string, []>("input_333_cast_fp16")];
            tensor<string, []> input_335_pad_type_0 = const()[name = tensor<string, []>("input_335_pad_type_0"), val = tensor<string, []>("custom")];
            tensor<int32, [4]> input_335_pad_0 = const()[name = tensor<string, []>("input_335_pad_0"), val = tensor<int32, [4]>([1, 1, 1, 1])];
            tensor<int32, [2]> input_335_strides_0 = const()[name = tensor<string, []>("input_335_strides_0"), val = tensor<int32, [2]>([1, 1])];
            tensor<int32, [2]> input_335_dilations_0 = const()[name = tensor<string, []>("input_335_dilations_0"), val = tensor<int32, [2]>([1, 1])];
            tensor<int32, []> input_335_groups_0 = const()[name = tensor<string, []>("input_335_groups_0"), val = tensor<int32, []>(1)];
            tensor<fp16, [256, 256, 3, 3]> const_140_to_fp16 = const()[name = tensor<string, []>("const_140_to_fp16"), val = tensor<fp16, [256, 256, 3, 3]>(BLOBFILE(path = tensor<string, []>("@model_path/weights/weight.bin"), offset = tensor<uint64, []>(12377344)))];
            tensor<fp16, [256]> const_141_to_fp16 = const()[name = tensor<string, []>("const_141_to_fp16"), val = tensor<fp16, [256]>(BLOBFILE(path = tensor<string, []>("@model_path/weights/weight.bin"), offset = tensor<uint64, []>(13557056)))];
            tensor<fp16, [1, 256, 20, 20]> input_337_cast_fp16 = conv(bias = const_141_to_fp16, dilations = input_335_dilations_0, groups = input_335_groups_0, pad = input_335_pad_0, pad_type = input_335_pad_type_0, strides = input_335_strides_0, weight = const_140_to_fp16, x = input_333_cast_fp16)[name = tensor<string, []>("input_337_cast_fp16")];
            tensor<fp16, [1, 256, 20, 20]> x_1_cast_fp16 = silu(x = input_337_cast_fp16)[name = tensor<string, []>("x_1_cast_fp16")];
            tensor<bool, []> input_339_interleave_0 = const()[name = tensor<string, []>("input_339_interleave_0"), val = tensor<bool, []>(false)];
            tensor<fp16, [1, 512, 20, 20]> input_339_cast_fp16 = concat(axis = var_10, interleave = input_339_interleave_0, values = (x_1_cast_fp16, x_2_cast_fp16))[name = tensor<string, []>("input_339_cast_fp16")];
            tensor<string, []> input_341_pad_type_0 = const()[name = tensor<string, []>("input_341_pad_type_0"), val = tensor<string, []>("valid")];
            tensor<int32, [2]> input_341_strides_0 = const()[name = tensor<string, []>("input_341_strides_0"), val = tensor<int32, [2]>([1, 1])];
            tensor<int32, [4]> input_341_pad_0 = const()[name = tensor<string, []>("input_341_pad_0"), val = tensor<int32, [4]>([0, 0, 0, 0])];
            tensor<int32, [2]> input_341_dilations_0 = const()[name = tensor<string, []>("input_341_dilations_0"), val = tensor<int32, [2]>([1, 1])];
            tensor<int32, []> input_341_groups_0 = const()[name = tensor<string, []>("input_341_groups_0"), val = tensor<int32, []>(1)];
            tensor<fp16, [512, 512, 1, 1]> const_142_to_fp16 = const()[name = tensor<string, []>("const_142_to_fp16"), val = tensor<fp16, [512, 512, 1, 1]>(BLOBFILE(path = tensor<string, []>("@model_path/weights/weight.bin"), offset = tensor<uint64, []>(13557632)))];
            tensor<fp16, [512]> const_143_to_fp16 = const()[name = tensor<string, []>("const_143_to_fp16"), val = tensor<fp16, [512]>(BLOBFILE(path = tensor<string, []>("@model_path/weights/weight.bin"), offset = tensor<uint64, []>(14081984)))];
            tensor<fp16, [1, 512, 20, 20]> input_343_cast_fp16 = conv(bias = const_143_to_fp16, dilations = input_341_dilations_0, groups = input_341_groups_0, pad = input_341_pad_0, pad_type = input_341_pad_type_0, strides = input_341_strides_0, weight = const_142_to_fp16, x = input_339_cast_fp16)[name = tensor<string, []>("input_343_cast_fp16")];
            tensor<fp16, [1, 512, 20, 20]> input_405_cast_fp16 = silu(x = input_343_cast_fp16)[name = tensor<string, []>("input_405_cast_fp16")];
            tensor<int32, []> var_1018 = const()[name = tensor<string, []>("op_1018"), val = tensor<int32, []>(-1)];
            tensor<int32, []> var_1020 = const()[name = tensor<string, []>("op_1020"), val = tensor<int32, []>(2)];
            tensor<int32, []> var_1024 = const()[name = tensor<string, []>("op_1024"), val = tensor<int32, []>(1)];
            tensor<string, []> input_345_pad_type_0 = const()[name = tensor<string, []>("input_345_pad_type_0"), val = tensor<string, []>("valid")];
            tensor<int32, [2]> input_345_strides_0 = const()[name = tensor<string, []>("input_345_strides_0"), val = tensor<int32, [2]>([1, 1])];
            tensor<int32, [4]> input_345_pad_0 = const()[name = tensor<string, []>("input_345_pad_0"), val = tensor<int32, [4]>([0, 0, 0, 0])];
            tensor<int32, [2]> input_345_dilations_0 = const()[name = tensor<string, []>("input_345_dilations_0"), val = tensor<int32, [2]>([1, 1])];
            tensor<int32, []> input_345_groups_0 = const()[name = tensor<string, []>("input_345_groups_0"), val = tensor<int32, []>(1)];
            tensor<fp16, [128, 128, 1, 1]> const_144_to_fp16 = const()[name = tensor<string, []>("const_144_to_fp16"), val = tensor<fp16, [128, 128, 1, 1]>(BLOBFILE(path = tensor<string, []>("@model_path/weights/weight.bin"), offset = tensor<uint64, []>(14083072)))];
            tensor<fp16, [128]> const_145_to_fp16 = const()[name = tensor<string, []>("const_145_to_fp16"), val = tensor<fp16, [128]>(BLOBFILE(path = tensor<string, []>("@model_path/weights/weight.bin"), offset = tensor<uint64, []>(14115904)))];
            tensor<fp16, [1, 128, 80, 80]> input_347_cast_fp16 = conv(bias = const_145_to_fp16, dilations = input_345_dilations_0, groups = input_345_groups_0, pad = input_345_pad_0, pad_type = input_345_pad_type_0, strides = input_345_strides_0, weight = const_144_to_fp16, x = input_277_cast_fp16)[name = tensor<string, []>("input_347_cast_fp16")];
            tensor<fp16, [1, 128, 80, 80]> input_349_cast_fp16 = silu(x = input_347_cast_fp16)[name = tensor<string, []>("input_349_cast_fp16")];
            tensor<string, []> input_351_pad_type_0 = const()[name = tensor<string, []>("input_351_pad_type_0"), val = tensor<string, []>("custom")];
            tensor<int32, [4]> input_351_pad_0 = const()[name = tensor<string, []>("input_351_pad_0"), val = tensor<int32, [4]>([1, 1, 1, 1])];
            tensor<int32, [2]> input_351_strides_0 = const()[name = tensor<string, []>("input_351_strides_0"), val = tensor<int32, [2]>([1, 1])];
            tensor<int32, [2]> input_351_dilations_0 = const()[name = tensor<string, []>("input_351_dilations_0"), val = tensor<int32, [2]>([1, 1])];
            tensor<int32, []> input_351_groups_0 = const()[name = tensor<string, []>("input_351_groups_0"), val = tensor<int32, []>(1)];
            tensor<fp16, [128, 128, 3, 3]> const_146_to_fp16 = const()[name = tensor<string, []>("const_146_to_fp16"), val = tensor<fp16, [128, 128, 3, 3]>(BLOBFILE(path = tensor<string, []>("@model_path/weights/weight.bin"), offset = tensor<uint64, []>(14116224)))];
            tensor<fp16, [128]> const_147_to_fp16 = const()[name = tensor<string, []>("const_147_to_fp16"), val = tensor<fp16, [128]>(BLOBFILE(path = tensor<string, []>("@model_path/weights/weight.bin"), offset = tensor<uint64, []>(14411200)))];
            tensor<fp16, [1, 128, 80, 80]> input_353_cast_fp16 = conv(bias = const_147_to_fp16, dilations = input_351_dilations_0, groups = input_351_groups_0, pad = input_351_pad_0, pad_type = input_351_pad_type_0, strides = input_351_strides_0, weight = const_146_to_fp16, x = input_349_cast_fp16)[name = tensor<string, []>("input_353_cast_fp16")];
            tensor<fp16, [1, 128, 80, 80]> input_355_cast_fp16 = silu(x = input_353_cast_fp16)[name = tensor<string, []>("input_355_cast_fp16")];
            tensor<string, []> input_357_pad_type_0 = const()[name = tensor<string, []>("input_357_pad_type_0"), val = tensor<string, []>("custom")];
            tensor<int32, [4]> input_357_pad_0 = const()[name = tensor<string, []>("input_357_pad_0"), val = tensor<int32, [4]>([1, 1, 1, 1])];
            tensor<int32, [2]> input_357_strides_0 = const()[name = tensor<string, []>("input_357_strides_0"), val = tensor<int32, [2]>([1, 1])];
            tensor<int32, [2]> input_357_dilations_0 = const()[name = tensor<string, []>("input_357_dilations_0"), val = tensor<int32, [2]>([1, 1])];
            tensor<int32, []> input_357_groups_0 = const()[name = tensor<string, []>("input_357_groups_0"), val = tensor<int32, []>(1)];
            tensor<fp16, [128, 128, 3, 3]> const_148_to_fp16 = const()[name = tensor<string, []>("const_148_to_fp16"), val = tensor<fp16, [128, 128, 3, 3]>(BLOBFILE(path = tensor<string, []>("@model_path/weights/weight.bin"), offset = tensor<uint64, []>(14411520)))];
            tensor<fp16, [128]> const_149_to_fp16 = const()[name = tensor<string, []>("const_149_to_fp16"), val = tensor<fp16, [128]>(BLOBFILE(path = tensor<string, []>("@model_path/weights/weight.bin"), offset = tensor<uint64, []>(14706496)))];
            tensor<fp16, [1, 128, 80, 80]> input_359_cast_fp16 = conv(bias = const_149_to_fp16, dilations = input_357_dilations_0, groups = input_357_groups_0, pad = input_357_pad_0, pad_type = input_357_pad_type_0, strides = input_357_strides_0, weight = const_148_to_fp16, x = input_355_cast_fp16)[name = tensor<string, []>("input_359_cast_fp16")];
            tensor<fp16, [1, 128, 80, 80]> input_361_cast_fp16 = silu(x = input_359_cast_fp16)[name = tensor<string, []>("input_361_cast_fp16")];
            tensor<string, []> cls_output_1_pad_type_0 = const()[name = tensor<string, []>("cls_output_1_pad_type_0"), val = tensor<string, []>("valid")];
            tensor<int32, [2]> cls_output_1_strides_0 = const()[name = tensor<string, []>("cls_output_1_strides_0"), val = tensor<int32, [2]>([1, 1])];
            tensor<int32, [4]> cls_output_1_pad_0 = const()[name = tensor<string, []>("cls_output_1_pad_0"), val = tensor<int32, [4]>([0, 0, 0, 0])];
            tensor<int32, [2]> cls_output_1_dilations_0 = const()[name = tensor<string, []>("cls_output_1_dilations_0"), val = tensor<int32, [2]>([1, 1])];
            tensor<int32, []> cls_output_1_groups_0 = const()[name = tensor<string, []>("cls_output_1_groups_0"), val = tensor<int32, []>(1)];
            tensor<fp16, [80, 128, 1, 1]> head_cls_preds_0_weight_to_fp16 = const()[name = tensor<string, []>("head_cls_preds_0_weight_to_fp16"), val = tensor<fp16, [80, 128, 1, 1]>(BLOBFILE(path = tensor<string, []>("@model_path/weights/weight.bin"), offset = tensor<uint64, []>(14706816)))];
            tensor<fp16, [80]> head_cls_preds_0_bias_to_fp16 = const()[name = tensor<string, []>("head_cls_preds_0_bias_to_fp16"), val = tensor<fp16, [80]>(BLOBFILE(path = tensor<string, []>("@model_path/weights/weight.bin"), offset = tensor<uint64, []>(14727360)))];
            tensor<fp16, [1, 80, 80, 80]> cls_output_1_cast_fp16 = conv(bias = head_cls_preds_0_bias_to_fp16, dilations = cls_output_1_dilations_0, groups = cls_output_1_groups_0, pad = cls_output_1_pad_0, pad_type = cls_output_1_pad_type_0, strides = cls_output_1_strides_0, weight = head_cls_preds_0_weight_to_fp16, x = input_361_cast_fp16)[name = tensor<string, []>("cls_output_1_cast_fp16")];
            tensor<string, []> input_363_pad_type_0 = const()[name = tensor<string, []>("input_363_pad_type_0"), val = tensor<string, []>("custom")];
            tensor<int32, [4]> input_363_pad_0 = const()[name = tensor<string, []>("input_363_pad_0"), val = tensor<int32, [4]>([1, 1, 1, 1])];
            tensor<int32, [2]> input_363_strides_0 = const()[name = tensor<string, []>("input_363_strides_0"), val = tensor<int32, [2]>([1, 1])];
            tensor<int32, [2]> input_363_dilations_0 = const()[name = tensor<string, []>("input_363_dilations_0"), val = tensor<int32, [2]>([1, 1])];
            tensor<int32, []> input_363_groups_0 = const()[name = tensor<string, []>("input_363_groups_0"), val = tensor<int32, []>(1)];
            tensor<fp16, [128, 128, 3, 3]> const_150_to_fp16 = const()[name = tensor<string, []>("const_150_to_fp16"), val = tensor<fp16, [128, 128, 3, 3]>(BLOBFILE(path = tensor<string, []>("@model_path/weights/weight.bin"), offset = tensor<uint64, []>(14727616)))];
            tensor<fp16, [128]> const_151_to_fp16 = const()[name = tensor<string, []>("const_151_to_fp16"), val = tensor<fp16, [128]>(BLOBFILE(path = tensor<string, []>("@model_path/weights/weight.bin"), offset = tensor<uint64, []>(15022592)))];
            tensor<fp16, [1, 128, 80, 80]> input_365_cast_fp16 = conv(bias = const_151_to_fp16, dilations = input_363_dilations_0, groups = input_363_groups_0, pad = input_363_pad_0, pad_type = input_363_pad_type_0, strides = input_363_strides_0, weight = const_150_to_fp16, x = input_349_cast_fp16)[name = tensor<string, []>("input_365_cast_fp16")];
            tensor<fp16, [1, 128, 80, 80]> input_367_cast_fp16 = silu(x = input_365_cast_fp16)[name = tensor<string, []>("input_367_cast_fp16")];
            tensor<string, []> input_369_pad_type_0 = const()[name = tensor<string, []>("input_369_pad_type_0"), val = tensor<string, []>("custom")];
            tensor<int32, [4]> input_369_pad_0 = const()[name = tensor<string, []>("input_369_pad_0"), val = tensor<int32, [4]>([1, 1, 1, 1])];
            tensor<int32, [2]> input_369_strides_0 = const()[name = tensor<string, []>("input_369_strides_0"), val = tensor<int32, [2]>([1, 1])];
            tensor<int32, [2]> input_369_dilations_0 = const()[name = tensor<string, []>("input_369_dilations_0"), val = tensor<int32, [2]>([1, 1])];
            tensor<int32, []> input_369_groups_0 = const()[name = tensor<string, []>("input_369_groups_0"), val = tensor<int32, []>(1)];
            tensor<fp16, [128, 128, 3, 3]> const_152_to_fp16 = const()[name = tensor<string, []>("const_152_to_fp16"), val = tensor<fp16, [128, 128, 3, 3]>(BLOBFILE(path = tensor<string, []>("@model_path/weights/weight.bin"), offset = tensor<uint64, []>(15022912)))];
            tensor<fp16, [128]> const_153_to_fp16 = const()[name = tensor<string, []>("const_153_to_fp16"), val = tensor<fp16, [128]>(BLOBFILE(path = tensor<string, []>("@model_path/weights/weight.bin"), offset = tensor<uint64, []>(15317888)))];
            tensor<fp16, [1, 128, 80, 80]> input_371_cast_fp16 = conv(bias = const_153_to_fp16, dilations = input_369_dilations_0, groups = input_369_groups_0, pad = input_369_pad_0, pad_type = input_369_pad_type_0, strides = input_369_strides_0, weight = const_152_to_fp16, x = input_367_cast_fp16)[name = tensor<string, []>("input_371_cast_fp16")];
            tensor<fp16, [1, 128, 80, 80]> input_373_cast_fp16 = silu(x = input_371_cast_fp16)[name = tensor<string, []>("input_373_cast_fp16")];
            tensor<string, []> reg_output_1_pad_type_0 = const()[name = tensor<string, []>("reg_output_1_pad_type_0"), val = tensor<string, []>("valid")];
            tensor<int32, [2]> reg_output_1_strides_0 = const()[name = tensor<string, []>("reg_output_1_strides_0"), val = tensor<int32, [2]>([1, 1])];
            tensor<int32, [4]> reg_output_1_pad_0 = const()[name = tensor<string, []>("reg_output_1_pad_0"), val = tensor<int32, [4]>([0, 0, 0, 0])];
            tensor<int32, [2]> reg_output_1_dilations_0 = const()[name = tensor<string, []>("reg_output_1_dilations_0"), val = tensor<int32, [2]>([1, 1])];
            tensor<int32, []> reg_output_1_groups_0 = const()[name = tensor<string, []>("reg_output_1_groups_0"), val = tensor<int32, []>(1)];
            tensor<fp16, [4, 128, 1, 1]> head_reg_preds_0_weight_to_fp16 = const()[name = tensor<string, []>("head_reg_preds_0_weight_to_fp16"), val = tensor<fp16, [4, 128, 1, 1]>(BLOBFILE(path = tensor<string, []>("@model_path/weights/weight.bin"), offset = tensor<uint64, []>(15318208)))];
            tensor<fp16, [4]> head_reg_preds_0_bias_to_fp16 = const()[name = tensor<string, []>("head_reg_preds_0_bias_to_fp16"), val = tensor<fp16, [4]>([0x1.b1cp-2, 0x1.d7p-2, 0x1.448p+0, 0x1.718p+0])];
            tensor<fp16, [1, 4, 80, 80]> reg_output_1_cast_fp16 = conv(bias = head_reg_preds_0_bias_to_fp16, dilations = reg_output_1_dilations_0, groups = reg_output_1_groups_0, pad = reg_output_1_pad_0, pad_type = reg_output_1_pad_type_0, strides = reg_output_1_strides_0, weight = head_reg_preds_0_weight_to_fp16, x = input_373_cast_fp16)[name = tensor<string, []>("reg_output_1_cast_fp16")];
            tensor<string, []> obj_output_1_pad_type_0 = const()[name = tensor<string, []>("obj_output_1_pad_type_0"), val = tensor<string, []>("valid")];
            tensor<int32, [2]> obj_output_1_strides_0 = const()[name = tensor<string, []>("obj_output_1_strides_0"), val = tensor<int32, [2]>([1, 1])];
            tensor<int32, [4]> obj_output_1_pad_0 = const()[name = tensor<string, []>("obj_output_1_pad_0"), val = tensor<int32, [4]>([0, 0, 0, 0])];
            tensor<int32, [2]> obj_output_1_dilations_0 = const()[name = tensor<string, []>("obj_output_1_dilations_0"), val = tensor<int32, [2]>([1, 1])];
            tensor<int32, []> obj_output_1_groups_0 = const()[name = tensor<string, []>("obj_output_1_groups_0"), val = tensor<int32, []>(1)];
            tensor<fp16, [1, 128, 1, 1]> head_obj_preds_0_weight_to_fp16 = const()[name = tensor<string, []>("head_obj_preds_0_weight_to_fp16"), val = tensor<fp16, [1, 128, 1, 1]>(BLOBFILE(path = tensor<string, []>("@model_path/weights/weight.bin"), offset = tensor<uint64, []>(15319296)))];
            tensor<fp16, [1]> head_obj_preds_0_bias_to_fp16 = const()[name = tensor<string, []>("head_obj_preds_0_bias_to_fp16"), val = tensor<fp16, [1]>([-0x1.45cp+1])];
            tensor<fp16, [1, 1, 80, 80]> obj_output_1_cast_fp16 = conv(bias = head_obj_preds_0_bias_to_fp16, dilations = obj_output_1_dilations_0, groups = obj_output_1_groups_0, pad = obj_output_1_pad_0, pad_type = obj_output_1_pad_type_0, strides = obj_output_1_strides_0, weight = head_obj_preds_0_weight_to_fp16, x = input_373_cast_fp16)[name = tensor<string, []>("obj_output_1_cast_fp16")];
            tensor<fp16, [1, 1, 80, 80]> var_1159_cast_fp16 = sigmoid(x = obj_output_1_cast_fp16)[name = tensor<string, []>("op_1159_cast_fp16")];
            tensor<fp16, [1, 80, 80, 80]> var_1160_cast_fp16 = sigmoid(x = cls_output_1_cast_fp16)[name = tensor<string, []>("op_1160_cast_fp16")];
            tensor<bool, []> x_3_interleave_0 = const()[name = tensor<string, []>("x_3_interleave_0"), val = tensor<bool, []>(false)];
            tensor<fp16, [1, 85, 80, 80]> x_3_cast_fp16 = concat(axis = var_1024, interleave = x_3_interleave_0, values = (reg_output_1_cast_fp16, var_1159_cast_fp16, var_1160_cast_fp16))[name = tensor<string, []>("x_3_cast_fp16")];
            tensor<string, []> input_375_pad_type_0 = const()[name = tensor<string, []>("input_375_pad_type_0"), val = tensor<string, []>("valid")];
            tensor<int32, [2]> input_375_strides_0 = const()[name = tensor<string, []>("input_375_strides_0"), val = tensor<int32, [2]>([1, 1])];
            tensor<int32, [4]> input_375_pad_0 = const()[name = tensor<string, []>("input_375_pad_0"), val = tensor<int32, [4]>([0, 0, 0, 0])];
            tensor<int32, [2]> input_375_dilations_0 = const()[name = tensor<string, []>("input_375_dilations_0"), val = tensor<int32, [2]>([1, 1])];
            tensor<int32, []> input_375_groups_0 = const()[name = tensor<string, []>("input_375_groups_0"), val = tensor<int32, []>(1)];
            tensor<fp16, [128, 256, 1, 1]> const_154_to_fp16 = const()[name = tensor<string, []>("const_154_to_fp16"), val = tensor<fp16, [128, 256, 1, 1]>(BLOBFILE(path = tensor<string, []>("@model_path/weights/weight.bin"), offset = tensor<uint64, []>(15319616)))];
            tensor<fp16, [128]> const_155_to_fp16 = const()[name = tensor<string, []>("const_155_to_fp16"), val = tensor<fp16, [128]>(BLOBFILE(path = tensor<string, []>("@model_path/weights/weight.bin"), offset = tensor<uint64, []>(15385216)))];
            tensor<fp16, [1, 128, 40, 40]> input_377_cast_fp16 = conv(bias = const_155_to_fp16, dilations = input_375_dilations_0, groups = input_375_groups_0, pad = input_375_pad_0, pad_type = input_375_pad_type_0, strides = input_375_strides_0, weight = const_154_to_fp16, x = input_311_cast_fp16)[name = tensor<string, []>("input_377_cast_fp16")];
            tensor<fp16, [1, 128, 40, 40]> input_379_cast_fp16 = silu(x = input_377_cast_fp16)[name = tensor<string, []>("input_379_cast_fp16")];
            tensor<string, []> input_381_pad_type_0 = const()[name = tensor<string, []>("input_381_pad_type_0"), val = tensor<string, []>("custom")];
            tensor<int32, [4]> input_381_pad_0 = const()[name = tensor<string, []>("input_381_pad_0"), val = tensor<int32, [4]>([1, 1, 1, 1])];
            tensor<int32, [2]> input_381_strides_0 = const()[name = tensor<string, []>("input_381_strides_0"), val = tensor<int32, [2]>([1, 1])];
            tensor<int32, [2]> input_381_dilations_0 = const()[name = tensor<string, []>("input_381_dilations_0"), val = tensor<int32, [2]>([1, 1])];
            tensor<int32, []> input_381_groups_0 = const()[name = tensor<string, []>("input_381_groups_0"), val = tensor<int32, []>(1)];
            tensor<fp16, [128, 128, 3, 3]> const_156_to_fp16 = const()[name = tensor<string, []>("const_156_to_fp16"), val = tensor<fp16, [128, 128, 3, 3]>(BLOBFILE(path = tensor<string, []>("@model_path/weights/weight.bin"), offset = tensor<uint64, []>(15385536)))];
            tensor<fp16, [128]> const_157_to_fp16 = const()[name = tensor<string, []>("const_157_to_fp16"), val = tensor<fp16, [128]>(BLOBFILE(path = tensor<string, []>("@model_path/weights/weight.bin"), offset = tensor<uint64, []>(15680512)))];
            tensor<fp16, [1, 128, 40, 40]> input_383_cast_fp16 = conv(bias = const_157_to_fp16, dilations = input_381_dilations_0, groups = input_381_groups_0, pad = input_381_pad_0, pad_type = input_381_pad_type_0, strides = input_381_strides_0, weight = const_156_to_fp16, x = input_379_cast_fp16)[name = tensor<string, []>("input_383_cast_fp16")];
            tensor<fp16, [1, 128, 40, 40]> input_385_cast_fp16 = silu(x = input_383_cast_fp16)[name = tensor<string, []>("input_385_cast_fp16")];
            tensor<string, []> input_387_pad_type_0 = const()[name = tensor<string, []>("input_387_pad_type_0"), val = tensor<string, []>("custom")];
            tensor<int32, [4]> input_387_pad_0 = const()[name = tensor<string, []>("input_387_pad_0"), val = tensor<int32, [4]>([1, 1, 1, 1])];
            tensor<int32, [2]> input_387_strides_0 = const()[name = tensor<string, []>("input_387_strides_0"), val = tensor<int32, [2]>([1, 1])];
            tensor<int32, [2]> input_387_dilations_0 = const()[name = tensor<string, []>("input_387_dilations_0"), val = tensor<int32, [2]>([1, 1])];
            tensor<int32, []> input_387_groups_0 = const()[name = tensor<string, []>("input_387_groups_0"), val = tensor<int32, []>(1)];
            tensor<fp16, [128, 128, 3, 3]> const_158_to_fp16 = const()[name = tensor<string, []>("const_158_to_fp16"), val = tensor<fp16, [128, 128, 3, 3]>(BLOBFILE(path = tensor<string, []>("@model_path/weights/weight.bin"), offset = tensor<uint64, []>(15680832)))];
            tensor<fp16, [128]> const_159_to_fp16 = const()[name = tensor<string, []>("const_159_to_fp16"), val = tensor<fp16, [128]>(BLOBFILE(path = tensor<string, []>("@model_path/weights/weight.bin"), offset = tensor<uint64, []>(15975808)))];
            tensor<fp16, [1, 128, 40, 40]> input_389_cast_fp16 = conv(bias = const_159_to_fp16, dilations = input_387_dilations_0, groups = input_387_groups_0, pad = input_387_pad_0, pad_type = input_387_pad_type_0, strides = input_387_strides_0, weight = const_158_to_fp16, x = input_385_cast_fp16)[name = tensor<string, []>("input_389_cast_fp16")];
            tensor<fp16, [1, 128, 40, 40]> input_391_cast_fp16 = silu(x = input_389_cast_fp16)[name = tensor<string, []>("input_391_cast_fp16")];
            tensor<string, []> cls_output_3_pad_type_0 = const()[name = tensor<string, []>("cls_output_3_pad_type_0"), val = tensor<string, []>("valid")];
            tensor<int32, [2]> cls_output_3_strides_0 = const()[name = tensor<string, []>("cls_output_3_strides_0"), val = tensor<int32, [2]>([1, 1])];
            tensor<int32, [4]> cls_output_3_pad_0 = const()[name = tensor<string, []>("cls_output_3_pad_0"), val = tensor<int32, [4]>([0, 0, 0, 0])];
            tensor<int32, [2]> cls_output_3_dilations_0 = const()[name = tensor<string, []>("cls_output_3_dilations_0"), val = tensor<int32, [2]>([1, 1])];
            tensor<int32, []> cls_output_3_groups_0 = const()[name = tensor<string, []>("cls_output_3_groups_0"), val = tensor<int32, []>(1)];
            tensor<fp16, [80, 128, 1, 1]> head_cls_preds_1_weight_to_fp16 = const()[name = tensor<string, []>("head_cls_preds_1_weight_to_fp16"), val = tensor<fp16, [80, 128, 1, 1]>(BLOBFILE(path = tensor<string, []>("@model_path/weights/weight.bin"), offset = tensor<uint64, []>(15976128)))];
            tensor<fp16, [80]> head_cls_preds_1_bias_to_fp16 = const()[name = tensor<string, []>("head_cls_preds_1_bias_to_fp16"), val = tensor<fp16, [80]>(BLOBFILE(path = tensor<string, []>("@model_path/weights/weight.bin"), offset = tensor<uint64, []>(15996672)))];
            tensor<fp16, [1, 80, 40, 40]> cls_output_3_cast_fp16 = conv(bias = head_cls_preds_1_bias_to_fp16, dilations = cls_output_3_dilations_0, groups = cls_output_3_groups_0, pad = cls_output_3_pad_0, pad_type = cls_output_3_pad_type_0, strides = cls_output_3_strides_0, weight = head_cls_preds_1_weight_to_fp16, x = input_391_cast_fp16)[name = tensor<string, []>("cls_output_3_cast_fp16")];
            tensor<string, []> input_393_pad_type_0 = const()[name = tensor<string, []>("input_393_pad_type_0"), val = tensor<string, []>("custom")];
            tensor<int32, [4]> input_393_pad_0 = const()[name = tensor<string, []>("input_393_pad_0"), val = tensor<int32, [4]>([1, 1, 1, 1])];
            tensor<int32, [2]> input_393_strides_0 = const()[name = tensor<string, []>("input_393_strides_0"), val = tensor<int32, [2]>([1, 1])];
            tensor<int32, [2]> input_393_dilations_0 = const()[name = tensor<string, []>("input_393_dilations_0"), val = tensor<int32, [2]>([1, 1])];
            tensor<int32, []> input_393_groups_0 = const()[name = tensor<string, []>("input_393_groups_0"), val = tensor<int32, []>(1)];
            tensor<fp16, [128, 128, 3, 3]> const_160_to_fp16 = const()[name = tensor<string, []>("const_160_to_fp16"), val = tensor<fp16, [128, 128, 3, 3]>(BLOBFILE(path = tensor<string, []>("@model_path/weights/weight.bin"), offset = tensor<uint64, []>(15996928)))];
            tensor<fp16, [128]> const_161_to_fp16 = const()[name = tensor<string, []>("const_161_to_fp16"), val = tensor<fp16, [128]>(BLOBFILE(path = tensor<string, []>("@model_path/weights/weight.bin"), offset = tensor<uint64, []>(16291904)))];
            tensor<fp16, [1, 128, 40, 40]> input_395_cast_fp16 = conv(bias = const_161_to_fp16, dilations = input_393_dilations_0, groups = input_393_groups_0, pad = input_393_pad_0, pad_type = input_393_pad_type_0, strides = input_393_strides_0, weight = const_160_to_fp16, x = input_379_cast_fp16)[name = tensor<string, []>("input_395_cast_fp16")];
            tensor<fp16, [1, 128, 40, 40]> input_397_cast_fp16 = silu(x = input_395_cast_fp16)[name = tensor<string, []>("input_397_cast_fp16")];
            tensor<string, []> input_399_pad_type_0 = const()[name = tensor<string, []>("input_399_pad_type_0"), val = tensor<string, []>("custom")];
            tensor<int32, [4]> input_399_pad_0 = const()[name = tensor<string, []>("input_399_pad_0"), val = tensor<int32, [4]>([1, 1, 1, 1])];
            tensor<int32, [2]> input_399_strides_0 = const()[name = tensor<string, []>("input_399_strides_0"), val = tensor<int32, [2]>([1, 1])];
            tensor<int32, [2]> input_399_dilations_0 = const()[name = tensor<string, []>("input_399_dilations_0"), val = tensor<int32, [2]>([1, 1])];
            tensor<int32, []> input_399_groups_0 = const()[name = tensor<string, []>("input_399_groups_0"), val = tensor<int32, []>(1)];
            tensor<fp16, [128, 128, 3, 3]> const_162_to_fp16 = const()[name = tensor<string, []>("const_162_to_fp16"), val = tensor<fp16, [128, 128, 3, 3]>(BLOBFILE(path = tensor<string, []>("@model_path/weights/weight.bin"), offset = tensor<uint64, []>(16292224)))];
            tensor<fp16, [128]> const_163_to_fp16 = const()[name = tensor<string, []>("const_163_to_fp16"), val = tensor<fp16, [128]>(BLOBFILE(path = tensor<string, []>("@model_path/weights/weight.bin"), offset = tensor<uint64, []>(16587200)))];
            tensor<fp16, [1, 128, 40, 40]> input_401_cast_fp16 = conv(bias = const_163_to_fp16, dilations = input_399_dilations_0, groups = input_399_groups_0, pad = input_399_pad_0, pad_type = input_399_pad_type_0, strides = input_399_strides_0, weight = const_162_to_fp16, x = input_397_cast_fp16)[name = tensor<string, []>("input_401_cast_fp16")];
            tensor<fp16, [1, 128, 40, 40]> input_403_cast_fp16 = silu(x = input_401_cast_fp16)[name = tensor<string, []>("input_403_cast_fp16")];
            tensor<string, []> reg_output_3_pad_type_0 = const()[name = tensor<string, []>("reg_output_3_pad_type_0"), val = tensor<string, []>("valid")];
            tensor<int32, [2]> reg_output_3_strides_0 = const()[name = tensor<string, []>("reg_output_3_strides_0"), val = tensor<int32, [2]>([1, 1])];
            tensor<int32, [4]> reg_output_3_pad_0 = const()[name = tensor<string, []>("reg_output_3_pad_0"), val = tensor<int32, [4]>([0, 0, 0, 0])];
            tensor<int32, [2]> reg_output_3_dilations_0 = const()[name = tensor<string, []>("reg_output_3_dilations_0"), val = tensor<int32, [2]>([1, 1])];
            tensor<int32, []> reg_output_3_groups_0 = const()[name = tensor<string, []>("reg_output_3_groups_0"), val = tensor<int32, []>(1)];
            tensor<fp16, [4, 128, 1, 1]> head_reg_preds_1_weight_to_fp16 = const()[name = tensor<string, []>("head_reg_preds_1_weight_to_fp16"), val = tensor<fp16, [4, 128, 1, 1]>(BLOBFILE(path = tensor<string, []>("@model_path/weights/weight.bin"), offset = tensor<uint64, []>(16587520)))];
            tensor<fp16, [4]> head_reg_preds_1_bias_to_fp16 = const()[name = tensor<string, []>("head_reg_preds_1_bias_to_fp16"), val = tensor<fp16, [4]>([0x1.b34p-2, 0x1.8ccp-2, 0x1.acp+0, 0x1.dccp+0])];
            tensor<fp16, [1, 4, 40, 40]> reg_output_3_cast_fp16 = conv(bias = head_reg_preds_1_bias_to_fp16, dilations = reg_output_3_dilations_0, groups = reg_output_3_groups_0, pad = reg_output_3_pad_0, pad_type = reg_output_3_pad_type_0, strides = reg_output_3_strides_0, weight = head_reg_preds_1_weight_to_fp16, x = input_403_cast_fp16)[name = tensor<string, []>("reg_output_3_cast_fp16")];
            tensor<string, []> obj_output_3_pad_type_0 = const()[name = tensor<string, []>("obj_output_3_pad_type_0"), val = tensor<string, []>("valid")];
            tensor<int32, [2]> obj_output_3_strides_0 = const()[name = tensor<string, []>("obj_output_3_strides_0"), val = tensor<int32, [2]>([1, 1])];
            tensor<int32, [4]> obj_output_3_pad_0 = const()[name = tensor<string, []>("obj_output_3_pad_0"), val = tensor<int32, [4]>([0, 0, 0, 0])];
            tensor<int32, [2]> obj_output_3_dilations_0 = const()[name = tensor<string, []>("obj_output_3_dilations_0"), val = tensor<int32, [2]>([1, 1])];
            tensor<int32, []> obj_output_3_groups_0 = const()[name = tensor<string, []>("obj_output_3_groups_0"), val = tensor<int32, []>(1)];
            tensor<fp16, [1, 128, 1, 1]> head_obj_preds_1_weight_to_fp16 = const()[name = tensor<string, []>("head_obj_preds_1_weight_to_fp16"), val = tensor<fp16, [1, 128, 1, 1]>(BLOBFILE(path = tensor<string, []>("@model_path/weights/weight.bin"), offset = tensor<uint64, []>(16588608)))];
            tensor<fp16, [1]> head_obj_preds_1_bias_to_fp16 = const()[name = tensor<string, []>("head_obj_preds_1_bias_to_fp16"), val = tensor<fp16, [1]>([-0x1.808p-1])];
            tensor<fp16, [1, 1, 40, 40]> obj_output_3_cast_fp16 = conv(bias = head_obj_preds_1_bias_to_fp16, dilations = obj_output_3_dilations_0, groups = obj_output_3_groups_0, pad = obj_output_3_pad_0, pad_type = obj_output_3_pad_type_0, strides = obj_output_3_strides_0, weight = head_obj_preds_1_weight_to_fp16, x = input_403_cast_fp16)[name = tensor<string, []>("obj_output_3_cast_fp16")];
            tensor<fp16, [1, 1, 40, 40]> var_1258_cast_fp16 = sigmoid(x = obj_output_3_cast_fp16)[name = tensor<string, []>("op_1258_cast_fp16")];
            tensor<fp16, [1, 80, 40, 40]> var_1259_cast_fp16 = sigmoid(x = cls_output_3_cast_fp16)[name = tensor<string, []>("op_1259_cast_fp16")];
            tensor<bool, []> x_5_interleave_0 = const()[name = tensor<string, []>("x_5_interleave_0"), val = tensor<bool, []>(false)];
            tensor<fp16, [1, 85, 40, 40]> x_5_cast_fp16 = concat(axis = var_1024, interleave = x_5_interleave_0, values = (reg_output_3_cast_fp16, var_1258_cast_fp16, var_1259_cast_fp16))[name = tensor<string, []>("x_5_cast_fp16")];
            tensor<string, []> input_407_pad_type_0 = const()[name = tensor<string, []>("input_407_pad_type_0"), val = tensor<string, []>("valid")];
            tensor<int32, [2]> input_407_strides_0 = const()[name = tensor<string, []>("input_407_strides_0"), val = tensor<int32, [2]>([1, 1])];
            tensor<int32, [4]> input_407_pad_0 = const()[name = tensor<string, []>("input_407_pad_0"), val = tensor<int32, [4]>([0, 0, 0, 0])];
            tensor<int32, [2]> input_407_dilations_0 = const()[name = tensor<string, []>("input_407_dilations_0"), val = tensor<int32, [2]>([1, 1])];
            tensor<int32, []> input_407_groups_0 = const()[name = tensor<string, []>("input_407_groups_0"), val = tensor<int32, []>(1)];
            tensor<fp16, [128, 512, 1, 1]> const_164_to_fp16 = const()[name = tensor<string, []>("const_164_to_fp16"), val = tensor<fp16, [128, 512, 1, 1]>(BLOBFILE(path = tensor<string, []>("@model_path/weights/weight.bin"), offset = tensor<uint64, []>(16588928)))];
            tensor<fp16, [128]> const_165_to_fp16 = const()[name = tensor<string, []>("const_165_to_fp16"), val = tensor<fp16, [128]>(BLOBFILE(path = tensor<string, []>("@model_path/weights/weight.bin"), offset = tensor<uint64, []>(16720064)))];
            tensor<fp16, [1, 128, 20, 20]> input_409_cast_fp16 = conv(bias = const_165_to_fp16, dilations = input_407_dilations_0, groups = input_407_groups_0, pad = input_407_pad_0, pad_type = input_407_pad_type_0, strides = input_407_strides_0, weight = const_164_to_fp16, x = input_405_cast_fp16)[name = tensor<string, []>("input_409_cast_fp16")];
            tensor<fp16, [1, 128, 20, 20]> input_411_cast_fp16 = silu(x = input_409_cast_fp16)[name = tensor<string, []>("input_411_cast_fp16")];
            tensor<string, []> input_413_pad_type_0 = const()[name = tensor<string, []>("input_413_pad_type_0"), val = tensor<string, []>("custom")];
            tensor<int32, [4]> input_413_pad_0 = const()[name = tensor<string, []>("input_413_pad_0"), val = tensor<int32, [4]>([1, 1, 1, 1])];
            tensor<int32, [2]> input_413_strides_0 = const()[name = tensor<string, []>("input_413_strides_0"), val = tensor<int32, [2]>([1, 1])];
            tensor<int32, [2]> input_413_dilations_0 = const()[name = tensor<string, []>("input_413_dilations_0"), val = tensor<int32, [2]>([1, 1])];
            tensor<int32, []> input_413_groups_0 = const()[name = tensor<string, []>("input_413_groups_0"), val = tensor<int32, []>(1)];
            tensor<fp16, [128, 128, 3, 3]> const_166_to_fp16 = const()[name = tensor<string, []>("const_166_to_fp16"), val = tensor<fp16, [128, 128, 3, 3]>(BLOBFILE(path = tensor<string, []>("@model_path/weights/weight.bin"), offset = tensor<uint64, []>(16720384)))];
            tensor<fp16, [128]> const_167_to_fp16 = const()[name = tensor<string, []>("const_167_to_fp16"), val = tensor<fp16, [128]>(BLOBFILE(path = tensor<string, []>("@model_path/weights/weight.bin"), offset = tensor<uint64, []>(17015360)))];
            tensor<fp16, [1, 128, 20, 20]> input_415_cast_fp16 = conv(bias = const_167_to_fp16, dilations = input_413_dilations_0, groups = input_413_groups_0, pad = input_413_pad_0, pad_type = input_413_pad_type_0, strides = input_413_strides_0, weight = const_166_to_fp16, x = input_411_cast_fp16)[name = tensor<string, []>("input_415_cast_fp16")];
            tensor<fp16, [1, 128, 20, 20]> input_417_cast_fp16 = silu(x = input_415_cast_fp16)[name = tensor<string, []>("input_417_cast_fp16")];
            tensor<string, []> input_419_pad_type_0 = const()[name = tensor<string, []>("input_419_pad_type_0"), val = tensor<string, []>("custom")];
            tensor<int32, [4]> input_419_pad_0 = const()[name = tensor<string, []>("input_419_pad_0"), val = tensor<int32, [4]>([1, 1, 1, 1])];
            tensor<int32, [2]> input_419_strides_0 = const()[name = tensor<string, []>("input_419_strides_0"), val = tensor<int32, [2]>([1, 1])];
            tensor<int32, [2]> input_419_dilations_0 = const()[name = tensor<string, []>("input_419_dilations_0"), val = tensor<int32, [2]>([1, 1])];
            tensor<int32, []> input_419_groups_0 = const()[name = tensor<string, []>("input_419_groups_0"), val = tensor<int32, []>(1)];
            tensor<fp16, [128, 128, 3, 3]> const_168_to_fp16 = const()[name = tensor<string, []>("const_168_to_fp16"), val = tensor<fp16, [128, 128, 3, 3]>(BLOBFILE(path = tensor<string, []>("@model_path/weights/weight.bin"), offset = tensor<uint64, []>(17015680)))];
            tensor<fp16, [128]> const_169_to_fp16 = const()[name = tensor<string, []>("const_169_to_fp16"), val = tensor<fp16, [128]>(BLOBFILE(path = tensor<string, []>("@model_path/weights/weight.bin"), offset = tensor<uint64, []>(17310656)))];
            tensor<fp16, [1, 128, 20, 20]> input_421_cast_fp16 = conv(bias = const_169_to_fp16, dilations = input_419_dilations_0, groups = input_419_groups_0, pad = input_419_pad_0, pad_type = input_419_pad_type_0, strides = input_419_strides_0, weight = const_168_to_fp16, x = input_417_cast_fp16)[name = tensor<string, []>("input_421_cast_fp16")];
            tensor<fp16, [1, 128, 20, 20]> input_423_cast_fp16 = silu(x = input_421_cast_fp16)[name = tensor<string, []>("input_423_cast_fp16")];
            tensor<string, []> cls_output_pad_type_0 = const()[name = tensor<string, []>("cls_output_pad_type_0"), val = tensor<string, []>("valid")];
            tensor<int32, [2]> cls_output_strides_0 = const()[name = tensor<string, []>("cls_output_strides_0"), val = tensor<int32, [2]>([1, 1])];
            tensor<int32, [4]> cls_output_pad_0 = const()[name = tensor<string, []>("cls_output_pad_0"), val = tensor<int32, [4]>([0, 0, 0, 0])];
            tensor<int32, [2]> cls_output_dilations_0 = const()[name = tensor<string, []>("cls_output_dilations_0"), val = tensor<int32, [2]>([1, 1])];
            tensor<int32, []> cls_output_groups_0 = const()[name = tensor<string, []>("cls_output_groups_0"), val = tensor<int32, []>(1)];
            tensor<fp16, [80, 128, 1, 1]> head_cls_preds_2_weight_to_fp16 = const()[name = tensor<string, []>("head_cls_preds_2_weight_to_fp16"), val = tensor<fp16, [80, 128, 1, 1]>(BLOBFILE(path = tensor<string, []>("@model_path/weights/weight.bin"), offset = tensor<uint64, []>(17310976)))];
            tensor<fp16, [80]> head_cls_preds_2_bias_to_fp16 = const()[name = tensor<string, []>("head_cls_preds_2_bias_to_fp16"), val = tensor<fp16, [80]>(BLOBFILE(path = tensor<string, []>("@model_path/weights/weight.bin"), offset = tensor<uint64, []>(17331520)))];
            tensor<fp16, [1, 80, 20, 20]> cls_output_cast_fp16 = conv(bias = head_cls_preds_2_bias_to_fp16, dilations = cls_output_dilations_0, groups = cls_output_groups_0, pad = cls_output_pad_0, pad_type = cls_output_pad_type_0, strides = cls_output_strides_0, weight = head_cls_preds_2_weight_to_fp16, x = input_423_cast_fp16)[name = tensor<string, []>("cls_output_cast_fp16")];
            tensor<string, []> input_425_pad_type_0 = const()[name = tensor<string, []>("input_425_pad_type_0"), val = tensor<string, []>("custom")];
            tensor<int32, [4]> input_425_pad_0 = const()[name = tensor<string, []>("input_425_pad_0"), val = tensor<int32, [4]>([1, 1, 1, 1])];
            tensor<int32, [2]> input_425_strides_0 = const()[name = tensor<string, []>("input_425_strides_0"), val = tensor<int32, [2]>([1, 1])];
            tensor<int32, [2]> input_425_dilations_0 = const()[name = tensor<string, []>("input_425_dilations_0"), val = tensor<int32, [2]>([1, 1])];
            tensor<int32, []> input_425_groups_0 = const()[name = tensor<string, []>("input_425_groups_0"), val = tensor<int32, []>(1)];
            tensor<fp16, [128, 128, 3, 3]> const_170_to_fp16 = const()[name = tensor<string, []>("const_170_to_fp16"), val = tensor<fp16, [128, 128, 3, 3]>(BLOBFILE(path = tensor<string, []>("@model_path/weights/weight.bin"), offset = tensor<uint64, []>(17331776)))];
            tensor<fp16, [128]> const_171_to_fp16 = const()[name = tensor<string, []>("const_171_to_fp16"), val = tensor<fp16, [128]>(BLOBFILE(path = tensor<string, []>("@model_path/weights/weight.bin"), offset = tensor<uint64, []>(17626752)))];
            tensor<fp16, [1, 128, 20, 20]> input_427_cast_fp16 = conv(bias = const_171_to_fp16, dilations = input_425_dilations_0, groups = input_425_groups_0, pad = input_425_pad_0, pad_type = input_425_pad_type_0, strides = input_425_strides_0, weight = const_170_to_fp16, x = input_411_cast_fp16)[name = tensor<string, []>("input_427_cast_fp16")];
            tensor<fp16, [1, 128, 20, 20]> input_429_cast_fp16 = silu(x = input_427_cast_fp16)[name = tensor<string, []>("input_429_cast_fp16")];
            tensor<string, []> input_431_pad_type_0 = const()[name = tensor<string, []>("input_431_pad_type_0"), val = tensor<string, []>("custom")];
            tensor<int32, [4]> input_431_pad_0 = const()[name = tensor<string, []>("input_431_pad_0"), val = tensor<int32, [4]>([1, 1, 1, 1])];
            tensor<int32, [2]> input_431_strides_0 = const()[name = tensor<string, []>("input_431_strides_0"), val = tensor<int32, [2]>([1, 1])];
            tensor<int32, [2]> input_431_dilations_0 = const()[name = tensor<string, []>("input_431_dilations_0"), val = tensor<int32, [2]>([1, 1])];
            tensor<int32, []> input_431_groups_0 = const()[name = tensor<string, []>("input_431_groups_0"), val = tensor<int32, []>(1)];
            tensor<fp16, [128, 128, 3, 3]> const_172_to_fp16 = const()[name = tensor<string, []>("const_172_to_fp16"), val = tensor<fp16, [128, 128, 3, 3]>(BLOBFILE(path = tensor<string, []>("@model_path/weights/weight.bin"), offset = tensor<uint64, []>(17627072)))];
            tensor<fp16, [128]> const_173_to_fp16 = const()[name = tensor<string, []>("const_173_to_fp16"), val = tensor<fp16, [128]>(BLOBFILE(path = tensor<string, []>("@model_path/weights/weight.bin"), offset = tensor<uint64, []>(17922048)))];
            tensor<fp16, [1, 128, 20, 20]> input_433_cast_fp16 = conv(bias = const_173_to_fp16, dilations = input_431_dilations_0, groups = input_431_groups_0, pad = input_431_pad_0, pad_type = input_431_pad_type_0, strides = input_431_strides_0, weight = const_172_to_fp16, x = input_429_cast_fp16)[name = tensor<string, []>("input_433_cast_fp16")];
            tensor<fp16, [1, 128, 20, 20]> input_cast_fp16 = silu(x = input_433_cast_fp16)[name = tensor<string, []>("input_cast_fp16")];
            tensor<string, []> reg_output_pad_type_0 = const()[name = tensor<string, []>("reg_output_pad_type_0"), val = tensor<string, []>("valid")];
            tensor<int32, [2]> reg_output_strides_0 = const()[name = tensor<string, []>("reg_output_strides_0"), val = tensor<int32, [2]>([1, 1])];
            tensor<int32, [4]> reg_output_pad_0 = const()[name = tensor<string, []>("reg_output_pad_0"), val = tensor<int32, [4]>([0, 0, 0, 0])];
            tensor<int32, [2]> reg_output_dilations_0 = const()[name = tensor<string, []>("reg_output_dilations_0"), val = tensor<int32, [2]>([1, 1])];
            tensor<int32, []> reg_output_groups_0 = const()[name = tensor<string, []>("reg_output_groups_0"), val = tensor<int32, []>(1)];
            tensor<fp16, [4, 128, 1, 1]> head_reg_preds_2_weight_to_fp16 = const()[name = tensor<string, []>("head_reg_preds_2_weight_to_fp16"), val = tensor<fp16, [4, 128, 1, 1]>(BLOBFILE(path = tensor<string, []>("@model_path/weights/weight.bin"), offset = tensor<uint64, []>(17922368)))];
            tensor<fp16, [4]> head_reg_preds_2_bias_to_fp16 = const()[name = tensor<string, []>("head_reg_preds_2_bias_to_fp16"), val = tensor<fp16, [4]>([0x1.fd8p-2, 0x1.c5cp-2, 0x1.0a4p+1, 0x1.0b8p+1])];
            tensor<fp16, [1, 4, 20, 20]> reg_output_cast_fp16 = conv(bias = head_reg_preds_2_bias_to_fp16, dilations = reg_output_dilations_0, groups = reg_output_groups_0, pad = reg_output_pad_0, pad_type = reg_output_pad_type_0, strides = reg_output_strides_0, weight = head_reg_preds_2_weight_to_fp16, x = input_cast_fp16)[name = tensor<string, []>("reg_output_cast_fp16")];
            tensor<string, []> obj_output_pad_type_0 = const()[name = tensor<string, []>("obj_output_pad_type_0"), val = tensor<string, []>("valid")];
            tensor<int32, [2]> obj_output_strides_0 = const()[name = tensor<string, []>("obj_output_strides_0"), val = tensor<int32, [2]>([1, 1])];
            tensor<int32, [4]> obj_output_pad_0 = const()[name = tensor<string, []>("obj_output_pad_0"), val = tensor<int32, [4]>([0, 0, 0, 0])];
            tensor<int32, [2]> obj_output_dilations_0 = const()[name = tensor<string, []>("obj_output_dilations_0"), val = tensor<int32, [2]>([1, 1])];
            tensor<int32, []> obj_output_groups_0 = const()[name = tensor<string, []>("obj_output_groups_0"), val = tensor<int32, []>(1)];
            tensor<fp16, [1, 128, 1, 1]> head_obj_preds_2_weight_to_fp16 = const()[name = tensor<string, []>("head_obj_preds_2_weight_to_fp16"), val = tensor<fp16, [1, 128, 1, 1]>(BLOBFILE(path = tensor<string, []>("@model_path/weights/weight.bin"), offset = tensor<uint64, []>(17923456)))];
            tensor<fp16, [1]> head_obj_preds_2_bias_to_fp16 = const()[name = tensor<string, []>("head_obj_preds_2_bias_to_fp16"), val = tensor<fp16, [1]>([-0x1.38cp+0])];
            tensor<fp16, [1, 1, 20, 20]> obj_output_cast_fp16 = conv(bias = head_obj_preds_2_bias_to_fp16, dilations = obj_output_dilations_0, groups = obj_output_groups_0, pad = obj_output_pad_0, pad_type = obj_output_pad_type_0, strides = obj_output_strides_0, weight = head_obj_preds_2_weight_to_fp16, x = input_cast_fp16)[name = tensor<string, []>("obj_output_cast_fp16")];
            tensor<fp16, [1, 1, 20, 20]> var_1357_cast_fp16 = sigmoid(x = obj_output_cast_fp16)[name = tensor<string, []>("op_1357_cast_fp16")];
            tensor<fp16, [1, 80, 20, 20]> var_1358_cast_fp16 = sigmoid(x = cls_output_cast_fp16)[name = tensor<string, []>("op_1358_cast_fp16")];
            tensor<bool, []> x_interleave_0 = const()[name = tensor<string, []>("x_interleave_0"), val = tensor<bool, []>(false)];
            tensor<fp16, [1, 85, 20, 20]> x_cast_fp16 = concat(axis = var_1024, interleave = x_interleave_0, values = (reg_output_cast_fp16, var_1357_cast_fp16, var_1358_cast_fp16))[name = tensor<string, []>("x_cast_fp16")];
            tensor<int32, [3]> concat_0 = const()[name = tensor<string, []>("concat_0"), val = tensor<int32, [3]>([1, 85, 6400])];
            tensor<fp16, [1, 85, 6400]> var_1367_cast_fp16 = reshape(shape = concat_0, x = x_3_cast_fp16)[name = tensor<string, []>("op_1367_cast_fp16")];
            tensor<int32, [3]> concat_1 = const()[name = tensor<string, []>("concat_1"), val = tensor<int32, [3]>([1, 85, 1600])];
            tensor<fp16, [1, 85, 1600]> var_1368_cast_fp16 = reshape(shape = concat_1, x = x_5_cast_fp16)[name = tensor<string, []>("op_1368_cast_fp16")];
            tensor<int32, [3]> concat_2 = const()[name = tensor<string, []>("concat_2"), val = tensor<int32, [3]>([1, 85, 400])];
            tensor<fp16, [1, 85, 400]> var_1369_cast_fp16 = reshape(shape = concat_2, x = x_cast_fp16)[name = tensor<string, []>("op_1369_cast_fp16")];
            tensor<bool, []> var_1371_interleave_0 = const()[name = tensor<string, []>("op_1371_interleave_0"), val = tensor<bool, []>(false)];
            tensor<fp16, [1, 85, 8400]> var_1371_cast_fp16 = concat(axis = var_1020, interleave = var_1371_interleave_0, values = (var_1367_cast_fp16, var_1368_cast_fp16, var_1369_cast_fp16))[name = tensor<string, []>("op_1371_cast_fp16")];
            tensor<int32, [3]> var_1372 = const()[name = tensor<string, []>("op_1372"), val = tensor<int32, [3]>([0, 2, 1])];
            tensor<int32, [3]> var_1422_begin_0 = const()[name = tensor<string, []>("op_1422_begin_0"), val = tensor<int32, [3]>([0, 0, 0])];
            tensor<int32, [3]> var_1422_end_0 = const()[name = tensor<string, []>("op_1422_end_0"), val = tensor<int32, [3]>([1, 8400, 2])];
            tensor<bool, [3]> var_1422_end_mask_0 = const()[name = tensor<string, []>("op_1422_end_mask_0"), val = tensor<bool, [3]>([true, true, false])];
            tensor<fp16, [1, 8400, 85]> outputs_cast_fp16 = transpose(perm = var_1372, x = var_1371_cast_fp16)[name = tensor<string, []>("transpose_0")];
            tensor<fp16, [1, 8400, 2]> var_1422_cast_fp16 = slice_by_index(begin = var_1422_begin_0, end = var_1422_end_0, end_mask = var_1422_end_mask_0, x = outputs_cast_fp16)[name = tensor<string, []>("op_1422_cast_fp16")];
            tensor<fp16, [1, 8400, 2]> const_24_to_fp16 = const()[name = tensor<string, []>("const_24_to_fp16"), val = tensor<fp16, [1, 8400, 2]>(BLOBFILE(path = tensor<string, []>("@model_path/weights/weight.bin"), offset = tensor<uint64, []>(17923776)))];
            tensor<fp16, [1, 8400, 2]> var_1423_cast_fp16 = add(x = var_1422_cast_fp16, y = const_24_to_fp16)[name = tensor<string, []>("op_1423_cast_fp16")];
            tensor<fp16, [1, 8400, 1]> const_25_to_fp16 = const()[name = tensor<string, []>("const_25_to_fp16"), val = tensor<fp16, [1, 8400, 1]>(BLOBFILE(path = tensor<string, []>("@model_path/weights/weight.bin"), offset = tensor<uint64, []>(17957440)))];
            tensor<fp16, [1, 8400, 2]> var_1424_cast_fp16 = mul(x = var_1423_cast_fp16, y = const_25_to_fp16)[name = tensor<string, []>("op_1424_cast_fp16")];
            tensor<int32, [3]> var_1425_begin_0 = const()[name = tensor<string, []>("op_1425_begin_0"), val = tensor<int32, [3]>([0, 0, 2])];
            tensor<int32, [3]> var_1425_end_0 = const()[name = tensor<string, []>("op_1425_end_0"), val = tensor<int32, [3]>([1, 8400, 4])];
            tensor<bool, [3]> var_1425_end_mask_0 = const()[name = tensor<string, []>("op_1425_end_mask_0"), val = tensor<bool, [3]>([true, true, false])];
            tensor<fp16, [1, 8400, 2]> var_1425_cast_fp16 = slice_by_index(begin = var_1425_begin_0, end = var_1425_end_0, end_mask = var_1425_end_mask_0, x = outputs_cast_fp16)[name = tensor<string, []>("op_1425_cast_fp16")];
            tensor<fp16, [1, 8400, 2]> var_1426_cast_fp16 = exp(x = var_1425_cast_fp16)[name = tensor<string, []>("op_1426_cast_fp16")];
            tensor<fp16, [1, 8400, 2]> var_1427_cast_fp16 = mul(x = var_1426_cast_fp16, y = const_25_to_fp16)[name = tensor<string, []>("op_1427_cast_fp16")];
            tensor<int32, [3]> var_1428_begin_0 = const()[name = tensor<string, []>("op_1428_begin_0"), val = tensor<int32, [3]>([0, 0, 4])];
            tensor<int32, [3]> var_1428_end_0 = const()[name = tensor<string, []>("op_1428_end_0"), val = tensor<int32, [3]>([1, 8400, 85])];
            tensor<bool, [3]> var_1428_end_mask_0 = const()[name = tensor<string, []>("op_1428_end_mask_0"), val = tensor<bool, [3]>([true, true, true])];
            tensor<fp16, [1, 8400, 81]> var_1428_cast_fp16 = slice_by_index(begin = var_1428_begin_0, end = var_1428_end_0, end_mask = var_1428_end_mask_0, x = outputs_cast_fp16)[name = tensor<string, []>("op_1428_cast_fp16")];
            tensor<bool, []> var_1430_interleave_0 = const()[name = tensor<string, []>("op_1430_interleave_0"), val = tensor<bool, []>(false)];
            tensor<fp16, [1, 8400, 85]> var_1430_cast_fp16 = concat(axis = var_1018, interleave = var_1430_interleave_0, values = (var_1424_cast_fp16, var_1427_cast_fp16, var_1428_cast_fp16))[name = tensor<string, []>("op_1430_cast_fp16")];
            tensor<string, []> var_1430_cast_fp16_to_fp32_dtype_0 = const()[name = tensor<string, []>("op_1430_cast_fp16_to_fp32_dtype_0"), val = tensor<string, []>("fp32")];
            tensor<fp32, [1, 8400, 85]> var_1430 = cast(dtype = var_1430_cast_fp16_to_fp32_dtype_0, x = var_1430_cast_fp16)[name = tensor<string, []>("cast_6")];
        } -> (var_1430);
}